models/ppo_gear_placer_best.pt (torch, 117038 bytes, 9 tensors)

shared_layers.0.weight f4 [128, 7]
00000000: a418 793d 0d92 b23e 1936 afbe c1e9 483e
00000010: 9220 9c3d 8d35 46be 7fd7 5dbb 7d58 a9be
00000020: 9601 293e f654 763e d53a aabe fa8f 623e
00000030: 5067 63bd a739 c13e 7a85 aebe 77ee b13e
00000040: fbdd 08be 642f aabe 165c 333e a0d9 873d
00000050: 539e 8e3e 050c 4b3d 4fd5 45be a31c 0c3e
00000060: 2a8a 273e 2455 803e 0070 573a c185 1e3c
00000070: aa02 443c 68c4 eaba da58 023e 11f3 b2be
00000080: 5188 1c3d a56b ac3e 099f 373e 525c 463e
00000090: a587 0c3e 0873 a03e 3d1d b93e 144e b2be
000000a0: 2755 acbe 22e4 a8be 164c 3b3e f3fd a73e
000000b0: 3320 90be f3b9 a8be 5ac7 46be 0d63 33be
000000c0: 2975 b2be 120f bfbe 080f b63d 2c81 b33d
000000d0: 7ce6 b9bd 3ed8 58be 1e8b 7b3e 3330 e53d
000000e0: e9e6 f6bd 1b82 95be 7e67 adbe 877d 65be
000000f0: b9d6 a33d 8261 b8be add2 9a3e 4766 293e
00000100: d3a6 4b3e a426 a4bd afe2 91be 17cd 97be
00000110: 1e5b 733e d982 ca3e baf6 2c3e 674f 8cbe
00000120: 89a1 883e 169c b7bc f162 803e d41d f13d
00000130: 47e3 54be 4cd5 b4be bbe2 f3bb 1c2c ca3c
00000140: 0d81 66be f3b4 fdbc 9388 863e 67ef 163d
00000150: ac47 d7bc 3769 183d 5ab0 fa3d 1767 ba3d
00000160: ac51 3c3d 49e6 bcbe 2b23 c7bd d1a8 a83d
00000170: c098 4b3e 9d0d 8f3d 9768 413e dfb5 d5bd
00000180: 2f3e ae3e 0a9d bd3e 6068 e6bc 8835 4a3d
00000190: b117 0fbe 51e4 51be 3e1f a1be 19f3 22be
000001a0: 8a15 01be 2360 8d3d 33f8 a7be 83cb 9c3e
000001b0: 6dc5 4bbe 7e26 48be 0bed b8be 966d 8e3e
000001c0: 7b29 3cbd 9b01 dc3c 514c 513e bf2b 683d
000001d0: 07da 99be 5c06 b53d 4556 e73b e5de ae3d
000001e0: 5e1b 86be cb8a 733e 4ba5 1a3e 1746 00be
000001f0: 5ce3 fb3d 83be 1cbe 9dd2 90bd 0ba9 983e
00000200: 3ae5 96bc 99b5 36be 4dfb e43d d096 00be
00000210: 5db0 b4bd 34c1 b0bd 1abd 033e b896 813d
00000220: 8fee 94be 3ac9 5e3e d08b a53d ebcc 8f3e
00000230: 8b47 9e3e bd30 adbe 600e 5cbe 2ccc 3dbe
00000240: b696 afbe ac3a fd3d 008a 6ebc 698e 85be
00000250: 8902 603e 0f06 b43d 197c 9bbd e06a fdbd
00000260: 15b7 b23e 5a60 583c 1732 823e 79ee 9fbc
00000270: 74ef debd f16e 6b3e 5346 983d a4e2 6cbe
00000280: 91fe aabe 6e6d a7be 4a94 b43e 8249 243e
00000290: 6cd9 a1bd 5c59 243e 7ab9 7cbe 02e0 b33d
000002a0: 42fb 5d3e 9ac8 813e 7efc 993e 6020 fdbd
000002b0: 6f90 12be 82f9 89be 690b eebd 5e0a af3e
000002c0: 7802 b4bd 58a5 87be 282b 48be 90a6 233e
000002d0: d1b2 a2be fe67 8bbe 6efa df3d c815 9ebe
000002e0: e019 4c3d 761f bbbe 54e0 8e3d e099 243c
000002f0: ba00 28be 29cb 803e 5cc7 a73e a099 493d
00000300: 2737 b73e 42dd 63be 9ed4 6c3e 120b 1bbd
00000310: dff5 bbbe 73f9 32be ed8f 6c3e c284 a53e
00000320: 5772 1e3d 4020 e93b 4240 96bd ad93 a03e
00000330: 955c 0c3e f8c6 adbe 541c f43d 3ea9 1cbd
00000340: 62c0 bfbe f9de 8e3e 3f9c 92be 85b1 29bd
00000350: 7f0c 143e 3eaa bfbd 6f97 6e3d 3fb0 bc3e
00000360: 797f 073e 1997 bc3e 58de c2be 0ba4 95be
00000370: e287 83be 0cb0 5c3e d2b6 143e 937e 5c3e
00000380: a575 8b3e 4ba0 96be 8b7f 3a3e 5111 a5bd
00000390: 6a21 a73e e348 abbe 236e b7bd 6dc2 4ebe
000003a0: b36a 1dbe 353e 2b3e 57a0 cc3d 6f4a e8bd
000003b0: faea 40be 4be4 b5bc 5466 4ebe 7f6d b0be
000003c0: 92cb 893e a0d5 48be 38b5 74bc 9086 cfbd
000003d0: 9f03 123b 07e7 9dbe de90 0bbd 81d2 40be
000003e0: 81d7 bebd 788d a03e 977b b53e c8ce 6bbe
000003f0: 5afa 1fbe 9180 913e 7013 cf3d f3f9 993e
0.060814515 0.34877053 -0.3422096 0.1962042 0.076234 -0.19356366 -0.003385037 -0.33075324
0.16504511 0.24055848 -0.3324801 0.22125235 -0.05551845 0.37739298 -0.3408621 0.34752247
-0.13365929 -0.3323928 0.17515597 0.066333055 0.27855167 0.04957201 -0.19319652 0.13682799
0.16361299 0.25064957 0.00082182884 0.009675444 0.011963526 -0.0017911317 0.12729207 -0.3495107
0.03821594 0.33675876 0.17931761 0.19371155 0.1372362 0.31337762 0.3615512 -0.34825194
-0.33658716 -0.32986552 0.18290743 0.32810935 -0.28149566 -0.32954368 -0.19411984 -0.17518254
-0.3485501 -0.37316185 0.08889586 0.08764872 -0.090771645 -0.2117624 0.24564788 0.11190834
-0.12055761 -0.29200825 -0.3386802 -0.22411166 0.079999395 -0.36011893 0.30238858 0.16542922
0.19887857 -0.080151826 -0.28493258 -0.2964866 0.23765227 0.39552954 0.16890994 -0.2740433
0.26685742 -0.022413295 0.25075486 0.117732674 -0.20789824 -0.35318983 -0.0074428 0.024679236
-0.22510166 -0.030970072 0.26276073 0.036849406 -0.026279293 0.037209716 0.12240668 0.09101694
0.045976326 -0.36894444 -0.09723505 0.08235324 0.19882488 0.069850184 0.18887554 -0.1043508
0.34031817 0.37033874 -0.028125942 0.049367458 -0.13973881 -0.20497252 -0.31469148 -0.15913047
-0.12605873 0.06903102 -0.32806548 0.30624017 -0.1989953 -0.19545934 -0.3611835 0.27817982
-0.045937996 0.026856234 0.20439269 0.056682345 -0.30049154 0.088391036 0.0070598447 0.085386075
-0.26192755 0.23783414 0.15102117 -0.12526737 0.12299225 -0.1530705 -0.07071421 0.2981647
-0.01841985 -0.17842712 0.11180744 -0.1255753 -0.08822701 -0.086306006 0.12865105 0.063275754
-0.29088256 0.2175645 0.08083308 0.28086028 0.30913958 -0.33826247 -0.21489859 -0.18534917
-0.3429467 0.123647064 -0.014559269 -0.26085213 0.21875967 0.08790218 -0.07592029 -0.123739004
0.34905306 0.013206566 0.2542884 -0.019522892 -0.10885516 0.2299154 0.07435288 -0.23133332
-0.33397344 -0.32700676 0.35269386 0.16043666 -0.07902798 0.16049713 -0.24680129 0.087829605
0.21677878 0.2534836 0.3007545 -0.12359691 -0.1431291 -0.26948172 -0.1162327 0.34187597
-0.087895334 -0.26493335 -0.19547713 0.15981507 -0.3177705 -0.27227777 0.109364375 -0.30875993
0.049829364 -0.3654744 0.06976381 0.010046452 -0.16406527 0.25155 0.32769287 0.049218774
0.35784265 -0.22252372 0.23127982 -0.037852354 -0.36711022 -0.1747797 0.23101778 0.3232785
0.03868326 0.00711444 -0.07336475 0.31362668 0.13707192 -0.33940864 0.11919466 -0.03824734
-0.37451464 0.2790449 -0.2863483 -0.04142906 0.14457892 -0.09358643 0.058249887 0.36853215
0.1323222 0.36834028 -0.3806026 -0.29226717 -0.25689608 0.21551532 0.14522865 0.21532659
0.27238193 -0.2941917 0.18212716 -0.080599435 0.3264268 -0.33454046 -0.08956554 -0.20191355
-0.15372734 0.16722949 0.0999152 -0.11342322 -0.18839636 -0.022203585 -0.20156223 -0.3445854
0.26913124 -0.19612741 -0.014935784 -0.10133088 0.002227999 -0.30840322 -0.034073703 -0.18830301
-0.09318448 0.31357932 0.35445854 -0.230281 -0.15622845 0.284184 0.10111129 0.3007351

shared_layers.0.bias f4 [128]
00000000: 852f 43be 310a 48be c758 383c cdca 9bbe
00000010: 0a36 acbe 250e a23d 68bb 79bd 122e 543b
00000020: 147e 8c3c f30f 3f3e d885 2dbb d733 b43e
00000030: ea91 733e 6fda a93e 8622 bdbe 27d2 333e
00000040: 2e98 043c a1e4 b0be 866b 9abd 926c 5fbe
00000050: c482 ac3d 9614 95be 877b 673e 33ee 8c3e
00000060: ee3e 603e 6a33 8a3e b1bc f0bd c206 2bbe
00000070: 20e4 4c3e 69ba 86bd 1433 7dbe 9ae1 323e
00000080: 5a4f 1e3e 8d61 91be 485d b43e 0a3c 183e
00000090: 60ac 09bc 71be 46be 9171 51be b18f 843e
000000a0: cc8e 763e 4981 b33d 4e2b 4bbc 03eb 86be
000000b0: 1582 a2be e3ea 9a3e 70b2 0f3e d3ac 93be
000000c0: e0b3 9d3d 9519 29be f04e 8abe 2ec3 ad3e
000000d0: eabd 39be 77e5 9e3e a8eb 4ebe d398 2cbe
000000e0: 1ad5 003e 794f b03d e767 653c ad57 93be
000000f0: 9582 743e 7c19 d03d bfc2 4b3e 1746 81be
00000100: 8078 9e3e f93a 5abe 4912 f2bc b115 583e
00000110: 7cac 7b3e e1fb f33d 3e6a 9c3e 0097 50bd
00000120: 6f80 07be 9031 7f3e d0be 4cbe a6c0 703d
00000130: d4b3 8abb 9933 15bd cee4 5dbd 4033 90be
00000140: 2bfc 52be 5281 6d3e c5b9 b3be 1ce2 1b3e
00000150: f2c1 dc3d 4a04 82be 7702 1ebe 9dc8 42bd
00000160: 2e35 c1be f0de 58be b446 8cbe 0aca 1ebe
00000170: da69 af3a 6762 aa3e 0d9d 50be 66f9 c4be
00000180: 9396 3b3e e4fc fe3a 6212 a93d 4f23 71be
00000190: de77 9f3e fda9 bcbd 42ea d1bc 7f15 f1ba
000001a0: 990b b03d 450c 92be 31e7 74bd 7ea8 03be
000001b0: 119c 82be 2dee a1bd c2f5 6ebe e93f 46be
000001c0: 516a a6be 0823 5ebd 5d80 483d bb39 ab3d
000001d0: 3f48 8d3e 2273 313c 3d71 aa3e 35c9 983e
000001e0: b283 2abe e926 893e f2d9 1c3e 3cff 393e
000001f0: 50b3 08be 99d5 fd3d ee4e 473e 87df 0ebd
-0.19061096 -0.19535138 0.011251635 -0.30428162 -0.3363498 0.07912854 -0.06096974 0.0032376093
0.017149962 0.18658428 -0.0026477482 0.351958 0.2378613 0.33174464 -0.36940402 0.17560636
0.008092923 -0.3454943 -0.0754004 -0.2181876 0.08423379 -0.29117268 0.22605716 0.27525482
0.21899006 0.2699235 -0.1175474 -0.16701797 0.20008898 -0.06578524 -0.24726516 0.17468873
0.15459958 -0.28394738 0.35227418 0.14866653 -0.008402914 -0.19408585 -0.20453478 0.25890878
0.2407791 0.087648936 -0.012400461 -0.26351175 -0.3173987 0.3025733 0.14032912 -0.28842792
0.07700324 -0.16513665 -0.2701335 0.33937973 -0.18138853 0.31034443 -0.20207083 -0.16855173
0.12581292 0.08608908 0.014001823 -0.2877783 0.23877938 0.10161111 0.19898508 -0.25248787
0.3095131 -0.21311559 -0.029549735 0.21102025 0.24577516 0.119132765 0.30549806 -0.050925255
-0.13232587 0.2492125 -0.19994664 0.058777474 -0.004232863 -0.03642616 -0.054173283 -0.281641
-0.20604007 0.23193863 -0.35102668 0.15222973 0.1077918 -0.25393897 -0.15430628 -0.0475546
-0.37735885 -0.21178794 -0.27397692 -0.1550676 0.0013382987 0.332782 -0.2037241 -0.38471526
0.18319158 0.0019454029 0.08255459 -0.23548625 0.3114614 -0.0921211 -0.025624398 -0.0018393247
0.08595962 -0.28524986 -0.059790794 -0.12857243 -0.25509694 -0.079067566 -0.23335937 -0.19360317
-0.32502988 -0.054232627 0.04895054 0.083606206 0.27594182 0.010830672 0.3328952 0.2984101
-0.166518 0.267875 0.15317515 0.1816377 -0.13349652 0.12394256 0.19463703 -0.03488114

shared_layers.2.weight f4 [128, 128]
00000000: 1ea4 283c 44d7 76bd 7627 653d 76af 963d
00000010: f370 b3ba 4920 a3bd cc11 05bd 28ae 963c
00000020: e913 04bb 2ebc 81bc b604 f3bb ac77 96bc
00000030: 07c8 223c cc18 b2bd a797 2ebd d9ac 843d
00000040: 9971 90bd 7c0d 783d f85c a8bd 3e19 c13c
00000050: 9199 18bd 5ce8 793d a5c6 a7bd ba10 d1bc
00000060: 5ff5 b0bd 6ad1 aebd 5efc cd3c d6e4 38bd
00000070: 6302 b63c 87d9 69bd 0bbf b83d ae93 4ebd
00000080: d0ec 2dbc b774 31bd b7e0 a93d 4e81 d6bd
00000090: b74f 873d bc60 913c 4d01 b1bd 4c52 47bd
000000a0: ef91 06bb 6352 9ebd 511b eebc 99e0 2b3a
000000b0: 8d39 af3c 816f 8d3d 3d1d a03d 718f d8bc
000000c0: db45 4abd 723e 83bc 8267 b7bb 7a32 9b3c
000000d0: 21ba d73c ec59 6f3b 12dc 2abc eaec 9e3c
000000e0: f778 3dbd 9d0b 873d 7fbe 233d 6fd6 e7bc
000000f0: 25fc 90bd 61ab 2a3d 0777 9bbc 5e74 ba3c
00000100: 30f7 9ebb 692a f6bc ab31 5fbd aeed ab3d
00000110: b108 4a3d a564 6a3d ef5e 5f3d c029 55bc
00000120: 1cbd 5e3d f07a e93c 9c12 debb 46bd 08bc
00000130: d15b 1bbd cd4f 8cbc fe4a 91ba 36e2 413d
00000140: 368f e7bc 4ac6 34bd 9b16 13bd 6441 403d
00000150: 698e 893c 8f87 07bd 0009 033d 2df0 193d
00000160: b72a f9bc 3720 19bd 79a7 a7bd d1a5 84bc
00000170: 6b6a dabd d396 203d 6a85 ffbb 3901 5dbd
00000180: f597 cdbd b353 f3bc af12 5dbd 00c2 e4bb
00000190: 7267 adbd df22 4dbd 4d92 0dbd dc0a 9ebd
000001a0: d2bb d4bd 6c35 99bd 66c5 8d3d f935 ee3c
000001b0: 3e36 a3bd 8916 d8bd 2444 733d 02a3 c73c
000001c0: d1ee 623a e263 a1bb 7259 9cbd 70d5 90bd
000001d0: e69c 98bd b4a5 3d3d b4de 66b8 e2c1 c13d
000001e0: 8af4 b0bc d066 94bd 615d 483c f141 5b3d
000001f0: d425 7f3c f1e1 34bd f87e 7cbd 01cf 8abd
00000200: 7528 573c ea28 4c3d 7070 c6bd c41f 053c
00000210: 146b ad3d 5d1c aa3c d707 793b 4a5d e2bb
00000220: 8ae8 c0bd ca05 92bb 3b80 79bd 78ed 99bd
00000230: 0fad 0fbd 799b f53c e516 56bd 8c9d 46bd
00000240: 9d77 adbc a680 c1bc 5878 ae3c 9062 05bd
00000250: ae0e 243d 827b e2bc 53bc 81bd 228c 163d
00000260: bf47 8c3d 376c 63bd 2aad d83c 7f72 c9bc
00000270: 6556 f53a e638 dfbc e55b 73bd 14eb 543c
00000280: abac aa3d 4bc2 613d 972e bdbc 95c2 bf3d
00000290: 7ee1 f9bc d2a1 b93d 5f9b 19bb d222 873d
000002a0: 8f5b cf3d 3c07 a83c b3fb 1e3d 826e 2b3d
000002b0: 1c1d 8f3d cdab d83c da48 efbc 5ca8 6d3c
000002c0: 67cd 0fbb 1e03 54bd 7fc7 d53b 4b17 0e3d
000002d0: 4b2e 963d 747e 5e3d d657 a03d 9a87 01bc
000002e0: 5551 8e3d c883 673d f928 be3c d232 b03d
000002f0: a0b5 92bd 8d6d 04bc 817f 7e3d 230d 193d
00000300: 6c94 3c3d 3aa8 99bb 9879 94bc cbcf e7ba
00000310: 4451 ed3c a5e6 2e3d 9108 103d 407d 18bc
00000320: b70b 8a3d 44ee a43d a0a8 553c 1dca 1b3c
00000330: 59a3 383d e164 8c3d c2b5 b5bd f7fd 963c
00000340: ccc6 ce3d a224 03bc 28b7 203c 2fd3 863d
00000350: 6f9c 88bd 7044 7a3d 85f2 893d ac43 83bd
00000360: 3a09 753b 750b 8bbd 9ba6 a13b 1625 a8bd
00000370: f4ce ddb9 2a62 433c e23f 4b3d ee99 8139
00000380: f57d 5ebd 6197 dd3c fb76 663d c8fe 2c3c
00000390: 5709 af3d 438e e6bc 6987 693d 6744 e53c
000003a0: 0185 073d 0f8a a6bd eb64 c2bc ee28 5b3c
000003b0: 8355 0abd b3e1 32bd b0c3 b53a f1d2 9d3d
000003c0: 07b0 a13c 0d7a 3bbd 3d4a 81bd 00db 733c
000003d0: 0db7 273d 760f d93b f37f cabc 3c95 5a3d
000003e0: 26ae 2c3d 1cf5 afbc bb00 20bd 2410 d43d
000003f0: 0884 48ba 00cd 9cba f0a4 bdbd 8d93 9b3d
0.010293035 -0.060263887 0.055945836 0.07357685 -0.0013690278 -0.07965142 -0.032487676 0.018393591
-0.002015347 -0.015836801 -0.007416333 -0.01836761 0.009935386 -0.08696136 -0.042625096 0.064782806
-0.07052917 0.060559735 -0.082208574 0.023571607 -0.037255827 0.06101261 -0.08192185 -0.025520671
-0.08640551 -0.08536036 0.025144752 -0.04514011 0.022217935 -0.057092216 0.090208136 -0.050433807
-0.0106155425 -0.0433242 0.08294814 -0.10473882 0.06607001 0.017746322 -0.08642826 -0.04866247
-0.002053376 -0.07730558 -0.02906576 0.00065566 0.021389747 0.06906033 0.07818077 -0.026435586
-0.049383026 -0.016020987 -0.005597056 0.018944968 0.02633387 0.0036522103 -0.010428445 0.019400079
-0.04625794 0.06594012 0.039976593 -0.028300492 -0.07079343 0.041667346 -0.018977655 0.022760566
-0.0048512444 -0.03004952 -0.054490726 0.08394943 0.049324695 0.05722489 0.054533895 -0.013010442
0.054379568 0.028501004 -0.0067771208 -0.008345908 -0.03792936 -0.017127896 -0.0011084971 0.047334872
-0.02826653 -0.044134416 -0.03591023 0.04693736 0.01679154 -0.033088263 0.031991005 0.037582565
-0.030415876 -0.037384238 -0.0818624 -0.016192349 -0.10664829 0.039206337 -0.0077978866 -0.053956244
-0.10038749 -0.029702997 -0.053972896 -0.0069811344 -0.08466996 -0.050082084 -0.03456335 -0.07716915
-0.103873864 -0.074808925 0.069224164 0.02907847 -0.0796933 -0.10551173 0.059391156 0.02436972
0.0008656802 -0.004925237 -0.07634248 -0.0707196 -0.07451801 0.046300605 -5.504368e-05 0.09460808
-0.02160098 -0.072461724 0.0122292945 0.053529684 0.015572984 -0.044160787 -0.061644524 -0.06777764
0.013132204 0.049843706 -0.096894145 0.008125249 0.08467689 0.020765478 0.0037999058 -0.0069080936
-0.09419353 -0.0044562565 -0.060913306 -0.07515997 -0.03507715 0.029981362 -0.052267928 -0.048490092
-0.0211752 -0.023620915 0.021297619 -0.0325647 0.040053062 -0.027646784 -0.06334748 0.036754735
0.06849622 -0.055523124 0.026449759 -0.024590729 0.0018717764 -0.027248811 -0.05941381 0.0129955
0.08333715 0.055116933 -0.023093505 0.093632855 -0.03050303 0.09064068 -0.0023438556 0.06598438
0.10124885 0.020511262 0.038814258 0.041853435 0.06987974 0.026449108 -0.029209543 0.014505472
-0.0021942498 -0.051760785 0.006524026 0.034690183 0.073330484 0.054319814 0.078292534 -0.007905865
0.069491066 0.05652216 0.023212897 0.08603443 -0.071635485 -0.00808276 0.062133316 0.037366044
0.046039984 -0.0046892436 -0.018124387 -0.0017685828 0.028969415 0.04270043 0.03516442 -0.009307206
0.06740516 0.08053258 0.013040692 0.009508637 0.045077655 0.068551786 -0.08872558 0.018431647
0.10096511 -0.008004339 0.009809293 0.06583249 -0.06670462 0.061100423 0.0673571 -0.06409392
0.0037389533 -0.06789295 0.004933191 -0.082101986 -0.00042306597 0.01192526 0.04962147 0.00024719484
-0.05431934 0.027049722 0.056265812 0.010558791 0.08546703 -0.028144008 0.057013903 0.027986718
0.033085827 -0.08131801 -0.023729762 0.013376458 -0.033772957 -0.043672275 0.0013867524 0.077062495
0.019737257 -0.045770694 -0.06312988 0.014883757 0.040946055 0.0066241575 -0.024719214 0.053364977
0.04215827 -0.021479182 -0.039063197 0.10354641 -0.0007649069 -0.001196295 -0.09259975 0.075965025

shared_layers.2.bias f4 [128]
00000000: f862 1dbd dade 3b3d 6c29 a7bd b07b 8fbd
00000010: c0da 183d d4fd a5bc 643b b0bd 52d8 8e3d
00000020: e794 a03d 6883 563d a5bb 903d 42e2 fb3c
00000030: 2fb7 22bc 6ef6 0b3c e0b6 9d3d f312 96bd
00000040: e085 623d 2ba7 723d 6662 95bd 802d 1bbd
00000050: c268 38bc cd30 3c3d 8e83 853d e0ec c1bc
00000060: 7b67 983d 9cb6 8abc d5e4 153d 30e6 b6bc
00000070: 507e 743c 3820 65bd b21b 803d 0c05 703d
00000080: ad45 cabd a5ba b4bd 563d 2b3d 5445 0abd
00000090: f5b7 3bbc 9f19 7e3d aecd 9a3c fa3e 463d
000000a0: 76fe 063d 6eb5 1abd de87 743d 27eb 50bd
000000b0: 7986 c13d b203 ea3c cbdb 32bd 1ae0 b43d
000000c0: 8eda 9bbd 41c0 283d 5705 0cbd f428 cc3c
000000d0: d4df ec3c cd47 16bc 976b 2fbd 4b03 5d3d
000000e0: 12bc 103d f51c 853c bab1 c33d f016 4cbd
000000f0: 7cca cabc 1c46 0cbd 69b3 f4bc c0b7 153d
00000100: 6c17 ba3d 7528 6dbc 5043 80bd c538 0d3d
00000110: 11be a73d 4c91 ea3c 539f 59bc b8e9 943d
00000120: 3164 45bd 1742 e13c 08be 4fbd bc79 41bd
00000130: 574f bfbd 2dac 9d3d 06f5 0bbd 282f a03d
00000140: 104a 953d 4bd3 84bd 6b81 7dbc 98d8 0d3d
00000150: cd30 443d 8697 453d eb2d bbbc cba0 9bba
00000160: f1ad 4fbd f1fe 9e3d a71e c1bd e141 893d
00000170: 1b9e 3b3d aeaa 943a 376b 9abc 7a2d bebd
00000180: 281e 043c 0423 be3c 3470 563d 4018 8bbd
00000190: d24f b23d 03cb 753d 7cec 24bc d7f9 6d3d
000001a0: 1195 763c 2bce 9cbd cd14 30bd b91b b3bd
000001b0: e6ed 90bd 16a6 28bd 38d4 493d c8a4 993d
000001c0: 2b22 8bbc 9cf7 9e3d b472 5c39 9106 48bd
000001d0: ed26 273b 7a92 653a 1cf1 36bd 230e 033c
000001e0: d873 8a3d 60d5 45bd e800 19bc 959d 173c
000001f0: 28a0 07bd 4eca 8abd 05ac 4c3d cfd3 1dbd
-0.038424462 0.045866825 -0.081621975 -0.070060134 0.03731799 -0.020262636 -0.08605078 0.069748536
0.07840901 0.052371413 0.0706704 0.030747537 -0.00993137 0.00854264 0.07700896 -0.07327833
0.055303454 0.059241455 -0.07294159 -0.03788519 -0.011255445 0.045944978 0.06519233 -0.023672521
0.07441612 -0.016932778 0.036595184 -0.022326559 0.014922693 -0.05593893 0.062552825 0.058598563
-0.09876571 -0.08824662 0.04180654 -0.033757523 -0.011457433 0.062036153 0.018896904 0.048399903
0.032957517 -0.03777068 0.059699886 -0.05100551 0.09449477 0.028566215 -0.043666642 0.088318065
-0.076100454 0.041198973 -0.03418478 0.024921872 0.028915323 -0.009172392 -0.042827215 0.05395822
0.035335608 0.01624916 0.09555383 -0.049826562 -0.024754755 -0.03424655 -0.029870706 0.03655219
0.090864986 -0.014474978 -0.06262839 0.034477968 0.08190549 0.028633736 -0.013282615 0.07271141
-0.048191253 0.027497334 -0.050718337 -0.047235236 -0.09341305 0.076988555 -0.03416922 0.07821494
0.07289517 -0.064856134 -0.01547275 0.034630388 0.047898103 0.048240207 -0.022849044 -0.0011873482
-0.050702993 0.0776347 -0.094296746 0.067020185 0.045805078 0.001134237 -0.018849952 -0.09286018
0.00806383 0.023210056 0.0523531 -0.06791735 0.08706631 0.06000806 -0.010066148 0.058099594
0.015050189 -0.07656511 -0.042988587 -0.08745522 -0.070766255 -0.041174017 0.049274653 0.07502133
-0.016984066 0.077620715 0.00021023565 -0.048834387 0.002550538 0.00087574834 -0.044663534 0.007998976
0.06760377 -0.048299193 -0.009338595 0.009253879 -0.03311172 -0.06776868 0.049968738 -0.038532075

actor_head1.weight f4 [41, 128]
00000000: 756e 5f3d 6956 1c3d 4c5f 403d 6814 62bd
00000010: 55fb 79bd 928c 603d 95b8 8d3d 3533 613c
00000020: d410 c73d 74c9 873d 8c76 9739 eec4 85bd
00000030: 1e34 373d 47e8 9bbc e8c7 ff3b 2481 08bd
00000040: 2516 2a3d 6ed8 8fbd 0c4a 85bd 851d c9bc
00000050: df6c 6fbd 80b3 163d d352 933b 51ac 8abc
00000060: e129 4fbd 5ca9 1dbc 6a18 0ebd c116 213d
00000070: e8bf 493d a965 a83d 767d b3bd 1edf d2bd
00000080: dc3c d23b 3c37 7abd 6345 843d 78eb 763d
00000090: efef 87bd 2c58 293d 7831 313d bfd8 a63c
000000a0: fd50 cb3d 9e36 fa3c c1ca 3f3a 979e 133d
000000b0: f48d 0b3d a3ec 8bbd c1ae 0cbd 58af 853d
000000c0: df95 ffbc 83fb 803d 3e5a dc3c f488 79bd
000000d0: 1b47 9b3d 39b3 b33c 9f84 833d e115 1bbd
000000e0: a2e6 743d 3e09 57bd d4ba a23d afb8 613d
000000f0: e203 a5bc 62ab 0bbd 2108 f03a 6ec5 acba
00000100: fb02 60bd 1d9d 323d b755 6f3d 3a3a 3b3c
00000110: 3924 b9bc 5ed4 8cbc 6657 8ebc 73fb b8bd
00000120: 646f 583d c429 88bd d859 a0bd 8512 33bd
00000130: 3ed5 d93b da8b 553d 50ea 8abd f25c 9b3b
00000140: cfc7 42bd e02d 32bd 0618 a73d 65c3 38bc
00000150: d683 6dbd 61d6 2d3d e378 2c3d 31ef 2a3c
00000160: b390 943d bbfd 79bd 4037 04bc 2a19 6fbb
00000170: 1098 5b3d 94e9 e03c 89be 453c d3fd 73bb
00000180: 9d72 e0ba 7602 83bc 261c f6bc 7c66 5d3d
00000190: 3347 223d e44a b03d 4152 9abc 99ac 4ebd
000001a0: 2b92 283d 2796 96bd b1aa 83ba 8d89 423d
000001b0: 0eb3 aabd 5266 cabd d40a 433d 0863 843d
000001c0: 8f78 1f3c fc3b f9bc bb8b 31bd 35c5 a73d
000001d0: b348 4d3c 2917 87bd 82df 1bbc 8d4e c4bc
000001e0: 8765 a1bd 65f2 46bd 81f0 91bd 23f5 afbc
000001f0: e8fb 8f3d 45af 1fbd ec24 91bd b701 cdbd
00000200: d849 90bc e4e3 533c 7f08 bdbc dc9a 98bd
00000210: 32b0 a8bb 88e5 61bd 4ff5 abbd 69af 653d
00000220: 707e 9abd 9052 02bc bfed a9bd 8620 87bc
00000230: 91f1 9bbd 4593 c2bc ed78 b13d 6707 893d
00000240: 5bbf 753d 598f 2fbd eac4 d83c 4626 24bb
00000250: 5d71 dcba 32a9 313d 1869 ec3c c5ff b13d
00000260: 66d2 09bc 9310 d13c 6176 943d a18b 853d
00000270: a585 2e3d 334b aabd 94fe a73c a3c6 05ba
00000280: 1dff 1abd f455 93bb 828c b33c 139a 9cbd
00000290: 0def a1bd aa33 983d 651e 58bd b228 e4bc
000002a0: 7b99 203d 643b 913c 4513 6b3d eb3c 7d3d
000002b0: 9953 3f3d 3734 73bd 70d5 92bd e8bf 783d
000002c0: d7ea 2dbd 4d0a e03c cdcd a1bd 094a 5a3c
000002d0: 3379 6abd 3319 943d a7a5 a73d c19d ce3b
000002e0: 2549 13bd 74a9 80bd 7769 123d add9 45bd
000002f0: d643 02bd 040c abbb 9e33 553d a9fa 92bd
00000300: b184 c93d d652 143d 76f3 0e3b 9752 c1bc
00000310: b161 d33c 09a3 a4bc 6988 e43b 6bc9 d23b
00000320: 1522 6cbc b369 dabc db76 363d 5bc1 b6bd
00000330: fac8 bcbd e419 bdbc 94b2 3dbc 5812 9c3c
00000340: 8dae afbc d210 13bd 4437 80bd 59c2 1cbd
00000350: 0d2a ef3c 22db 6bbc d80e 79bd d0c3 8fbd
00000360: bc77 3a3d 49dd ac3c 1e39 6bbd 6d27 b83d
00000370: 8790 4fbc 237b f5bc 17ed a8bd 229d 58bd
00000380: 8508 b43c 39e1 84bd 0697 8f3d fd56 4abd
00000390: 4a78 6dbd ffc2 a13d 04f5 1e3d 8612 a73d
000003a0: c486 843d a48a 23bb 6af2 5f3d 0e6c 823d
000003b0: 9805 abbd 0190 8e3c 8ec2 b13c 1f96 aebc
000003c0: e823 973d 78cb 143c b7f4 55bd 4b56 633c
000003d0: 8ed9 50bd ec75 4c3d b36a 87bd f9fe 1539
000003e0: e5f1 003d 4c1b 6c3c 251d 193d ebd6 73bb
000003f0: 6689 4abd d4be 703d 96b3 aa3d 3305 f93c
0.0545487 0.038168345 0.046965882 -0.055195242 -0.061030705 0.05482156 0.06919972 0.013745119
0.097200066 0.06630221 0.0002888929 -0.06531702 0.044727437 -0.019031657 0.007805813 -0.033326283
0.041525025 -0.070237026 -0.06508264 -0.024550209 -0.058453437 0.03679228 0.0044959574 -0.01692787
-0.05057705 -0.009622898 -0.03469125 0.03932834 0.04925528 0.08222515 -0.08764164 -0.102964625
0.0064159464 -0.06108783 0.06458547 0.060283154 -0.066375606 0.041343853 0.043260068 0.020367024
0.09927557 0.030543622 0.00073162845 0.036039915 0.034070924 -0.06832244 -0.034346346 0.06527585
-0.031199394 0.06297972 0.0268985 -0.060921624 0.07581922 0.021936046 0.0642178 -0.037862662
0.05979026 -0.05249905 0.07945791 0.05510777 -0.020143453 -0.03409899 0.001831297 -0.0013181397
-0.054690342 0.043606866 0.058431353 0.0114274565 -0.02260028 -0.017191108 -0.01737566 -0.09032335
0.052840605 -0.06648591 -0.07829636 -0.043718833 0.006647735 0.052135326 -0.06782973 0.0047413046
-0.047553834 -0.04350078 0.08158879 -0.011277054 -0.057987057 0.042440776 0.042107474 0.010433004
0.07254162 -0.06103299 -0.008069813 -0.0036483505 0.053611815 0.027455129 0.012069353 -0.0037230148
-0.0017124001 -0.015992384 -0.03004272 0.054052815 0.039618682 0.08608034 -0.01883805 -0.05045757
0.04115502 -0.07352858 -0.0010045377 0.04749446 -0.08334933 -0.09882797 0.04761775 0.06464201
0.009733333 -0.03042411 -0.043346148 0.08191911 0.01252954 -0.06596214 -0.009513738 -0.023963237
-0.07880693 -0.04857101 -0.071259506 -0.021479195 0.07030469 -0.03898551 -0.070871204 -0.10010093
-0.017613336 0.012932751 -0.02307534 -0.07451412 -0.0051479572 -0.05515054 -0.08396398 0.056075487
-0.07543647 -0.007954255 -0.082972996 -0.016495 -0.076144345 -0.023751864 0.08665643 0.06690865
0.059996944 -0.042861316 0.026461083 -0.0025047227 -0.0016818453 0.043374248 0.028858706 0.08691362
-0.008411979 0.025520599 0.072491415 0.06520773 0.042607922 -0.08315124 0.020507134 -0.00051031465
-0.03784095 -0.0044963304 0.021917585 -0.07646575 -0.079069234 0.07431729 -0.05276336 -0.027851436
0.03920887 0.017728515 0.057391424 0.061825674 0.046710584 -0.059375968 -0.07169616 0.06072989
-0.04246029 0.027348662 -0.079005815 0.013323315 -0.05724449 0.07231369 0.081858926 0.006305427
-0.035958428 -0.062823206 0.03574511 -0.048303295 -0.031802975 -0.0052199382 0.05205118 -0.07176716
0.09839762 0.03621181 0.0021812594 -0.023598952 0.025803419 -0.020097272 0.006974269 0.0064327023
-0.014412423 -0.02666173 0.044546943 -0.089235984 -0.09218021 -0.023083635 -0.011578221 0.019051716
-0.021445537 -0.035904713 -0.06260541 -0.038271282 0.029194856 -0.014395507 -0.06080517 -0.0701977
0.045524344 0.02110161 -0.057427518 0.08991895 -0.012668735 -0.029965943 -0.08248346 -0.05288423
0.021976719 -0.0648827 0.07011227 -0.049399365 -0.057976045 0.07898521 0.038807884 0.0815783
0.06471017 -0.0024954462 0.054674543 0.06368266 -0.08350676 0.01740265 0.021699216 -0.021311818
0.073798954 0.009081714 -0.05223533 0.013875554 -0.050988726 0.049917147 -0.06612148 0.00014304732
0.03148069 0.014410805 0.03738131 -0.0037206959 -0.04944744 0.058775738 0.083350345 0.030397987

actor_head1.bias f4 [41]
00000000: 7ed5 dd3c 9856 0abc a972 b93c a5fc ecbc
00000010: 5c34 2f3d ed7c 91bd 6ff0 aa3d a3a6 783d
00000020: a496 82bd e30e 4dbd 4a9a 95bd 28c8 2ebd
00000030: e615 66bc 8c81 b9bd b6a5 8e3d 3e51 27bd
00000040: 8a35 2dbd bec0 25bd 9b16 893c 3597 333d
00000050: 0cc2 053d 7e88 a0bc a291 b8bc e95c 983c
00000060: 7d9d c43c 7b50 aabc f39f 8fbc 4fdb 50bd
00000070: 2024 b0bc fe12 a8bd cc0e 823d 9204 febb
00000080: 11b5 883d c0f2 8dba b365 05bd 8d9b 8b3d
00000090: a799 6cbd ca79 113d ca35 ef3c a851 51bd
000000a0: c69a 98bd
0.02707934 -0.008443497 0.022637682 -0.028929064 0.042774543 -0.07103906 0.0834664 0.060705792
-0.06376389 -0.050063025 -0.07304819 -0.042671353 -0.014043307 -0.09057912 0.069652006 -0.040848963
-0.042287387 -0.040467016 0.016734412 0.043845374 0.03265576 -0.019596335 -0.02253038 0.01859899
0.024000878 -0.02079033 -0.017532324 -0.0509904 -0.0215016 -0.082067475 0.063504785 -0.0077520097
0.06675161 -0.0010829791 -0.03256769 0.06816778 -0.05776372 0.035516538 0.029200453 -0.051103264
-0.07451396

actor_head2.weight f4 [41, 128]
00000000: e9d1 843d a41c ea3c 3fd1 28bc 0a72 ca3b
00000010: 1a77 c53d c6dd a3bb d7b9 8dbd 6930 e33c
00000020: 4c2b 543b 0676 8c3c 8629 73bc be81 8ebd
00000030: c04d cbbd dbaf acbd a85d 82bd 18dd 3fbd
00000040: b653 813d e1ea 96bd d4b1 ad3c c77d 093d
00000050: 13dc 46bd dec1 94bd b705 77bd 20e8 3f3d
00000060: 9b33 38bd 2c8f a3bd 7d46 413d a228 8f3d
00000070: ddce 84bd d607 023a ae93 98bd 0ffa 8a3d
00000080: f95b 103d 0cde abbd 4ce6 173d 35e7 9e3d
00000090: ad4c c43c 3a57 86bd 42c9 673d b4c8 063d
000000a0: 8556 0cbd be4b dc3c b94c 99bc b1ba 89bd
000000b0: 5fc5 45bd ccc8 1abd debe 7fbd 4616 9bbb
000000c0: 99ac c63d 8ec7 6fbd aaf9 593d 62de 9dbd
000000d0: 2f6e 0f3d a5f4 373d f956 253d 8478 a0bd
000000e0: 25cf 1f3c 80f1 ad3d 2fd6 76bd 7861 983d
000000f0: aa56 9d3d 3c4a 413d 9b61 f93c dcef 9f3b
00000100: 5374 e53c ae01 b2bc f2a7 dabc 7241 e93c
00000110: 537d 41bc d08a 0abd d1ec eebb 46b2 d9bc
00000120: feeb 92bd 063e 203d 5b20 2e3d 77a6 3c3d
00000130: b240 563d dde4 2abb 1aa8 053d e5ba 6dbd
00000140: 4f57 11bd 06f2 1abd fd25 a5bc e857 963d
00000150: b598 c2bc de06 68bd a2b2 7bba 914a 213d
00000160: 0b2c 3a3d 5c52 a23d bf58 74bd c1f3 cdbc
00000170: 679b 333d 4d90 9abd f378 9ebd e839 9abd
00000180: 8232 a7bc 4e47 96bd 0dfb 4cbd 3f16 9e3d
00000190: 4108 fb3c 93a7 5e3d 1b1d 9e3d 55ac 8bbd
000001a0: 172b a0bd c97b 663d 7ed2 5abd 235a cb3b
000001b0: 31a8 073d 1eda 49bc 6045 373d b70e 543c
000001c0: 4829 22bd d768 193d c811 41bd 71de 6f3d
000001d0: 4438 5d3c eaa9 49bd f1df 3bbd c36d acbd
000001e0: ecd9 68bb 38ea be3d 4719 a13d 32e1 4bbd
000001f0: 7750 023d d8c1 5c3d 13f6 8ebd f72a 87bd
00000200: f11d 033d 4d82 603d ed13 af3d 8837 913c
00000210: 51cd 0abd 2d40 ddbc 1089 84bc 3511 8f3d
00000220: 2d37 57bd 5ecd b6bd 2d49 fe3c 621d bd3c
00000230: ea98 753c fb98 8abc 641c 353d ac30 21bd
00000240: 556e b73d 1799 dcbc 3eb2 9e3d 2d8b 9e3d
00000250: 6e43 a1bd 6d91 05bd 9bbe c43c dd88 bf3d
00000260: df25 8d3c c777 823d eb9a 4d3d c7b8 073d
00000270: c42f bcbd fb4a 6bbd 4d0d bcbd 44c8 9e3c
00000280: 02ee 5bbd 1014 833d 830b 253d 694c 4e3c
00000290: 7719 3b3d 8d2a 1c3d 8700 09bd 4191 7abd
000002a0: eaa8 033c a119 b8bc 7087 9abd 54f5 5f3d
000002b0: edbd a83d 765c 873d 7e80 e9bb 971b b8bb
000002c0: 3179 60bd 9323 38bd e67a 353d 0523 953d
000002d0: 0bbd c53d 90f9 813d 7697 2dbd d971 3c3d
000002e0: 5100 aebc e5f7 aabd 3bb5 683d 79f0 78bc
000002f0: 91b6 0a3d 1dbc 2abc 73fd dd3c a8b8 58bd
00000300: baea 1dbc 621b fdbc b7c4 773d 19a1 b23c
00000310: 7c9e 693d 4560 18bd a884 a9ba 1141 fdbc
00000320: e3ba 813d 4bcc 33bd f806 253b 1029 d2bd
00000330: 5702 2e3d f302 c4bc f4f1 a0bd fc69 193c
00000340: 376a c9bd 5827 56bc 8f03 6abc 9666 aebd
00000350: b50f 0abb 1707 593d aee4 2c3d d810 813c
00000360: e425 bfbb bfaa 6b3d 1bb3 6e3d c1c5 883d
00000370: e9b6 303c b4db 593c 6d38 8e3d 19d0 9fbc
00000380: 3aa4 be3c 9d72 86bd 2a90 ccbd 609a 7dbd
00000390: 05b9 523d ad23 93bc 0ce4 86bc 0420 65bb
000003a0: 5aee 58bd 77f0 6dbd e2db a93d 2e37 5a3d
000003b0: 2b5c 313d e88b d7bc 9726 243d b9d8 be3d
000003c0: dd48 71bc 100b 203d b78f 59bd e240 1cbd
000003d0: f7b9 a33d b1b4 c1bd a711 70bd 1b52 96bd
000003e0: 4897 893b d878 82bd 8d92 9f3c c5b2 953d
000003f0: ebfe 4ebd 9086 ea3c fe4d 993d 8c4a 5f3d
0.0648535 0.02857811 -0.010303794 0.0061781453 0.096418574 -0.0050008027 -0.06920212 0.027733045
0.003237444 0.017146122 -0.014841443 -0.0695834 -0.09926939 -0.08431979 -0.0636552 -0.04684171
0.06314795 -0.07369018 0.02120296 0.033567216 -0.048549723 -0.0726354 -0.060308184 0.04685223
-0.04497109 -0.07986292 0.047186363 0.06990172 -0.064847685 0.0004960274 -0.07450043 0.06785976
0.035243962 -0.083919615 0.037084863 0.07758943 0.023962343 -0.06559606 0.05658842 0.03290625
-0.0342622 0.026891585 -0.018713342 -0.06725062 -0.04828393 -0.03778915 -0.062437885 -0.00473288
0.09700889 -0.05853992 0.053216614 -0.07708432 0.03501719 0.044911046 0.040366147 -0.078354865
0.009753977 0.08493328 -0.060262855 0.07440466 0.076825455 0.047189936 0.03044205 0.0048808884
0.02800957 -0.021729317 -0.02669141 0.02847359 -0.011809665 -0.03382379 -0.0072914143 -0.026574265
-0.07173918 0.03912165 0.042511325 0.04605719 0.052307792 -0.0026076355 0.032631017 -0.058039565
-0.035483655 -0.037828468 -0.020159716 0.073409855 -0.023754457 -0.056647174 -0.00096015085 0.039377753
0.04545216 0.07925865 -0.059654947 -0.025140645 0.043849375 -0.075470544 -0.07737913 -0.07530576
-0.020409826 -0.07337819 -0.05004411 0.07719087 0.030643584 0.05435903 0.07720395 -0.06819979
-0.07820719 0.056270394 -0.053423397 0.0062058135 0.033119384 -0.01232007 0.044743896 0.012942961
-0.03959015 0.0374535 -0.0471361 0.058561746 0.013502184 -0.04923431 -0.045867864 -0.08419373
-0.0035530282 0.093220174 0.078661494 -0.04977531 0.03181502 0.0538958 -0.06980529 -0.06599992
0.032010976 0.054811765 0.085487224 0.017726675 -0.03388721 -0.02700814 -0.016178638 0.06985704
-0.052542854 -0.089258894 0.031040752 0.0230853 0.014990071 -0.01691865 0.04421653 -0.039353058
0.08956591 -0.026928468 0.07748841 0.077413894 -0.07874189 -0.032609392 0.024016669 0.093522765
0.017229972 0.06370502 0.05019657 0.0331352 -0.09188798 -0.057444554 -0.091822244 0.019382603
-0.05369378 0.06400311 0.04029418 0.01259146 0.045678582 0.038126517 -0.03344777 -0.06117368
0.008035878 -0.022473158 -0.07545364 0.054677323 0.082393505 0.066094324 -0.007125913 -0.0056185233
-0.054803077 -0.0449558 0.04430666 0.0728207 0.09655198 0.063464284 -0.042380773 0.04600701
-0.021240385 -0.083480634 0.05681346 -0.015194052 0.033865515 -0.010420826 0.027098393 -0.052910477
-0.009638483 -0.030896846 0.060490336 0.021805333 0.057035908 -0.037201185 -0.0012933211 -0.030914815
0.06334474 -0.043896 0.0025181156 -0.10261738 0.0424827 -0.023927188 -0.07858649 0.009363648
-0.09834712 -0.013070904 -0.014283075 -0.085156605 -0.002106649 0.052985277 0.042210273 0.015755102
-0.0058333743 0.057535883 0.058276277 0.066783436 0.010785797 0.01329701 0.06944356 -0.019508408
0.023271669 -0.065648295 -0.099884346 -0.0619148 0.05144598 -0.017961347 -0.016466163 -0.003496171
-0.052961685 -0.058090653 0.082938924 0.05327528 0.04330079 -0.02631183 0.040075865 0.0931868
-0.014726845 0.03907305 -0.053115573 -0.038147815 0.07994454 -0.09458292 -0.058610585 -0.07339879
0.0041989423 -0.06370705 0.01947906 0.07309488 -0.050536077 0.028628618 0.07485579 0.054514453

actor_head2.bias f4 [41]
00000000: 4bd9 79bb e2cb a03d 5465 2ebd 1337 b13d
00000010: 6ea2 b73d 0b11 513d 09a6 7cbd 3c6a 99bc
00000020: fdce c3bc 340e aa3d ba73 b6bb ba4d 1b3d
00000030: b361 e8bc 7ff5 a0bd 49d4 8ebd d620 b1bd
00000040: bbed f33c 496b 613d 8699 9f3d 70ea 863d
00000050: 5c11 503d f846 86bc 3e5d babc 14fb 8e3d
00000060: d1bb 913c cdfc 85bd fc1f 8b3d 8d38 bcbd
00000070: f45e 97bd 45d4 853d 7928 75bd eba0 05bd
00000080: c2eb 53bd dc56 bbbd acb9 0f3d ef8a 443d
00000090: 2e4c 86bb ba15 80bc c4cf e6bc 91b4 85bd
000000a0: dced 3cbd
-0.0038123901 0.078513876 -0.042577103 0.08653083 0.08966528 0.051041644 -0.06168178 -0.018727414
-0.02390241 0.0830349 -0.005567995 0.037915923 -0.0283669 -0.07859325 -0.06974084 -0.08648841
0.029776445 0.055033956 0.07792954 0.06587684 0.050797805 -0.016391262 -0.02274954 0.06981483
0.017789753 -0.065423585 0.0679321 -0.09190474 -0.07391158 0.06534628 -0.05985305 -0.032624166
-0.051738508 -0.091474265 0.03508918 0.04798406 -0.004098437 -0.01563536 -0.028175242 -0.06528581
-0.046125278

critic_head.weight f4 [1, 128]
00000000: ba4f c7bc 3eb5 a83d 3a00 813d a482 bb3d
00000010: aaf8 563d 6ae5 8ebd 0f5e b8bd e240 12bd
00000020: 0be2 aa3d b9e2 74bd bb50 c83d 37b2 98bd
00000030: 0195 f8bc c4cb cabd eecf 143d 053e bbbd
00000040: 9743 5b3d fc7f e83c 89e8 0ebd a8e5 b7bd
00000050: 825a 75bd b152 85bd 086d df3d 1123 713d
00000060: d8a5 a6bd cd22 893d 5cab 70bd c4c1 7f3d
00000070: fdac 2abd 5d34 2c3d d28a 8abd 3a16 d3bc
00000080: a2a0 9bbc 151a 7cbd 10b3 a2bd ef8f cb3d
00000090: 2f49 6fbd 533d 673d 45ed 7abd 8e04 2a3c
000000a0: f44b 333d b822 a53d 0c8e 09bd 4acb dd3d
000000b0: beb6 db3d e40f 663d ea6b 223d caf9 273d
000000c0: a42e 843d 82c4 143d c71f ac3d 67e9 adbd
000000d0: 43d1 553d 9dd6 c73d 53d6 dd3c 2b7c 95bd
000000e0: 69b1 7ebd e479 26bd 65c8 9b3d c9a9 2dbd
000000f0: 3836 dc3d c2a5 9e3d e577 96bc 4eba bebd
00000100: 0719 2c3d 0b79 0b3d 5ae1 c8bd 5a9c 81bd
00000110: 582c 663d 69c7 d9bd 76b3 c4bd afd8 88bd
00000120: 1dc0 47bd c3b1 1e3d 197f ac3d 72fa b0bd
00000130: b1e6 74bc cebf 823d a9d5 43bd bfca 58bd
00000140: bf9f 80bd a44a 9d3d fa55 6abd 42c6 a2bd
00000150: 9cf8 5dbd 2f43 2cbd e7e5 83bd 7a0d 64bc
00000160: 2f43 a1bc 58b4 673d f4d6 7bbd 77d5 763d
00000170: 5a41 39bd af95 43bd 5a0a 27bd b409 82bd
00000180: 364b e0bd c793 b3bd b09b f7bc 31c0 393d
00000190: a83e 0b3d aded 30bd 8363 9a3c 9046 9d3c
000001a0: e751 0abd 3550 6d3d e761 723d 91f8 79bc
000001b0: c070 b9bd 84f5 b0bd 4343 55bd 602c 9b3d
000001c0: fdef 993d cbfb a0bd 21cf 0d3d 8e9c 94bd
000001d0: 1236 cd3d e40b 2ebd b50f 483d 5678 06bd
000001e0: c490 e4bc 2b14 773d 7dd4 793d 39e8 7b3d
000001f0: 93cb 58bd 6562 d63d 7992 afbd a6a7 273d
-0.024330009 0.08237694 0.06298871 0.09155777 0.05248324 -0.06977351 -0.09002315 -0.03570641
0.083438955 -0.059786532 0.09781023 -0.07455867 -0.030344488 -0.099021465 0.03633111 -0.09142689
0.053531256 0.02838134 -0.03488973 -0.0897935 -0.059900768 -0.06509913 0.10909468 0.058871333
-0.08137101 0.06696091 -0.05875717 0.06244065 -0.04166888 0.042042125 -0.06764759 -0.025767434
-0.018997494 -0.06154831 -0.0794431 0.099395625 -0.058419403 0.056454968 -0.061261434 0.0103770625
0.043773606 0.08063263 -0.033582732 0.1082979 0.10728215 0.0561675 0.039653696 0.0410097
0.064542085 0.036320217 0.084044985 -0.084917836 0.05220152 0.09757731 0.027079737 -0.07299074
-0.06218091 -0.040643588 0.076065816 -0.042398248 0.10752529 0.077464595 -0.018367717 -0.093128785
0.042016055 0.034050982 -0.098086074 -0.0632865 0.056194633 -0.106337376 -0.09604542 -0.06681954
-0.048767198 0.038743746 0.084226795 -0.08641519 -0.014947579 0.0638424 -0.047811184 -0.05292773
-0.06280469 0.07680252 -0.0572109 -0.07947971 -0.05419217 -0.04205626 -0.06440335 -0.013919229
-0.019685356 0.056568474 -0.061484292 0.06026217 -0.04522834 -0.04775017 -0.040781356 -0.06349507
-0.10951845 -0.08768421 -0.030225605 0.045349304 0.0339953 -0.043195415 0.018846279 0.019198686
-0.033769514 0.05793782 0.0591754 -0.015257017 -0.090547085 -0.086405784 -0.0520661 0.07576823
0.07516477 -0.07860526 0.03462136 -0.07256423 0.10020079 -0.04249181 0.048843104 -0.032829605
-0.02790106 0.060321968 0.06099366 0.06150076 -0.05292852 0.10467986 -0.08572859 0.040931366
