models/ppo_gear_placer_best.pt (torch, 127406 bytes, 9 tensors)

shared_layers.0.weight f4 [128, 7]
-0.28670195 -0.23976083 0.10075787 0.35794213 0.2844781 0.071083575 0.004293114 0.1682543
0.2613604 -0.007263288 -0.07663949 -0.106981024 0.22836682 0.32398728 -0.318742 0.08297055
-0.23322675 -0.02710954 0.33136982 0.016790122 -0.14967063 -0.27851588 -0.27911025 0.2905181
-0.17061731 -0.14589557 0.14972952 0.012887853 0.249263 -0.38219982 -0.029923664 -0.14488666
0.25004447 -0.087977976 0.28212133 0.16583167 -0.21450561 -0.0028170007 0.14603448 0.028708348
0.06101182 0.0060269893 0.22203872 0.05449027 0.12780306 -0.13996202 -0.2930658 -0.26465017
-0.355809 0.15898657 -0.008352449 0.355477 -0.20055309 -0.24714379 -0.016474724 0.09724861
-0.002520713 -0.11550794 -0.318611 0.37170103 -0.30661362 0.3285425 -0.035599194 -0.15838209
0.1721041 -0.29437697 0.029564977 0.23796168 -0.27900136 -0.10263859 0.22500394 -0.16663174
0.091858886 -0.14312468 0.3251292 -0.13589916 -0.3108327 -0.34548852 0.2254211 0.04249823
0.25728282 0.26813993 0.25534388 0.35267392 -0.20595993 -0.357988 0.26408705 -0.19454572
0.3668678 0.3394468 0.21312067 0.36333635 0.01992517 0.22544794 0.3670205 0.028707433
-0.04978487 0.26891506 0.3512053 -0.24962318 -0.079671204 -0.12381873 0.21030442 0.3106523
0.08677345 0.32418096 -0.3750128 0.18890104 -0.28836873 0.07423515 0.3628579 -0.05220212
-0.28271908 0.16793932 0.048839156 0.31428903 -0.15961087 -0.17356516 -0.23785032 -0.32308
0.01028717 0.33971435 0.053615652 -0.28454933 0.03184229 0.09487674 0.38385653 -0.032324716
-0.107861966 0.3676363 -0.15670206 0.17335388 -0.06983879 -0.014409785 -0.24739246 -0.12678085
-0.2397672 0.110129364 0.34737274 -0.3237166 -0.2715613 0.25277483 -0.22687 0.3254155
0.009896765 -0.25101477 -0.22266556 -0.21105956 0.35415366 -0.1055513 0.18843783 -0.17037073
-0.1715649 0.29981548 -0.21085863 -0.3564987 -0.32460287 0.3054243 -0.06235218 -0.035826266
0.1518834 0.11990301 -0.02755503 0.13517752 0.039952584 -0.1868154 0.039612383 -0.24455746
-0.21477193 0.2801304 0.020904379 -0.34646484 0.0668907 0.19124654 -0.06353419 0.11894037
0.29577467 -0.36896345 -0.1472604 -0.11135641 0.3489903 0.31379423 0.22478545 0.24593088
0.20479912 -0.046349682 -0.3272989 0.28267375 -0.16144142 0.22436939 -0.2331862 -0.011395718
0.1714628 -0.21695429 0.028988093 0.25860938 -0.37206337 0.19395351 -0.31378043 -0.31409857
0.02945687 -0.08400521 0.24973822 -0.16926543 0.36834562 -0.19986773 0.118312806 0.14296289
-0.04940611 0.3081723 -0.06099432 -0.2548451 -0.1561691 -0.34437668 0.112291925 -0.12905928
0.27921793 -0.3625839 -0.09463426 -0.008012176 -0.30801213 -0.051458932 0.037594557 0.28371444
0.3738021 0.15757386 0.29661503 -0.024408424 0.12549554 0.29495022 0.020624291 -0.16210294
-0.24084997 0.032844763 -0.16951172 -0.34798598 -0.2539752 -0.0025215936 -0.3590977 0.27661967
0.32221967 -0.24622795 0.04664676 0.26518235 -0.071856886 0.17027675 0.025736587 -0.3097532
0.1864304 0.19031651 -0.19327782 0.23157638 -0.19622053 0.07136139 0.19135877 0.2273458
00000000: 99ca 92be dd83 75be 245a ce3d 3144 b73e
00000010: 1da7 913e 4494 913d 40ad 8c3b db4a 2c3e
00000020: 08d1 853e e000 eebb 2af5 9cbd de18 dbbd
00000030: fed8 693e a9e1 a53e 2732 a3be 77ec a93d
00000040: fed2 6ebe d314 debc 4ea9 a93e 708b 893c
00000050: 4243 19be a299 8ebe 8ae7 8ebe cabe 943e
00000060: 4eb6 2ebe a665 15be b252 193e 9327 533c
00000070: cd3e 7f3e b2af c3be 7922 f5bc 2b5d 14be
00000080: d405 803e cc2d b4bd 3572 903e c7cf 293e
00000090: 5ca7 5bbe 6e9d 38bb 108a 153e c52d eb3c
000000a0: 88e7 793d 0d7e c53b 1e5e 633e 3031 5f3d
000000b0: cede 023e 3452 0fbe b80c 96be 3a80 87be
000000c0: 992c b6be 60cd 223e b6d8 08bc 1501 b63e
000000d0: ca5d 4dbe 4313 7dbe 00f6 86bc 472a c73d
000000e0: 8c32 25bb 6d8f ecbd fb20 a3be 994f be3e
000000f0: 76fc 9cbe b936 a83e 76d0 11bd ea2e 22be
00000100: 0f3c 303e 94b8 96be 4032 f23c 3aac 733e
00000110: 44d9 8ebe 2e34 d2bd 6f67 663e 83a1 2abe
00000120: 8320 bc3d 478f 12be 5677 a63e 2629 0bbe
00000130: 7725 9fbe dfe3 b0be cad4 663e a012 2e3d
00000140: 93ba 833e a349 893e 6fbc 823e ad91 b43e
00000150: 29e7 52be 344a b7be 6b36 873e fe36 47be
00000160: 19d6 bb3e f9cb ad3e 4e3c 5a3e 3907 ba3e
00000170: 1c3a a33c d3db 663e 1cea bb3e da2b eb3c
00000180: 38eb 4bbd 3caf 893e 2ed1 b33e 389d 7fbe
00000190: a82a a3bd ad94 fdbd 0b5a 573e d10d 9f3e
000001a0: 47b6 b13d 0cfb a53e ad01 c0be 466f 413e
000001b0: 11a5 93be 9908 983d 83c8 b93e e4d1 55bd
000001c0: 8ec0 90be 49f8 2b3e 910b 483d 7eea a03e
000001d0: 0871 23be 11bb 31be 098f 73be be6a a5be
000001e0: 858b 283c 0aef ad3e 169c 5b3d 73b0 91be
000001f0: 106d 023d bc4e c23d d888 c43e ec66 04bd
00000200: bce6 dcbd d33a bc3e 8176 20be ae83 313e
00000210: a407 8fbd 0517 6cbc 7354 7dbe d7d2 01be
00000220: 8885 75be 818b e13d d7da b13e 2fbe a5be
00000230: 150a 8bbe b46b 813e 9c50 68be dc9c a63e
00000240: 0b26 223c 0285 80be 7102 64be ff1f 58be
00000250: a153 b53e 482b d8bd d9f5 403e aa75 2ebe
00000260: b6ae 2fbe 6a81 993e 53eb 57be ff86 b6be
00000270: 5932 a6be 9360 9c3e 0065 7fbd 90be 12bd
00000280: 5287 1b3e b68f f53d 16bb e1bc fa6b 0a3e
00000290: 52a5 233d 894c 3fbe 9840 223d 456d 7abe
000002a0: 2ced 5bbe 406d 8f3e a93f ab3c d763 b1be
000002b0: fefd 883d 22d6 433e 371e 82bd 0297 f33d
000002c0: c76f 973e c7e8 bcbe 6ecb 16be d40e e4bd
000002d0: dbae b23e a3a9 a03e 282e 663e 4ed5 7b3e
000002e0: dcb6 513e 2ad9 3dbd b993 a7be 9dba 903e
000002f0: e650 25be 17c1 653e 5dc8 6ebe 1bb5 3abc
00000300: f293 2f3e 4429 5ebe 7078 ed3c 7368 843e
00000310: 177f bebe c09b 463e d4a7 a0be 87d1 a0be
00000320: 894f f13c ec0a acbd 60bb 7f3e eb53 2dbe
00000330: cc97 bc3e 20aa 4cbe fc4d f23d dd64 123e
00000340: 105e 4abd c2c8 9d3e 2ed5 79bd 0f7b 82be
00000350: cbea 1fbe 2452 b0be 4ff9 e53d 1e28 04be
00000360: a7f5 8e3e 99a4 b9be 9bcf c1bd 8045 03bc
00000370: c4b3 9dbe 9ac6 52bd c0fc 193d 0543 913e
00000380: fd62 bf3e 0b5b 213e eddd 973e 2df4 c7bc
00000390: e781 003e b703 973e 46f4 a83c 50fe 25be
000003a0: 60a1 76be 3b88 063d 7b94 2dbe 382b b2be
000003b0: 0a09 82be 5241 25bb a7db b7be 18a1 8d3e
000003c0: faf9 a43e 2e23 7cbe ac10 3f3d fbc5 873e
000003d0: b429 93bd 075d 2e3e 89d5 d23c f997 9ebe
000003e0: 9ce7 3e3e 55e2 423e 9fea 45be 5c22 6d3e
000003f0: 09ee 48be ec25 923d 8ef3 433e 56cd 683e

shared_layers.0.bias f4 [128]
0.1105603 0.06433773 -0.24484816 -0.33491334 0.35217533 0.26463273 -0.0013087988 -0.13665825
-0.20163816 0.21128915 -0.12595287 0.04795456 0.0003077984 0.16484201 -0.114610754 0.3555189
-0.05445223 -0.012343214 -0.07805758 -0.19309828 0.3695774 -0.0045449394 0.13465495 0.3248474
0.19709967 -0.0115392255 -0.075995654 0.3141083 -0.033048365 -0.1150576 0.26321858 -0.20982161
0.16480282 -0.28166175 -0.20347331 0.1376212 0.3620151 -0.25957236 0.035796344 0.089452825
-0.11270897 -0.1801395 -0.14428416 -0.16023317 0.08996481 0.09956486 0.28592744 0.026422365
0.21441649 -0.17825474 -0.15824859 -0.054423835 0.35078767 0.306597 0.044516433 0.222326
0.1439977 0.16588487 -0.2812245 0.05303682 0.045723945 0.20673934 -0.10665175 -0.20955521
-0.06998527 0.02890901 -0.0001523774 0.09166397 0.0044999104 -0.27686548 0.23310015 -0.34697786
-0.31698436 0.087283514 -0.15477087 -0.23759638 0.022585634 0.3089219 0.047862787 0.075053655
-0.014720645 -0.088044874 -0.21631043 0.3219291 0.036756266 -0.2319195 0.20696847 0.38055146
0.07184891 -0.24344996 0.32057884 -0.021625752 -0.07126983 -0.25892434 -0.13071124 0.37894756
0.2576706 -0.042063653 -0.2665892 -0.327045 0.063783854 0.31717002 0.058516886 -0.08309036
-0.18355851 -0.15147492 -0.084000975 -0.24249235 -0.12019492 -0.022139454 0.08617907 -0.27692476
-0.08450869 0.061231554 -0.044290293 -0.21189244 0.29437444 0.12467544 -0.2502318 -0.28061485
0.06107922 0.107870385 0.06857167 0.30337104 0.19757411 -0.038508404 -0.17587669 0.0411016
00000000: 706d e23d 80c3 833d 7ab9 7abe c379 abbe
00000010: 5350 b43e f17d 873e 008c abba 24f0 0bbe
00000020: 3c7a 4ebe 2f5c 583e caf9 00be 006c 443d
00000030: 0060 a139 58cc 283e 0bb9 eabd 9306 b63e
00000040: 4d09 5fbd 313b 4abc a7dc 9fbd 8ebb 45be
00000050: 4039 bd3e b7ed 94bb fde2 093e 6652 a63e
00000060: 7fd4 493e 050f 3dbc 9ca3 9bbd ced2 a03e
00000070: b95d 07bd 52a3 ebbd 96c4 863e 7adb 56be
00000080: 12c2 283e f835 90be 4f5b 50be 92ec 0c3e
00000090: 0b5a b93e abe6 84be 309f 123d 0b33 b73d
000000a0: f6d3 e6bd 7d76 38be 3abf 13be 2a14 24be
000000b0: 783f b83d a9e8 cb3d 1565 923e b773 d83c
000000c0: ff8f 5b3e 6988 36be eb0b 22be 87eb 5ebd
000000d0: 719a b33e 48fa 9c3e dd56 363d 6da9 633e
000000e0: 2274 133e b9dd 293e a8fc 8fbe 233d 593d
000000f0: 0849 3b3d 7ab3 533e 3c6c dabd a495 56be
00000100: 7054 8fbd 97d2 ec3c 7fc7 1fb9 52ba bb3d
00000110: fc73 933b 50c1 8dbe ceb1 6e3e 15a7 b1be
00000120: c64b a2be b3c1 b23d 417c 1ebe 774c 73be
00000130: 8205 b93c 032b 9e3e c50b 443d bbb5 993d
00000140: dc2e 71bc df50 b4bd 7b80 5dbe e4d3 a43e
00000150: bd8d 163d 4e7c 6dbe 8bef 533e a4d7 c23e
00000160: 8525 933d f24a 79be e922 a43e 7d28 b1bc
00000170: ebf5 91bd bb91 84be 2bd9 05be 6a05 c23e
00000180: 67ed 833e f04a 2cbd 617e 88be 7172 a7be
00000190: 1ca1 823d 1c64 a23e 67af 6f3d 472b aabd
000001a0: c3f6 3bbe 3e1c 1bbe b408 acbd ea4f 78be
000001b0: c128 f6bd cd5d b5bc a77e b03d 15c9 8dbe
000001c0: e412 adbd f0cd 7a3d bd69 35bd 55fa 58be
000001d0: 3fb8 963e d655 ff3d 621e 80be c0ac 8fbe
000001e0: 342e 7a3d 26eb dc3d 4e6f 8c3d 7353 9b3e
000001f0: de50 4a3e fdba 1dbd 0519 34be 275a 283d

shared_layers.2.weight f4 [128, 128]
-0.09025452 0.060769726 -0.088491604 0.084563844 0.010187185 -0.008959045 -0.029982245 0.06348947
-0.008719847 -0.026165532 -0.07925767 0.00819503 -0.062323965 0.07014455 0.052796576 -0.075923435
0.084701195 0.0060257907 -0.09264189 -0.042686243 -0.03472309 0.004199321 -0.053322144 0.061805323
0.060355213 0.06786365 0.091750294 -0.017498942 0.018887853 -0.03176073 -0.037144735 0.031934574
-0.052150548 0.06407551 0.015574023 -0.012703708 -0.009919814 0.031171659 -0.039875224 -0.028040126
-0.012710655 -0.053643014 0.02961549 0.0029446047 0.061695557 -0.09690584 -0.0068721725 -0.04210847
-0.042374864 -0.07260001 -0.02939012 0.09114623 -0.057969965 0.02762321 -0.05233765 0.04984005
0.04395193 -0.07143162 0.043633137 0.069465846 0.07006316 -0.015921267 0.022901295 -0.001080161
-0.09590131 0.06733702 0.06792991 0.030160606 0.09339041 0.050244037 -0.074338146 0.0804089
-0.011741763 0.040284548 -0.064211756 -0.07065145 0.007497494 -0.040009663 -0.003906617 -0.061900515
0.06406618 0.10158591 -0.037545193 0.073560655 -0.09061434 -0.017998103 -0.050077904 -0.09426368
-0.007919373 0.045578286 0.030334959 0.047829445 -0.08200486 0.0807518 -0.079131894 0.054115523
0.03521742 0.064522535 -0.09388877 -0.041238945 0.08727427 0.06411163 0.040896982 0.020711426
0.0142437015 0.06525719 -0.055114977 -0.011321729 0.046850618 -0.08237346 -0.06690791 0.044970106
0.006232843 -0.058938902 -0.07068058 0.07387344 -0.057898212 -0.022900902 0.075211845 -0.06217389
0.03384579 -0.07235679 0.0016329068 -0.07128585 0.033323452 -0.023497066 0.0030894733 0.019183438
-0.018896379 -0.021332536 -0.094965115 0.06667861 -0.054288216 0.008439769 0.0016607748 -0.00097474636
7.687787e-05 -0.020123754 -0.08343615 0.03325189 0.0469267 -0.0049183345 0.04130351 -0.034983072
-0.05895673 -0.07103445 0.015300693 -0.02551073 0.06763284 -0.026703259 -0.06640396 0.092453785
0.024340823 -0.018403796 0.011701394 0.08236245 0.0022513063 -0.04333057 0.05043338 0.09399617
0.02795525 0.021363022 0.013661068 -0.06451399 -0.078015134 0.044426244 -0.08191615 -0.07087443
0.058794826 0.04062563 0.06012136 0.016387226 -0.052805185 -0.029089497 0.0746496 0.021067373
-0.07181495 -0.006804993 0.027974134 -0.0690807 0.031231243 0.060983367 -0.030414306 -0.06988305
-0.07611704 -0.010265367 0.049449 0.042661477 -0.013385263 -0.032620437 0.09713694 -0.01297719
-0.019048154 0.0069878376 -0.0169734 0.019557571 0.033566043 -0.070313744 0.008508307 0.03430168
-0.067174226 0.043843497 -0.062527515 0.015662737 -0.04314986 0.061559126 -0.026406538 -0.01059932
0.030622577 0.06909794 0.102293506 0.019551089 0.060636993 0.01842086 0.0047608716 0.009322781
0.069556035 -0.070789315 -0.046162806 0.07572877 0.052548442 -0.035047073 -0.019010553 -0.0031916047
-0.07733394 -0.07009165 0.0006398835 0.0017592934 0.10083737 -0.091093674 -0.036440525 -0.06443443
-0.03415744 0.019542161 0.057730712 0.039422575 -0.019352939 -0.063626036 0.018971384 0.010790864
-0.021432811 -0.016810965 -0.033690725 -0.014559768 -0.048197396 0.03472597 0.095822 0.006704574
0.029046606 0.0986745 0.02836526 -0.024518196 -0.08404346 -0.077212185 0.016981758 0.0155493105
00000000: 5dd7 b8bd ade9 783d 163b b5bd cf2f ad3d
00000010: 27e8 263c f5c8 12bc 539d f5bc c406 823d
00000020: b0dd 0ebc 1959 d6bc d851 a2bd 7244 063c
00000030: 6a47 7fbd f2a7 8f3d 3941 583d bf7d 9bbd
00000040: d277 ad3d ff73 c53b 08bb bdbd c5d7 2ebd
00000050: cc39 0ebd 759a 893b 5268 5abd 9427 7d3d
00000060: 0737 773d 19fc 8a3d 94e7 bb3d f159 8fbc
00000070: b3ba 9a3c 8a17 02bd 1425 18bd d4cd 023d
00000080: d09b 55bd 053a 833d 302a 7f3c 3723 50bc
00000090: b786 22bc b55b ff3c 3454 23bd 68b4 e5bc
000000a0: 5a40 50bc c7b8 5bbd 2f9c f23c 45fa 403b
000000b0: 7bb4 7c3d 9276 c6bd f62f e1bb ee79 2cbd
000000c0: 4491 2dbd 50af 94bd 8dc3 f0bc e0aa ba3d
000000d0: ea71 6dbd 124a e23c 0160 56bd 1525 4c3d
000000e0: f006 343d be4a 92bd a9b8 323d 1c44 8e3d
000000f0: 467d 8f3d 516d 82bc 7f9b bb3c 3094 8dba
00000100: e867 c4bd fee7 893d d61e 8b3d 6013 f73c
00000110: 7943 bf3d b1cc 4d3d 993e 98bd 6cad a43d
00000120: 8660 40bc 6901 253d 7481 83bd b5b1 90bd
00000130: 8aad f53b 2ce1 23bd 1403 80bb 658b 7dbd
00000140: 2135 833d 460c d03d fdc8 19bd f8a6 963d
00000150: 0394 b9bd c270 93bc 7d1e 4dbd 510d c1bd
00000160: 42c0 01bc 4cb0 3a3d 0581 f83c cfe8 433d
00000170: 2af2 a7bd 3361 a53d e70f a2bd 3da8 5d3d
00000180: 2440 103d 6424 843d c148 c0bd 2bea 28bd
00000190: dabc b23d f54c 833d 9883 273d 02ab a93c
000001a0: 6a5e 693c 90a5 853d 3ec0 61bd c67e 39bc
000001b0: 6fe6 3f3d 6bb3 a8bd 0407 89bd 9332 383d
000001c0: e03c cc3b eb69 71bd fbc0 90bd f54a 973d
000001d0: ad26 6dbd ac9a bbbc ab08 9a3d 0daa 7ebd
000001e0: e2a1 0a3d cc2f 94bd 4307 d63a 51fe 91bd
000001f0: 2c7e 083d eb7c c0bc c378 4a3b 9626 9d3c
00000200: 94cc 9abc 92c1 aebc 127d c2bd cc8e 883d
00000210: 525d 5ebd f546 0a3c 5bae d93a 1f86 7fba
00000220: 7e39 a138 92da a4bc 92e0 aabd 2233 083d
00000230: 3636 403d fb29 a1bb df2d 293d 694a 0fbd
00000240: 9d7c 71bd 827a 91bd c2af 7a3c e1fb d0bc
00000250: 1683 8a3d cbc0 dabc cdfe 87bd 6958 bd3d
00000260: 6866 c73c 8fc3 96bc 34b7 3f3c a5ad a83d
00000270: a78a 133b 657b 31bd 3b93 4e3d 1081 c03d
00000280: 6902 e53c 8101 af3c acd2 5f3c e91f 84bd
00000290: 66c6 9fbd 4bf8 353d a8c3 a7bd 9d26 91bd
000002a0: d8d2 703d 1067 263d d141 763d 813e 863c
000002b0: 404a 58bd 194d eebc e4e1 983d 7c95 ac3c
000002c0: b713 93bd 6bfc debb 032a e53c 2f7a 8dbd
000002d0: aad8 ff3c b2c9 793d 6c27 f9bc d81e 8fbd
000002e0: 40e3 9bbd 1230 28bc 098b 4a3d cdbd 2e3d
000002f0: dd4d 5bbc 029d 05bd bbef c63d 489e 54bc
00000300: e00a 9cbc 3bfa e43b cd0b 8bbc 3337 a03c
00000310: 8c7c 093d a700 90bd 6d66 0b3c eb7f 0c3d
00000320: a492 89bd 3d95 333d 6d0e 80bd 244f 803c
00000330: e8bd 30bd 6c25 7c3d 8652 d8bc c5a8 2dbc
00000340: 33dc fa3c 3983 8d3d 427f d13d 9b29 a03c
00000350: 7f5e 783d 58e7 963c 1601 9c3b 94be 183c
00000360: 6573 8e3d fdf9 90bd 3615 3dbd af17 9b3d
00000370: 093d 573d 858d 0fbd 05bc 9bbc 3e2a 51bb
00000380: 4261 9ebd 368c 8fbd dbbd 273a 1798 e63a
00000390: d383 ce3d 528f babd a942 15bd 33f6 83bd
000003a0: ace8 0bbd e216 a03c 0a77 6c3d 9179 213d
000003b0: 0e8a 9ebc 5e4e 82bd e069 9b3c 2acc 303c
000003c0: dd93 afbc 26b7 89bc 49ff 09bd 188c 6ebc
000003d0: a26a 45bd d23c 0e3d 533e c43d 0bb2 db3b
000003e0: 26f3 ed3c db15 ca3d 435e e83c 62da c8bc
000003f0: fa1e acbd 6c21 9ebd 541d 8b3c 89c2 7e3c

shared_layers.2.bias f4 [128]
0.0037952962 -0.072840974 -0.01886526 -0.033378128 0.01585843 0.02221096 -0.058753904 0.038923267
-0.072124995 0.047031153 0.041312497 0.04733052 0.057034653 -0.04721642 0.06267871 -0.0165457
0.025906596 -0.014668214 -0.066264406 -0.072036795 -0.0025364927 -0.057715572 -0.05001129 0.03551629
-0.035571363 -0.088939354 -0.06120388 -0.057259887 -0.06616101 -0.015284906 0.07539028 -0.06539365
-0.10048434 -0.026817955 0.04874354 0.0040459423 0.060791332 0.10172489 0.038970593 0.08220536
0.040422704 0.0037194337 0.018874824 -0.03628629 -0.035023857 -0.072363846 0.096417405 -0.056878533
0.018328927 0.03211357 -0.042913537 -0.035453856 0.025150713 -0.076130345 -0.05087526 0.012884615
-0.037750676 -0.021952512 0.07135649 -0.09473966 -0.06043939 0.04239877 0.016672939 0.082837954
-0.05856235 0.09029681 -0.022368899 -0.019786786 0.011701886 0.050621048 0.07877969 -0.03199917
0.06338996 -0.015309663 0.04268631 -0.015536546 0.078194894 -0.08178371 -0.057487372 -0.043042656
-0.025159488 -0.05384108 -0.04213373 -0.05567553 -0.10005012 -0.00072880846 -0.054622658 -0.09454007
-0.034552485 -0.02418081 -0.013718399 0.04139777 0.04487348 0.0336605 0.0097329365 -0.019670986
-0.018326825 0.016080452 -0.03541163 -0.0025060459 -0.013795549 -0.041348543 -0.045139894 -0.021367613
0.10194727 0.054998767 0.0018195214 0.00061926147 -0.0016565167 0.05092911 -0.043410804 0.0227021
0.007819216 0.086861104 0.012039796 0.0074383696 -0.028947385 -0.04575653 -0.069134094 0.05743634
0.058437146 -0.035904463 -0.046224277 -0.07660683 0.06322867 0.07960224 -0.044167597 0.0048779836
00000000: 81ba 783b a62d 95bd 518b 9abc 81b7 08bd
00000010: 8ae9 813c c2f3 b53c efa7 70bd 016e 1f3d
00000020: 45b6 93bd bda3 403d 4b37 293d a6dd 413d
00000030: 2b9d 693d 0166 41bd b25d 803d d98a 87bc
00000040: 123a d43c f352 70bc a2b5 87bd 0788 93bd
00000050: 493b 26bb 2a67 6cbd a3d8 4cbd 8879 113d
00000060: 47b3 11bd d625 b6bd ebb0 7abd 5889 6abd
00000070: 6c7f 87bd 8b6d 7abc 3866 9a3d 1bed 85bd
00000080: bcca cdbd 54b1 dbbc 4ea7 473d d393 843b
00000090: 5500 793d 2455 d03d a19f 1f3d 495b a83d
000000a0: 4792 253d bec1 733b 609f 9a3c efa0 14bd
000000b0: 2d75 0fbd 7f33 94bd 7d76 c53d 77f9 68bd
000000c0: 8c26 963c 8589 033d 1bc6 2fbd 1038 11bd
000000d0: de08 ce3c 3aea 9bbd 9462 50bd fe19 533c
000000e0: 74a0 1abd c1d5 b3bc 5a23 923d de06 c2bd
000000f0: 4b8f 77bd 55aa 2d3d b095 883c f2a6 a93d
00000100: 13df 6fbd 89ed b83d fb3e b7bc e617 a2bc
00000110: 44b9 3f3c 0458 4f3d 3f57 a13d 9011 03bd
00000120: 98d2 813d 61d5 7abc d7d7 2e3d ff8c 7ebc
00000130: a524 a03d 387e a7bd e177 6bbd 7f4d 30bd
00000140: 451b cebc 7788 5cbd 6b94 2cbd 060c 64bd
00000150: 14e7 ccbd 820d 3fba 02bc 5fbd 399e c1bd
00000160: e886 0dbd d616 c6bc 23c3 60bc b590 293d
00000170: 41cd 373d 98df 093d e576 1f3c 0c25 a1bc
00000180: 2322 96bc 27bb 833c c90b 11bd 793c 24bb
00000190: ba06 62bc 175d 29bd 9ce4 38bd 220b afbc
000001a0: bbc9 d03d 6346 613d 027d ee3a ef55 223a
000001b0: 7a1f d9ba 0b9b 503d 87cf 31bd c1f9 b93c
000001c0: 2b1c 003c 3ce4 b13d 9142 453c 91bd f33b
000001d0: 1123 edbc 336b 3bbd 2d96 8dbd 5e42 6b3d
000001e0: ca5b 6f3d 8f10 13bd ab55 3dbd 0be4 9cbd
000001f0: 087e 813d 8006 a33d 15e9 34bd 7ed7 9f3b

actor_head1.weight f4 [51, 128]
-0.03425972 0.0159761 -0.053079277 -0.056241658 0.03768188 0.006165399 -0.04004965 0.06217485
0.07298781 0.05754754 -0.0019780763 0.023051137 -0.0012370606 0.07813086 -0.012963352 0.088793755
0.039826047 0.00407514 -0.019433537 0.08685949 0.043119412 0.036395576 -0.008262755 -0.059452232
0.0068352 -0.08637257 -0.04705885 0.058015116 -0.025458036 0.037198644 0.0073626563 -0.059484534
0.04518034 -0.022000583 -0.031076826 0.05074978 0.036745906 0.059295006 -0.033243414 -0.038576182
0.0069313133 -0.017597394 -0.087568015 -0.009068633 0.02560993 -0.08742041 -0.014142662 -0.09161139
-0.022065446 -0.004191391 -0.02073695 0.09666353 -0.05426335 -0.08301846 0.03590938 -0.021611214
-0.020848308 -0.034076814 -0.0583443 -0.067428894 0.005826059 0.01761915 0.06741272 0.0938524
-0.054937217 -0.06493537 -0.064077124 0.066885814 0.08163373 -0.01210414 -0.0023266154 0.028126739
-0.011387142 0.010736504 0.0020684511 0.057201233 -0.05705448 -0.012994075 0.086011805 0.0102932425
0.04719153 0.04513465 0.023833849 0.025724573 0.07906665 0.024921775 -0.091461755 0.0609391
0.028251411 -0.050628297 -0.0072294152 0.03889112 -0.07059945 -0.02687642 0.03957248 0.010751317
-0.0061956826 0.031906974 -0.02711106 0.054691106 0.06504731 -0.034379605 -0.042735472 -0.063055634
-0.013224888 0.0040570344 0.017874861 -0.08809754 -0.06285847 -0.017050788 -0.013614736 -0.057993364
0.008294027 0.088978745 0.028508356 0.06769261 0.0067465147 -0.019115841 0.028432054 -0.019959526
0.08830373 -0.01915723 0.04921615 -0.017032202 -0.016140593 0.054481596 0.06374987 0.09809435
0.031315576 -0.041741934 -0.04182052 0.07658181 0.010845692 -0.03918191 -0.06647952 0.026014928
0.040117744 0.06201671 0.066072956 0.05754505 -0.072490774 -0.035974164 -0.022009268 -0.009524229
-0.07129995 0.08522353 -0.059529196 0.051184446 -0.021344485 0.08301913 -0.09316361 0.052552287
-0.020170677 -0.00092602114 -0.00014817365 0.02575293 -0.09369563 0.002478933 0.052964225 -0.04116912
-0.08953095 -0.004149678 0.06676063 0.05760844 -0.052740585 0.03130573 -0.06606582 -0.03797303
-0.08814414 0.014276295 -0.022368772 -0.052798666 -0.012280666 0.0008449251 -0.060806725 -0.00845453
0.08789482 -0.06800627 0.042400677 0.013738039 -0.07664406 -0.07236118 -0.043728806 0.078235105
0.074083075 -0.08456463 0.081479006 0.013500698 0.08784099 0.087752804 -0.0023037684 0.04789753
-0.013627557 -0.02198396 0.090379216 -0.08526808 -0.02979529 0.0011792289 0.09372934 0.0016028157
-0.016204143 0.07851757 -0.086365774 0.009245615 -0.023950549 -0.05112085 -0.027336009 0.056098584
0.007725894 0.016565882 0.0143351145 0.062158607 0.047169648 -0.04177953 -0.03113321 -0.097982414
0.04538915 0.05919353 0.024471335 -0.02506503 0.08488096 0.041929588 0.051874947 0.067635894
0.045952298 0.014982928 -0.028048724 -0.025783472 -0.016362684 -0.08408438 0.029656107 -0.05077134
0.020352317 0.016048094 0.08172023 -0.080736004 -0.0011654445 -0.044466343 0.039424513 -0.05669583
-0.054919027 0.074810155 -0.08256455 0.06314731 0.033041723 0.026967572 -0.01864802 -0.054852493
0.080349356 0.03363719 0.059532948 0.033020593 0.060447715 0.02986482 0.043958627 0.035410717
00000000: ec53 0cbd 4fe0 823c a869 59bd a75d 66bd
00000010: 5158 1a3d 1e07 ca3b 1a0b 24bd 0eab 7e3d
00000020: a27a 953d f8b6 6b3d 9da2 01bb bdd5 bc3c
00000030: de24 a2ba 1303 a03d 3d64 54bc 80d9 b53d
00000040: a320 233d c188 853b 1533 9fbc 63e3 b13d
00000050: fb9d 303d 8713 153d 8260 07bc 2f84 73bd
00000060: d0f9 df3b 1ae4 b0bd c8c0 40bd 42a1 6d3d
00000070: 5f8d d0bc 9b5d 183d 7042 f13b 0ea6 73bd
00000080: 050f 393d 913a b4bc d494 febc 00df 4f3d
00000090: e082 163d 52df 723d 3f2a 08bd 0f02 1ebd
000000a0: 1220 e33b 6928 90bc dc56 b3bd 9b94 14bc
000000b0: eacb d13c 7909 b3bd a0b6 67bc c19e bbbd
000000c0: 98c2 b4bc f057 89bb 89e0 a9bc 87f7 c53d
000000d0: 3f43 5ebd 9505 aabd b715 133d 000a b1bc
000000e0: 12ca aabc 2194 0bbd 6ffa 6ebd 2918 8abd
000000f0: 86e8 be3b 0956 903c ae0f 8a3d b035 c03d
00000100: d905 61bd d6fc 84bd de3a 83bd 6efb 883d
00000110: 962f a73d 7150 46bc 217a 18bb 0c6a e63c
00000120: 2391 3abc 29e8 2f3c da8e 073b d74b 6a3d
00000130: f5b1 69bd 1ae5 54bc f526 b03d fda4 283c
00000140: e84b 413d 1cdf 383d 343f c33c 57bc d23c
00000150: b2ed a13d c028 cc3c 4d50 bbbd 479b 793d
00000160: 816f e73c 9e5f 4fbd bbe4 ecbb 4c4c 1f3d
00000170: 7296 90bd f02b dcbc c116 223d 4b26 303c
00000180: 2705 cbbb e3b0 023d 0418 debc c803 603d
00000190: 8637 853d a1d1 0cbd 640b 2fbd 5023 81bd
000001a0: 33ad 58bc dff0 843b 4d6e 923c 7c6c b4bd
000001b0: f1bb 80bd 18ae 8bbc 5710 5fbc 738a 6dbd
000001c0: ace3 073c 7d3a b63d 5b8a e93c 6ca2 8a3d
000001d0: de11 dd3b d398 9cbc 57ea e83c 2982 a3bc
000001e0: 96d8 b43d a0ef 9cbc e096 493d 1e87 8bbc
000001f0: 4739 84bc 1828 5f3d 4b8f 823d b1e5 c83d
00000200: c344 003d 97f9 2abd fe4b 2bbd edd6 9c3d
00000210: 21b2 313c 367d 20bd 6a26 88bd 421d d53c
00000220: 8152 243d 3c05 7e3d 4251 873d 5cb4 6b3d
00000230: 0b76 94bd a559 13bd c84c b4bc 830b 1cbc
00000240: b505 92bd ad89 ae3d e3d4 73bd c8a6 513d
00000250: a1da aebc ef05 aa3d 90cc bebd 1141 573d
00000260: fa3c a5bc 3ac0 72ba 105f 1bb9 cff7 d23c
00000270: 7fe3 bfbd 9875 223b 04f1 583d f4a0 28bd
00000280: 015c b7bd 06fa 87bb ccb9 883d d4f6 6b3d
00000290: 8306 58bd 703a 003d 844d 87bd 9c89 1bbd
000002a0: ea84 b4bd 1fe7 693c b73e b7bc 6a43 58bd
000002b0: d934 49bc f77d 5d3a 7910 79bd de84 0abc
000002c0: 3302 b43d df46 8bbd 55ac 2d3d 8315 613c
000002d0: 90f7 9cbd 1932 94bd fa1c 33bd ba39 a03d
000002e0: deb8 973d 3930 adbd 77de a63d 0832 5d3c
000002f0: fae5 b33d beb7 b33d d2fa 16bb 3330 443d
00000300: 1e46 5fbc b517 b4bc bd18 b93d 08a1 aebd
00000310: 4115 f4bc 5b90 9a3a 2bf5 bf3d 9215 d23a
00000320: 8dbe 84bc d2cd a03d 8ae0 b0bd ec7a 173c
00000330: f133 c4bc 1964 51bd c4ef dfbc a1c7 653d
00000340: 7f29 fd3b 2cb5 873c d4dd 6a3c 069a 7e3d
00000350: f634 413d 0321 2bbd 130b ffbc 01ab c8bd
00000360: f9e9 393d ea74 723d 1c78 c83c 2e55 cdbc
00000370: 12d6 ad3d 5cbe 2b3d d37a 543d b084 8a3d
00000380: 7a38 3c3d f47a 753c 70c6 e5bc dc37 d3bc
00000390: 090b 86bc 6e34 acbd 5df1 f23c 9cf5 4fbd
000003a0: e7b9 a63c 4b77 833c f05c a73d eb58 a5bd
000003b0: d4c1 98ba 5722 36bd 997b 213d e339 68bd
000003c0: c6f2 60bd 1136 993d 9a17 a9bd 6053 813d
000003d0: c256 073d 19eb dc3c bcc3 98bc 02ad 60bd
000003e0: 348e a43d 26c7 093d d2d8 733d 9a40 073d
000003f0: 0698 773d 11a7 f43c f60d 343d d40a 113d

actor_head1.bias f4 [51]
0.019018784 -0.043556627 0.01870824 0.09501596 0.06297157 -0.03433159 -0.031036511 -0.066788256
0.09056677 -0.012695762 -0.02436309 0.06989308 -0.031312194 -0.020060515 0.06523944 -0.045775164
-0.07013701 0.0635961 -0.032442216 -0.033434942 -0.08538433 -0.060690537 -0.046199918 -0.01207359
0.014084524 0.00045275656 -0.04151451 -0.08126007 0.06177985 -0.016714597 -0.054590054 -0.029391663
-0.010311278 -0.06206248 -0.06183123 0.03815499 0.07369289 0.062896684 0.07095915 0.055820443
-0.04050777 0.0070494944 -0.00998929 0.050031878 -0.0034253276 -0.08553458 -0.049616452 -0.07945796
-0.048206575 0.035887502 0.031203438
00000000: 48cd 9b3c 6f68 32bd 0642 993c ba97 c23d
00000010: 3df7 803d 489f 0cbd 4840 febc 48c8 88bd
00000020: 127b b93d e301 50bc 1a95 c7bc 1a24 8f3d
00000030: 3741 00bd f355 a4bc 419c 853d bd7e 3bbd
00000040: fea3 8fbd ac3e 823d 21e2 04bd 14f3 08bd
00000050: fbdd aebd a496 78bd 203c 3dbd 4fd0 45bc
00000060: c6c2 663c f55f ed39 1e0b 2abd ae6b a6bd
00000070: de0c 7d3d 0ded 88bc d299 5fbd c9c6 f0bc
00000080: a2f0 28bc 3a35 7ebd be42 7dbd 6848 1c3d
00000090: 4cec 963d facf 803d 0853 913d faa3 643d
000000a0: 7aeb 25bd 72ff e63b 1eaa 23bc 3aee 4c3d
000000b0: 767b 60bb c12c afbd 9f3a 4bbd dbba a2bd
000000c0: 4274 45bd c6fe 123d 5a9e ff3c

actor_head2.weight f4 [51, 128]
0.060605597 -0.05510267 0.04002621 -0.052977793 0.054486204 -0.0458516 0.08188673 -0.07382181
-0.04087607 -0.04693265 -0.0200389 0.055848535 0.055016313 -0.06176359 0.036661256 -0.030306047
-0.028849022 -0.004162537 0.019403284 0.065848984 0.0014476045 0.071553215 -0.0913542 0.033067554
-0.072230496 -0.045830462 0.054475993 -0.088741384 -0.015613774 -0.053058166 0.043176576 -0.04442507
-0.0085192975 0.0007619156 0.05396225 -0.05615891 -0.01240488 -0.060234986 -0.040802684 -0.061328433
-0.018638464 -0.08216797 0.07095033 -0.021803824 -0.0485324 0.039058853 0.043593723 0.038005497
0.044832677 -0.010002523 0.03260505 0.0070323288 -0.09109692 -0.0029197084 -0.0037401472 -0.006819909
0.027975367 -0.006581665 -0.0507337 0.04223031 -0.014952724 -0.00036569565 -0.0049101845 -0.012875259
-0.04448732 0.009171294 0.008875953 0.054442037 -0.059744675 0.044690676 0.019322226 -0.09870411
-0.076900266 -0.05257557 0.033203956 -0.019905964 0.098307565 -0.02431943 0.07007453 0.03460703
-0.08548795 -0.05158095 -0.06264271 -0.040769573 -0.079507016 -0.06341292 -0.04094752 -0.09379543
-0.0856646 0.006885007 0.0071281255 0.017565658 -0.085246086 0.06985933 0.09938224 0.06353781
-0.08278342 0.035520073 0.020486282 0.07474104 -0.07038851 -0.08155736 -0.04266261 -0.07314015
-0.04758336 0.06272286 -0.007143584 -0.08097805 -0.016428623 -0.0020832194 -0.017226068 0.017380655
-0.066338226 -0.06551763 -0.009676696 -0.031042716 -0.009087528 -0.0693058 0.07017312 -0.026435856
-0.014328046 -0.011954175 -0.010674925 0.0282233 0.06278206 0.051623814 -0.06526464 0.0114344675
0.018556783 -0.06714101 0.09455937 0.047445454 0.10224847 0.0712204 0.06650305 -0.08753096
-0.055478554 0.009470861 -0.029929524 0.06065276 0.07019433 0.050511707 0.0035869514 -0.06713416
-0.026197165 -0.02257853 -0.055975016 -0.009436938 0.02308852 0.048735276 -0.04815324 0.041877635
-0.07098252 -0.022901438 -0.070878305 0.030679932 0.022451863 0.036542438 -0.018330766 -0.04160871
0.059020665 0.0071345298 0.049490973 0.016919712 0.050429344 0.053088345 -0.028885355 0.0023648678
0.075539015 0.037513904 0.08404263 0.018686436 -0.09022324 0.07983034 -0.038271096 -0.0065244846
0.085078076 0.02271577 0.0073948675 0.09547766 0.05116243 -0.031910088 -0.009114904 0.02697658
-0.069343 -0.06276892 0.065062985 0.034058955 0.043039713 -0.020203073 0.08266572 0.043841626
-0.001617593 0.07947441 0.06517106 0.057870753 0.06366365 -0.05569715 0.017003091 0.0010939604
-0.089694254 -0.020659173 0.035038535 0.0009692812 0.09514433 -0.08045783 0.033976585 -0.016009755
-0.022969477 0.03960802 -0.066916056 0.048757385 -0.008834756 0.00421574 -0.05232113 -0.097838305
0.052788764 0.0029295862 0.05021812 -0.05400773 0.048823413 -0.089692086 0.07074943 -0.017969908
0.049866192 -0.057413276 -0.0491375 -0.084062144 0.092723764 0.049092818 -0.07085034 0.06924246
0.054815233 0.08842187 0.070437185 0.05273785 -0.026877342 -0.029750923 -0.026297439 -0.0538182
-0.08864356 -0.05991462 -0.0355393 0.017286597 -0.05228549 -0.0525901 -0.03926733 0.011809267
-0.07194476 -0.087391034 0.057319712 0.02242885 0.02139304 -0.07547167 -0.0048936866 0.095791504
00000000: 933d 783d 56b3 61bd 86f2 233d 3eff 58bd
00000010: ed2c 5f3d e3ce 3bbd 3bb4 a73d e42f 97bd
00000020: aa6d 27bd 733c 40bd 9f28 a4bc 6fc1 643d
00000030: c958 613d d1fb 7cbd 1d2a 163d 6344 f8bc
00000040: c954 ecbc e465 88bb a3f3 9e3c d5db 863d
00000050: 8cbd bd3a 7e8a 923d e917 bbbd d871 073d
00000060: 95ed 93bd b9b8 3bbd 3822 5f3d 0bbe b5bd
00000070: ead0 7fbc 8553 59bd ecd9 303d 10f7 35bd
00000080: 8694 0bbc 4abb 473a 8507 5d3d e306 66bd
00000090: d63d 4bbc f6b8 76bd b720 27bd 8633 7bbd
000000a0: b1af 98bc ae47 a8bd 684e 913d ef9d b2bc
000000b0: e9c9 46bd 2dfc 1f3d 558f 323d a7ab 1b3d
000000c0: 78a2 373d 9fe1 23bc df8c 053d 736f e63b
000000d0: 0691 babd 9458 3fbb 421d 75bb 8b79 dfbb
000000e0: 992c e53c 02ab d7bb 24ce 4fbd b1f9 2c3d
000000f0: 45fc 74bc d7ba bfb9 9de5 a0bb c0f2 52bc
00000100: 5638 36bd 3243 163c 726c 113c 9dfe 5e3d
00000110: d5b6 74bd 920d 373d a549 9e3c 6125 cabd
00000120: e37d 9dbd 7b59 57bd df00 083d d511 a3bc
00000130: 7a55 c93d 8b39 c7bc 3c83 8f3d 1ac0 0d3d
00000140: 4e14 afbd 8c46 53bd d24a 80bd fffd 26bd
00000150: 93d4 a2bd a2de 81bd 96b8 27bd d217 c0bd
00000160: ec70 afbd a09b e13b 0d93 e93b dbe5 8f3c
00000170: 8095 aebd 6912 8f3d ea88 cb3d 1d20 823d
00000180: 5b8a a9bd 7f7d 113d d9d2 a73c d511 993d
00000190: da27 90bd 8c07 a7bd fdbe 2ebd 81ca 95bd
000001a0: c5e6 42bd d874 803d ba14 eabb d2d7 a5bd
000001b0: 5295 86bc 9f86 08bb af1d 8dbc e061 8e3c
000001c0: 56dc 87bd 1b2e 86bd 018b 1ebc 4b4d febc
000001d0: dbe3 14bc 33f0 8dbd edb6 8f3d 0290 d8bc
000001e0: 2ec0 6abc 72db 43bc e1e5 2ebc 8d34 e73c
000001f0: e193 803d 7e73 533d 78a9 85bd a257 3b3c
00000200: 6504 983c 3a81 89bd 58a8 c13d 2a56 423d
00000210: a567 d13d 00dc 913d c032 883d 6f43 b3bd
00000220: 7b3d 63bd ac2b 1b3c c32e f5bc 076f 783d
00000230: 0bc2 8f3d 5de5 4e3d 0f13 6b3b a27d 89bd
00000240: 709b d6bc 9cf6 b8bc 0f46 65bd 639d 1abc
00000250: 2324 bd3c a49e 473d 553c 45bd e287 2b3d
00000260: 495f 91bd cc9b bbbc a528 91bd 7b54 fb3c
00000270: f8ec b73c 86ad 153d 672a 96bc e56d 2abd
00000280: a7bf 713d c6c8 e93b 0cb7 4a3d 359b 8a3c
00000290: 008f 4e3d 2a73 593d fba0 ecbc e6fb 1a3b
000002a0: 33b4 9a3d 2ea8 193d 8b1e ac3d 4c14 993c
000002b0: f6c6 b8bd 177e a33d 27c2 1cbd 58cb d5bb
000002c0: 6a3d ae3d 6c16 ba3c a550 f23b cb89 c33d
000002d0: b28f 513d 27b4 02bd ae56 15bc fdfd dc3c
000002e0: b403 8ebd fe8c 80bd be3f 853d 6781 0b3d
000002f0: 694a 303d ea80 a5bc a54c a93d 4793 333d
00000300: 6a05 d4ba 7bc3 a23d 6878 853d e209 6d3d
00000310: 1662 823d b222 64bd 114a 8b3c 3863 8f3a
00000320: 9fb1 b7bd 6d3d a9bc 9184 0f3d 5c17 7e3a
00000330: 08db c23d 13c7 a4bd 082b 0b3d e426 83bc
00000340: 7c2a bcbc 053c 223d 490b 89bd d3b5 473d
00000350: a7bf 10bc 3124 8a3b ae4e 56bd 735f c8bd
00000360: 0839 583d 4dfe 3f3b 84b1 4d3d 3637 5dbd
00000370: 0ffb 473d 7cb0 b7bd 14e5 903d a135 93bc
00000380: 7e40 4c3d 2f2a 6bbd 6744 49bd c628 acbd
00000390: f5e5 bd3d 8d15 493d fc19 91bd fece 8d3d
000003a0: f085 603d 8616 b53d 5f41 903d a503 583d
000003b0: df2d dcbc 35b8 f3bc ba6d d7bc 7970 5cbd
000003c0: c18a b5bd 0869 75bd a891 11bd 9f9c 8d3c
000003d0: 4f29 56bd b768 57bd c8d6 20bd a87b 413c
000003e0: c657 93bd 12fa b2bd 13c8 6a3d b5bc b73c
000003f0: 7540 af3c e490 9abd 385b a0bb 562e c43d

actor_head2.bias f4 [51]
-0.041176382 -0.020302292 -0.010992555 -0.040822167 -0.0540207 -0.007976807 0.0115523515 -0.033766553
-0.016646575 0.033820756 -0.008388656 -0.027896319 -0.0073648565 0.04828511 0.043187015 0.024409419
-0.024721807 0.04158357 -0.030283546 -0.05929565 -0.024609547 0.036747344 -0.042301424 -0.07459772
0.054292336 -0.0482145 0.060926568 -0.017663836 0.062585324 0.07057294 -0.009052872 0.03402293
0.049443666 0.021311574 0.076137766 -0.053259775 0.022687888 0.033776537 -0.073254906 -0.011657514
0.034773044 -0.009028818 0.03735018 -0.02148819 0.040542055 0.07312522 0.06986358 -0.08402252
0.009818765 -0.0434651 -0.039648514
00000000: 91a8 28bd fe50 a6bc 1e1a 34bc 2535 27bd
00000010: cf44 5dbd 27b1 02bc 1346 3d3c cc4e 0abd
00000020: 665e 88bc a287 0a3d 9370 09bc d286 e4bc
00000030: e554 f1bb 9cc6 453d dee4 303d 43f6 c73c
00000040: 6385 cabc 8953 2a3d 3315 f8bc ffdf 72bd
00000050: f699 c9bc 6284 163d 4244 2dbd b0c6 98bd
00000060: a461 5e3d 917c 45bd 238e 793d c0b3 90bc
00000070: bc2c 803d 8c88 903d 7f52 14bc a15b 0b3d
00000080: 7185 4a3d 9c95 ae3c 1eee 9b3d ec26 5abd
00000090: f3db b93c 4459 0a3d ab06 96bd 28ff 3ebc
000000a0: 2e6e 0e3d 9ced 13bc 81fc 183d 0008 b0bc
000000b0: 6d0f 263d adc2 953d a314 8f3d 0014 acbd
000000c0: e3de 203c 7608 32bd 7b66 22bd

critic_head.weight f4 [1, 128]
-0.078123346 -0.09054415 0.09181997 0.049711864 0.04698647 -0.017277744 0.042961027 -0.039967105
0.10588572 0.018667908 0.05411171 0.07954928 -0.033358958 -0.055036724 0.082241364 0.04976143
0.03322191 0.052252837 0.036952723 -0.055685505 -0.08666142 0.07720253 -0.08449263 0.05378039
0.048610106 -0.08833086 -0.030415026 0.02258555 -0.07100061 -0.030474562 0.0865422 0.024896342
-0.09268666 0.09347734 0.057018775 -0.0470411 0.07695316 0.027159836 0.032340784 0.013089841
-0.09350163 -0.09307362 -0.04743023 0.02583835 0.010695131 -0.056461107 0.06813998 -0.020456467
0.080656886 -0.03885007 -0.07096319 0.09266385 -0.10288237 -0.029175337 0.05191193 0.057507996
-0.07580709 -0.083099775 0.012235264 -0.057449903 0.05928327 -0.025266774 0.06335325 0.06806136
0.08425351 0.047691334 0.014411076 -0.03943806 -0.06729984 -0.056947645 0.02569409 -0.020654092
0.062185 0.03521303 -0.05146414 0.017085016 0.040711757 -0.036431044 0.09298668 0.074160255
-0.086323865 -0.10133495 -0.10183142 -0.023052525 -0.07586214 0.0332058 -0.054588355 -0.05280994
-0.029447168 -0.066039465 0.034555368 -0.018433413 -0.064901724 -0.100542724 0.06671205 -0.017095765
-0.012962262 0.08218321 -0.020061586 -0.057807527 0.048078354 -0.018854624 0.07489648 0.009255736
0.04516938 0.076268494 0.016420763 -0.043464463 -0.03413538 -0.08946576 -0.06153118 0.089814946
-0.054791898 0.0671194 0.07551378 -0.09040741 -0.030526944 -0.093856335 0.01922029 0.091133535
0.036042012 -0.053829357 0.026055109 -0.06563452 0.02228742 0.018787894 0.01772463 0.08890745
00000000: 22ff 9fbd 366f b9bd 1c0c bc3d ab9e 4b3d
00000010: e374 403d 0e8a 8dbc e7f7 2f3d 8cb4 23bd
00000020: 9dda d83d 71ed 983c 3ea4 5d3d bcea a23d
00000030: 67a3 08bd 306e 61bd 296e a83d a4d2 4b3d
00000040: b313 083d 1207 563d bd5b 173d 7c16 64bd
00000050: 8b7b b1bd 5c1c 9e3d 790a adbd d448 5c3d
00000060: 641b 473d cfe6 b4bd ef28 f9bc 5505 b93c
00000070: c568 91bd caa5 f9bc 093d b13d 6af3 cb3c
00000080: 81d2 bdbd 0c71 bf3d 858c 693d 2bae 40bd
00000090: 9e99 9d3d 4e7e de3c c577 043d c676 563c
000000a0: c87d bfbd 629d bebd 3346 42bd f3aa d33c
000000b0: a13a 2f3c c343 67bd f98c 8b3d 5294 a7bc
000000c0: 702f a53d 4021 1fbd 2655 91bd 8bc6 bd3d
000000d0: feb3 d2bd 1e01 efbc 9ba1 543d 818d 6b3d
000000e0: bf40 9bbd 3730 aabd 6b76 483c 9750 6bbd
000000f0: 04d3 723d 44fc cebc 59bf 813d c163 8b3d
00000100: 1b8d ac3d fd57 433d 6f1c 6c3c ce89 21bd
00000110: 80d4 89bd ef41 69bd 6a7c d23c c532 a9bc
00000120: b3b5 7e3d 8a3b 103d 10cc 52bd e0f5 8b3c
00000130: 5fc1 263d b838 15bd cd6f be3d 55e1 973d
00000140: 91ca b0bd b388 cfbd fe8c d0bd a6d8 bcbc
00000150: 9c5d 9bbd ce02 083d 0a98 5fbd 3c4f 58bd
00000160: 303b f1bc b33f 87bd ee89 0d3d ab01 97bc
00000170: 32eb 84bd 58e9 cdbd 54a0 883d 6b0c 8cbc
00000180: ab5f 54bc ac4f a83d 3258 a4bc 96c7 6cbd
00000190: cfed 443d 0375 9abc 5363 993d 5fa5 173c
000001a0: 8703 393d a832 9c3d d684 863c cb07 32bd
000001b0: 8ad1 0bbd d339 b7bd 1e08 7cbd e6f0 b73d
000001c0: 786d 60bd e575 893d f8a6 9a3d 8527 b9bd
000001d0: a413 fabc c037 c0bd df73 9d3c 38a4 ba3d
000001e0: caa0 133d 2c7c 5cbd 8671 d53c 646b 86bd
000001f0: 1c94 b63c 12e9 993c 3e33 913c 1c15 b63d
