models/ppo_gear_placer_final.pt (torch, 125884 bytes, 9 tensors)

shared_layers.0.weight f4 [128, 6]
00000000: 5b97 62be 8e11 8abe 04f6 063e 7e5c 143e
00000010: 3ca3 c1bd 2c81 a73d 0673 923e a4c3 e0bd
00000020: 30fe 9cbd 9cbc 17be bca1 c13e 0066 213e
00000030: 4b8f 69be 6f26 4a3e 7be5 bf3e 8ab3 98be
00000040: 1473 dfbd 8fba 3bbe 3117 963e ca2b 503e
00000050: 610e ff3d e11b 433e fe1a b1be 008e 05bc
00000060: de14 8b3e 49b6 98be 16ac 503e f9ac eabc
00000070: 0d44 42be c85a 0bbe fc97 273e 84d0 08be
00000080: 704b 103d ec58 6d3e e8c5 b73e 60f0 753e
00000090: ee93 7cbe b0bb 423e 9903 8dbe 9c78 55be
000000a0: a5c9 7a3e 4ad6 c3be 0482 c6be b24a 64be
000000b0: 9c50 9a3e 28a2 9f3e 38f9 283e 38cf 89bd
000000c0: c0a7 af3e 50eb 893e a67c a33e 10b5 87bd
000000d0: 1e0d c13e 6a97 99be 382a 7c3e dc61 c93e
000000e0: 946a 37be 4a5a 1ebe 49f7 7bbe 0414 513e
000000f0: b8dc 1e3d bcfc a0be 689a 1b3e 97e4 c1be
00000100: 6224 2abe a4a3 c73e 50ec fcbc 30dd 5c3e
00000110: b8dd 7d3e 1686 1fbe 0c77 a93d 646d b63e
00000120: 20a8 8e3e fb49 8f3e 4be8 56bd 96ad b93e
00000130: 78a5 3ebe c0e5 ae3e e956 babe fe7d 9d3e
00000140: 7429 993e 80c1 4a3b b07e c93e 9089 89bc
00000150: 476c 563e d119 b0be 60eb 983d d038 cabe
00000160: 6671 d7bd 3826 b6be 208c 2a3e 4053 0c3e
00000170: fc37 e5bd 1c0d 8b3d 7ca6 2c3e ec6a 4e3e
00000180: 9cf5 cd3e e012 4dbc 18a2 cb3e c0d7 ef3c
00000190: b73a 55be 2605 7dbe 62ac 813e d936 5fbe
000001a0: 9cce 703e 800a bebb e002 eb3d a03f 92be
000001b0: 9cc5 8cbd f87b 583d ced5 993e 80ce 7fbd
000001c0: 3c87 333e 402b 50bd 2c49 363e bcae 8f3e
000001d0: a3b4 9bbe 02cc 883e c02a 3e3e 32c0 9a3e
000001e0: 00cd cb3b cc0a 3a3e 929c 953e 3ca4 ab3e
000001f0: 2d60 cfbe bc22 adbd dec8 8dbe 9116 25be
00000200: da82 34be c058 0a3e 9abf b83e 986b d6bd
00000210: 346c e5bd 8aef 9a3e b8c6 c3be e2cc a4be
00000220: 7936 33be 723f 5abe 1977 75be ed47 c5be
00000230: 9c34 813d a662 ba3e ec8e 91be f036 563d
00000240: a02d 78bc 5d6e 98be 4bee 5abe 100e 633e
00000250: afb1 7dbe f4d4 a4bd f830 943e 00f8 cd3c
00000260: f0bb 43bd 7004 a0be e63f b63e 38a6 433e
00000270: e6b5 b33e 38d8 3b3d d016 a13d 1410 293e
00000280: 2c68 3f3e 3cc9 2d3e 5a6b 913e 645c 9cbe
00000290: 0884 053e 3cf0 08be e000 923e 1816 c23e
000002a0: c3cb 91be 285b 18be dfc2 863d 5dbb 983e
000002b0: cc01 a6bb 20c0 7bbc e6a7 c53e 73de 84be
000002c0: 71e8 a13e 1b86 733e 59aa a4be 006c 173c
000002d0: 7c5e a43e 86b8 ce3e c033 cb3d 0443 c5be
000002e0: e907 abbe c87f 303e e5eb aabe c897 6b3e
000002f0: 68e9 29bd b91a 65be 3b18 713e 042a 253e
00000300: aebe 9f3e a430 7e3e 94f9 9bbe 4cce c6bd
00000310: 1063 863e e60d a73e 240b 15be 3848 af3e
00000320: 60ba b5be 78da e4bd e407 7dbe 7003 c83d
00000330: d4f3 4b3e d848 233e 8016 b03e 0096 c43a
00000340: a0e0 9ebc a5a7 b2be c8a9 bf3e a057 103e
00000350: 1046 8b3c 4cef 8c3d 2874 8cbd 98b0 e93d
00000360: 86f7 cebe 00c4 f9b9 358b 3dbe ed1e adbe
00000370: 9c07 5a3e 342e 54be 8037 75be 8085 22bb
00000380: 3810 aa3e cec7 47be 30a2 623e 4c33 0abe
00000390: 0ea5 b73e 3f5d 9a3e 2388 843d 17de 06be
000003a0: 6da7 41be d440 993e a4f7 993e fac5 883e
000003b0: ea19 bf3e 7672 48be dfbb adbe 30a7 9fbd
000003c0: 524e 60be e607 b63e b0c5 97bd e737 8cbe
000003d0: 73ed adbe 48a1 a33e 1bf4 c1be b36f 98be
000003e0: ebf2 483d cf57 bbbe 9e75 9a3e 6063 653e
000003f0: 2a51 8b3e dc88 b9bd 616b 6fbe f841 37bd
-0.2212805 -0.26966518 0.13179785 0.14488408 -0.094549626 0.081789345 0.2860338 -0.109748155
-0.0766567 -0.14818043 0.37818706 0.15761566 -0.22808568 0.19741224 0.37479767 -0.29824477
-0.10910621 -0.18332885 0.2931457 0.20329204 0.124539144 0.19053604 -0.34590906 -0.008151531
0.27164358 -0.29826573 0.20378146 -0.028646933 -0.18971272 -0.13608849 0.16366571 -0.13360792
0.035228193 0.23178452 0.35893178 0.24017477 -0.24665806 0.1901691 -0.27541807 -0.2084679
0.24490984 -0.38249427 -0.3877107 -0.22294119 0.30139625 0.31178403 0.1650132 -0.06728977
0.3430767 0.26937342 0.31931037 -0.06626332 0.3770532 -0.29998332 0.2462548 0.39332473
-0.1791175 -0.1546413 -0.2460605 0.20417792 0.038784713 -0.3144282 0.1519562 -0.37869713
-0.16615441 0.38992035 -0.030874401 0.21568751 0.2479161 -0.15578493 0.082746595 0.35630333
0.27862644 0.2798613 -0.052467626 0.36265248 -0.18617809 0.3415966 -0.36394432 0.30760187
0.2991444 0.003093809 0.39354467 -0.016789228 0.20939742 -0.34394696 0.07466769 -0.3949647
-0.10519676 -0.35576034 0.16655016 0.13703632 -0.11192319 0.0678961 0.16860384 0.20157975
0.40226448 -0.012516707 0.39772105 0.029277682 -0.20823179 -0.24708995 0.2532683 -0.21798266
0.23516315 -0.0057995915 0.11475158 -0.28564167 -0.068736285 0.0528526 0.30045933 -0.062452793
0.17532057 -0.050822496 0.1780135 0.28063 -0.30411252 0.26718146 0.18570995 0.30224758
0.0062195063 0.18168181 0.29221016 0.33523738 -0.40503064 -0.08453891 -0.27692312 -0.1612189
-0.17628041 0.13510418 0.3608368 -0.10469741 -0.11202279 0.3026088 -0.38237548 -0.32187563
-0.17501248 -0.21313265 -0.23971213 -0.38531438 0.063088626 0.36403388 -0.28429353 0.052298486
-0.015147597 -0.297717 -0.21379964 0.22173333 -0.24774812 -0.0804843 0.2894361 0.02514267
-0.047786653 -0.31253386 0.35595626 0.19106376 0.35099715 0.0458605 0.07865679 0.1651004
0.18692082 0.16971296 0.28402215 -0.30539238 0.13038647 -0.13372892 0.28516293 0.3790748
-0.2847577 -0.14878523 0.065801375 0.29830447 -0.005066132 -0.01536563 0.3860466 -0.25950965
0.3162265 0.23781626 -0.32161215 0.009242058 0.32103336 0.40375155 0.0992198 -0.3852769
-0.33404472 0.17236245 -0.33383098 0.23007119 -0.04148236 -0.22373475 0.235444 0.16129309
0.31200165 0.24823242 -0.3046385 -0.09707317 0.26247454 0.3262779 -0.14555031 0.34234786
-0.35493755 -0.11174482 -0.24710041 0.09766281 0.19917232 0.15945756 0.34392166 0.0014998317
-0.019394219 -0.34893528 0.3743422 0.14095926 0.017001182 0.0688158 -0.068580925 0.11410636
-0.4042322 -0.00047639012 -0.18510135 -0.33812657 0.21291965 -0.2072075 -0.23946953 -0.002479881
0.332155 -0.19509813 0.22132182 -0.1349613 0.35868114 0.30149266 0.064712785 -0.13170658
-0.18911524 0.29932272 0.30071747 0.26713544 0.37324458 -0.19574913 -0.33932397 -0.0779556
-0.21904877 0.355529 -0.07410753 -0.273864 -0.33970222 0.31958985 -0.3788155 -0.2977272
0.04905979 -0.3659043 0.3016786 0.2240119 0.2721036 -0.09059307 -0.23380806 -0.044740647

shared_layers.0.bias f4 [128]
00000000: eac6 9bbd d8bb 88bd 499a 333e bb9e bebe
00000010: ce9b b23e fada cdbe 3912 5039 429c 1bbe
00000020: 50c5 ecbc 9462 593e e8cb 0a3e a085 c93d
00000030: 1418 21be 7091 6a3d 2915 afbd 24e6 1a3e
00000040: 406a 1bbd f606 53be 9a2e 863e dcc5 69be
00000050: ece1 7f3e 0c3e 813e 762a a1be dad2 843e
00000060: 88b7 473e 840d 7b3e d1bf 3fbe 48ba 903e
00000070: 788a 9ebe 41f9 793e 80ad b93b 9e00 4bbe
00000080: ac85 1c3e c240 7fbe 8898 63bd 5440 503e
00000090: dad1 12be 42fb 21be 70e6 a2bd 2d4f 063e
000000a0: ea16 b43e d3f9 77be e04e 8ebd 82f2 53be
000000b0: a1a6 6dbe ae1b a73e aff8 613c 4622 ce3e
000000c0: e42c 8e3d 961c c23e 754b afbd b8d1 853d
000000d0: a5fb b0bd 0159 b2be fca3 a73e b29a 01be
000000e0: 2460 ae3e e71e 64be 5074 093e 80d1 bcbc
000000f0: b115 103e d870 c93e b6ec 9bbe 0224 413c
00000100: bc04 8dbe feed 963e 5a38 a33e 0206 9a3e
00000110: 5154 02bc 6efb 4ebe 9667 a4be decd ab3e
00000120: 4072 003d e006 f03d ef63 71be 723e 12be
00000130: c233 af3e ccb6 163e 0075 d63d 1041 c23e
00000140: 80d4 823e 00a4 76be e0ee 983e b414 acbe
00000150: 195c 80be 809e 69bb ae4b 6d3e 525e b93e
00000160: 88a2 c7be 615d 85be 48f4 b6bd 5a4a c33e
00000170: 1d51 2dbe 607c 51bd 0492 3ebe 992e 9e3e
00000180: 2318 2fbe 5ca0 8b3d 5c83 8fbe d0d3 8cbc
00000190: 6c26 c1bd 816d c9be 900d 163e 5d76 89be
000001a0: 7a71 4abe 3609 99be d7f5 65be e817 62bd
000001b0: bcf4 73bd b06b 52bd 683e ddbd fb68 7b3e
000001c0: 1492 d0bd f038 72bd 7650 cabe e877 b13d
000001d0: 60a6 bb3c 0c09 85bd 1ce6 963e f897 883d
000001e0: c08f 9cbe b069 8ebe eae2 98be 9821 513e
000001f0: b024 cfbc 5064 dc3d b79b af3e 205e b2be
-0.07606299 -0.06676453 0.17539324 -0.37230477 0.34884495 -0.40206128 0.00019843214 -0.15196326
-0.02890268 0.21229011 0.13554347 0.0983994 -0.15731841 0.057267606 -0.08548958 0.15126854
-0.037943125 -0.20608124 0.2620743 -0.22829384 0.24988526 0.2524265 -0.31477708 0.25942117
0.19503605 0.24516875 -0.18725516 0.2826712 -0.30965018 0.24411489 0.0056664348 -0.19824454
0.15285367 -0.24927047 -0.055565387 0.20337039 -0.14337865 -0.15818503 -0.07954109 0.1311614
0.35173732 -0.24216394 -0.06948638 -0.20697978 -0.23208095 0.32638305 0.013792201 0.40260524
0.06942156 0.37912434 -0.08559314 0.06534141 -0.086417474 -0.3483353 0.32742298 -0.12656668
0.34057724 -0.22277413 0.13423276 -0.023049116 0.14070775 0.39343905 -0.30454034 0.01178837
-0.27542675 0.2947845 0.3187893 0.3008271 -0.007954673 -0.202131 -0.3211028 0.33555502
0.031358957 0.11720061 -0.23573278 -0.14281633 0.34219176 0.14718169 0.10471535 0.37940264
0.2555275 -0.24085999 0.29869747 -0.33609545 -0.25070265 -0.0035647452 0.23173401 0.36204773
-0.3899119 -0.26047805 -0.08933312 0.38142663 -0.16925474 -0.051144004 -0.18610388 0.30894926
-0.17099051 0.068176955 -0.28029907 -0.017190844 -0.094311565 -0.39341357 0.14653611 -0.26848117
-0.1976985 -0.2988984 -0.22457062 -0.05519858 -0.05955957 -0.05137223 -0.10802919 0.24551766
-0.10184112 -0.05913633 -0.39514512 0.086654484 0.022906482 -0.06495866 0.29472435 0.06669611
-0.30578423 -0.27815008 -0.29860622 0.20422971 -0.025286049 0.107613206 0.34298488 -0.34837437

shared_layers.2.weight f4 [128, 128]
00000000: 314f adbd f107 e2bc 7fa3 0abd 3758 bf3c
00000010: 9c62 68bc b2f4 b63c 39ac dbbb 3129 91bd
00000020: a05e 913d 3e4d cbbc f66f 5f3c eadb 9cbc
00000030: bc43 323b 9614 e73c ff18 b8bd 9ab6 a3bd
00000040: 7a8c 8c3d c635 7b3d f61f ed3c d628 99bc
00000050: c91c 11bd 10a3 d2bb eed2 46bd e632 b8bd
00000060: 589d 68bd 7d4f fd3a d6a3 3e3d bfea 52bd
00000070: f900 68bc e682 823b 76b2 2d3d c92d 413d
00000080: e2d5 7b3d d6dc 9fbd 2e2b a23c 264d b4bc
00000090: 9ade 9dbd 6bf6 9fbd 692a 87bc 20f4 a33d
000000a0: 587f 44bc 1a01 b43d 2fc0 95bd ba59 5b3d
000000b0: 3c41 9d3d e58d 9fbd f474 b83d 6ed6 f7bc
000000c0: 4948 383c e416 8fbd 8803 0ebc 3e24 713d
000000d0: e3bb 463d feb9 60bd 5eee 96bd a85f 9a3d
000000e0: 846d 68bb 17b9 b13c cc46 cb3b 5aae 3c3d
000000f0: 91ec e43c 88c3 b53d f452 4dbd 2fb6 71bd
00000100: c56d c93c 6593 84bc 1994 5cbd ec8b 5bbd
00000110: 14fd bf3c 8bf5 80bd c277 9a3c a60e a9bc
00000120: 0485 3abd a941 4fbd 8558 b4bd a1b3 29bd
00000130: 3a58 b63d 113e aabd aa28 4f3d 6ee9 dbbc
00000140: cac4 aabc 4e5a 683d 1cc5 ae3d 0e7f c53c
00000150: 609f 7d3d 5e83 f33c 3fe8 423d 9664 b83c
00000160: 740b 17bd ac5b a83d 1473 973d 6184 403b
00000170: 966e bd3c 2c6c aa3d 26f7 133d 20a3 983d
00000180: 5cb6 2ebd a63c 973c e689 82bd 5b48 10bd
00000190: 6ed2 f2bc 1773 7abd 9654 19bd 6188 ffbc
000001a0: 5e9c d63c 36f4 f53c c9ae 89bd 56a7 333d
000001b0: e802 333c 6af5 ae3c 9649 9e3d 06b1 b53c
000001c0: 7436 22bd b603 4a3d 36a1 9dbc f6b6 103d
000001d0: 13e8 91bd 068f 49bd 6cf0 093d 8b05 06bd
000001e0: 61d2 b5bd ba85 2a3d b414 ab3d 2977 10bd
000001f0: 2347 073d 0294 653d 0b12 e5bc 2da9 da3c
00000200: 7e07 64bd 8432 953d d57c 6f3d 4584 76bd
00000210: 5b52 fe3c 20cc a73d b427 4c3d da54 2a3c
00000220: 61f6 a2bc 3bed 45bd c361 65bd 4fa7 573d
00000230: 4312 963d 7c6c 6dbd 5818 b8bd 11bf 94bd
00000240: b6f8 8d3d 6b1d ad3c 7bda 603d 3b08 6a3d
00000250: 61f1 313d cce1 4ebd abbb 2ebd 8fbb ccbc
00000260: 0af4 30bc 7e43 ae3d 4e29 913d c5fb 98bd
00000270: 652a 16bd 4de6 a03d 5d89 943c 2cbf 633d
00000280: 01e5 69bd 2ac5 00bc 88db 94bd 3604 043d
00000290: d03f 8dbd d898 8fbc 7846 32bd 0906 b7bd
000002a0: 3274 4abc d34e 88bc 7bb6 abbc 366b 26bd
000002b0: 58b3 0fbd 1f7c 2dbd afe9 5d3d 73f0 d8bc
000002c0: 1156 903c 9247 253c 8ba4 d8bc ce2a 52bc
000002d0: 28cb 803d ea35 d53c 45af 1b3d 3e75 353d
000002e0: 666a 85bd 24b1 6fbc ef48 70bd 4b53 b5bc
000002f0: 20b1 74bd b577 e0bc f49e 44bd c9cc 18bd
00000300: dc22 213d b415 a93d 493f 733d 42bb c8bb
00000310: ae1d 8bbc f967 1d3d 1cec 8ebd 3361 bdbc
00000320: 6393 8ebd 6d75 8cbb 81de 633d b964 f23c
00000330: 1f5a 13bd 6a12 84bd 3b7d 7f3b 61f4 3bbd
00000340: 3767 23bd 6f10 05bd 7fc1 d53c a6e4 b93d
00000350: 936b aebd 4b70 5b3d 6aac 943b 8168 f13c
00000360: 1b6c 2cbd f454 9d3d 3e34 a3bb 8dc8 953c
00000370: b647 913c 02dc 44bc 2d13 c8bc 5b2c 97bb
00000380: 070a c5bc d36c abbc a1ef 123d eb54 debc
00000390: c917 2cbd 990f 543d 5540 323d c253 0c3c
000003a0: 61f8 6f3d e33f 9cbd 0e38 09bd d0fe 71bc
000003b0: 87f2 e43c 5f23 743d e8a4 1a3b ec6b 303d
000003c0: 88a1 903d efd0 aabd 97d5 bbbc 89f0 f5bc
000003d0: 732d 3a3d 956f 6e3d 3469 f83c aee4 953d
000003e0: a872 883d 80da a73d 3379 72bd 54ae aa3d
000003f0: d282 7abd 4c90 4cbd 3ce0 a1bd 6054 9a3d
-0.0846237 -0.027591677 -0.03384733 0.023357494 -0.014183667 0.022333477 -0.00670388 -0.07087935
0.070981264 -0.024817105 0.013637533 -0.019147832 0.0027201017 0.028208058 -0.089891426 -0.07993813
0.06862731 0.06133058 0.028945904 -0.01869623 -0.035427842 -0.00642813 -0.048541002 -0.08994083
-0.05679068 0.0019326058 0.046542965 -0.051493403 -0.014160388 0.0039828895 0.04240652 0.047162805
0.06148327 -0.07805793 0.01979598 -0.022009443 -0.077084735 -0.078106724 -0.016499715 0.080055475
-0.011993252 0.087892726 -0.07312047 0.053552367 0.07678458 -0.07790736 0.09006682 -0.030253615
0.011247703 -0.06986788 -0.008667834 0.058872454 0.048519026 -0.054864876 -0.07369684 0.07537776
-0.0035465667 0.021694703 0.006203508 0.046064712 0.027944835 0.08875185 -0.05012794 -0.059011634
0.024588475 -0.016183564 -0.053852174 -0.053600237 0.023436107 -0.062968336 0.018855933 -0.020636868
-0.04553701 -0.050599728 -0.08805946 -0.041431073 0.08903547 -0.083126195 0.05057589 -0.026844706
-0.02084579 0.056726746 0.085336894 0.024108436 0.06191957 0.029725727 0.04758477 0.0225089
-0.036876157 0.0822061 0.07394996 0.002937578 0.02312402 0.083214134 0.03612437 0.074529886
-0.04265438 0.018461537 -0.06373958 -0.035225254 -0.029641356 -0.061144914 -0.037434183 -0.03119296
0.026197609 0.030023675 -0.06722791 0.043860756 0.010925986 0.021357257 0.07728879 0.022179138
-0.03960271 0.049319945 -0.01924191 0.035330735 -0.07124343 -0.049208663 0.03367655 -0.03272013
-0.08878017 0.041631438 0.08353558 -0.03526989 0.033026826 0.056049354 -0.027962705 0.026691997
-0.055671208 0.07285026 0.05846866 -0.060184736 0.03104513 0.08193231 0.04984255 0.010396207
-0.019892873 -0.048321944 -0.056001436 0.052649792 0.07327702 -0.057964787 -0.08989018 -0.072630055
0.069322035 0.021132192 0.05489586 0.057136755 0.043443087 -0.050508305 -0.042659443 -0.024991779
-0.010800371 0.08508967 0.07087956 -0.07469896 -0.036661524 0.078564264 0.018131906 0.055602238
-0.05710316 -0.007859508 -0.07268435 0.03223058 -0.06896937 -0.017528936 -0.043524235 -0.08936698
-0.012356805 -0.016639149 -0.020961037 -0.040629588 -0.035083145 -0.0423547 0.054177936 -0.026481843
0.017619165 0.0100878645 -0.026445648 -0.012827588 0.06288749 0.026026685 0.038008947 0.044301264
-0.065144345 -0.014629636 -0.058663305 -0.022134444 -0.059739232 -0.02740083 -0.048003152 -0.037304673
0.039339885 0.08256093 0.059386525 -0.0061258385 -0.016981926 0.038429234 -0.06978628 -0.023117637
-0.069617055 -0.004286459 0.055632118 0.029589044 -0.035974618 -0.06448825 0.0038984555 -0.045887355
-0.039893355 -0.032486375 0.026093243 0.09076814 -0.08516612 0.053573888 0.004537155 0.029468777
-0.042095285 0.07682219 -0.004980593 0.018284107 0.01773439 -0.012015345 -0.024423206 -0.004613442
-0.024052633 -0.020925915 0.03587306 -0.027140101 -0.04201487 0.051772688 0.043518383 0.008564891
0.058586482 -0.07629373 -0.033500724 -0.014770225 0.027947677 0.059604045 0.0023596827 0.043071672
0.0706206 -0.08340632 -0.022928996 -0.030021923 0.0454535 0.05821188 0.030323602 0.07319008
0.06662494 0.081959724 -0.059197616 0.08334032 -0.061159916 -0.0499423 -0.079040974 0.075356245

shared_layers.2.bias f4 [128]
00000000: 79ad 27bc 0799 f93c 15d3 273d f95b 82bc
00000010: 35fd a6bd 2f3c 493d ca2e 92bd 4c6e f63b
00000020: 70c4 b3bd d85d 4f3d aedd 0a3c 2fb4 a43d
00000030: f6a5 f23c cb9d 973d 2c8f 52bc a2a9 683d
00000040: 3f66 acbc 0888 883c cd17 8cbd 7e24 243d
00000050: e3e6 9cbd b0ec 553d a16c 29bd 5eb3 00bd
00000060: b291 923d 112d 4bbd 361f 393d 1790 943d
00000070: 3a0d ad3d 734d 953c d2b3 06bd 2eb9 3a3d
00000080: bb53 933d 6bad 25bd 0b11 053c 8dd6 16bd
00000090: 1d07 28bd 74d9 b5bc d961 09bd fc68 8cbc
000000a0: 6fef dabc 109d 4a3d f037 0139 b8d3 0dbd
000000b0: 752e 7a3d ce69 b2bd 47f8 3b3d 61cc bebc
000000c0: 9023 3fbd c598 963d 58da 963b 4281 a8bc
000000d0: 0870 54bd 970b 1abd 66d9 54bd 31b1 903d
000000e0: 16e9 343d d074 d9bc cf3b af3c 4cf4 5b3d
000000f0: 3832 a8bd 7507 2d3d 5b54 933c 5fe6 72bd
00000100: e1da 3abd 01ff 9e3d 84ac 6b3d 8cef 8ebd
00000110: 86f0 20bd 3e63 68bd 6c0d 08bc fc68 313b
00000120: 16b7 92bd cf9a 6a3d 47e5 623d f070 713d
00000130: 0762 953d 04eb a7bd 4c1e 4a3d 9641 10bd
00000140: 655e 44bd bdef 0ebd 91b8 843d 5bf2 d8bc
00000150: 932b 9c3d 4b9f 993d 67fe 37bd 3faf 5a3d
00000160: 1903 9d3d 373c b73d 41dc 3bbd e469 993c
00000170: 3d57 363d d8ae 4c3d d3e3 c03c ddb7 c63b
00000180: 5142 6a3c 7dd0 63bd 824e 873d 062d a3bc
00000190: c3ae f83b 78fa 9c3d 9119 34bd e01b 863c
000001a0: 5da4 ad3d cc6a aebd cf2a 62bc 648d 84bd
000001b0: 845c d23c ab5f 4ebd d690 0abd 53cd a7bd
000001c0: 7617 8bbc 4dc7 9a3d cbcf 373c da4a 433c
000001d0: a92d e3bb 7128 1fbd 5a5d 4f3d 1806 17bd
000001e0: 57d7 e33b b2fe 2cbd 90ce a9bc 71f1 ec3c
000001f0: 2da1 a9bd 1f4f b23c 7cbc 283d d225 88bd
-0.01023423 0.030468477 0.040972788 -0.015912997 -0.08153764 0.04912966 -0.071378306 0.0075204726
-0.08777702 0.050626606 0.008475704 0.0804218 0.029620152 0.074031435 -0.012851518 0.0568024
-0.021044848 0.016666427 -0.06840477 0.040073864 -0.07661226 0.052227676 -0.041363362 -0.031421058
0.071566954 -0.049603526 0.04519578 0.072540455 0.084497884 0.018225407 -0.032886334 0.045586757
0.07193705 -0.040448587 0.008121739 -0.036825705 -0.04102241 -0.022198416 -0.03354058 -0.017139904
-0.026725499 0.049466193 0.00012323237 -0.03462574 0.06107946 -0.08711587 0.045891073 -0.023290815
-0.046664774 0.07353357 0.0046036653 -0.020569447 -0.051864654 -0.03760871 -0.05196514 0.070650466
0.0441676 -0.026544958 0.021390824 0.053699777 -0.082127035 0.04224344 0.01798456 -0.05930173
-0.045618895 0.07763482 0.05753757 -0.06979284 -0.03929188 -0.05673527 -0.008303981 0.0027070632
-0.07163827 0.057276543 0.055394437 0.058945596 0.07294088 -0.081991225 0.0493453 -0.035218798
-0.047941584 -0.0348966 0.06480516 -0.026482752 0.076254986 0.07501086 -0.04492035 0.053389784
0.076666065 0.08947032 -0.045864347 0.01872725 0.04451679 0.04997143 0.023546135 0.0060643987
0.014298038 -0.05561875 0.06606771 -0.01991893 0.0075891926 0.076649606 -0.043969695 0.016370714
0.084786154 -0.08516464 -0.013804152 -0.064722806 0.02567888 -0.050384205 -0.033829533 -0.08193459
-0.01697896 0.07557545 0.011218975 0.0119197015 -0.0069329333 -0.038856927 0.050626136 -0.036871046
0.0069531607 -0.042235084 -0.02072838 0.028923722 -0.08282695 0.021766244 0.041195378 -0.06647839

actor_head1.weight f4 [50, 128]
00000000: e808 a5bd 5ba1 8e3c 3560 c63d 6c25 17bc
00000010: 9d2c 85bd ccdd 48bc 6f87 8f3c df8e 79bd
00000020: 2080 803d 7908 9ebd 65cb c4bc 031d 93bd
00000030: 1523 6bbd c657 bcbd 0280 883c 2e62 8cbd
00000040: c7cc 6c3d 2fa4 e6bc b27b a7bc 5ed6 3d3d
00000050: 7bda 6cbd 0d62 5b3d c4a0 febc ce4a 0b3d
00000060: 4760 233d 62c7 ac3d ed1a 843d f0d4 473c
00000070: 0d75 953d 8f3f 613d 887a 63bb cb53 c138
00000080: 3be4 f63c 9c33 9c3d 2728 033d 68e5 33bc
00000090: 6d92 b93c b634 383c d84b c8bc 5278 4ebc
000000a0: 919e 2f3d 4d25 bb3b d07a 543d 5050 c2bd
000000b0: 8c74 b7bd 7029 583d 5357 9b3d a57a 89bd
000000c0: 1765 b6bd 77b9 83bd 9fb3 88bc 435d 5c3d
000000d0: 02c1 dc3c 8191 753b ffb6 29bd 5d95 4b3d
000000e0: 2aa8 68bc a9bb 66bd f39e 8cbd ca54 933d
000000f0: 8eed 61bd e96b 40bc b64b 6cbc e26b 19bd
00000100: 81d6 e03b d752 89bd e4cc 62bb 35b2 91bd
00000110: a671 a93d a429 2bbc 1b3f b53b e60b 863d
00000120: 649c 20bd 7c27 873c f837 93bd d6ec b53d
00000130: 8403 8c3c ab84 e5bc 0b38 e83c f425 c53c
00000140: f49a 0fbd 7a67 9b3a 685e 46bd 8b39 2cbc
00000150: 55f2 9f3d 8dd0 a73c 6585 fa3c 4861 dbbc
00000160: cbb2 663d 48ac 4fbd 6d6c 973d 93e2 a83c
00000170: 4c44 913d 4570 9d3d b832 173c c394 813c
00000180: ad94 5d3c 037e f4ba 915e b73b 49df 1b3d
00000190: f029 1ebd ba07 60bc 3322 9ebd db18 5ebd
000001a0: facd 5b3d fdcd c23b 12e3 093d 5272 37bd
000001b0: 5a38 86bd 567a ee3c 2135 15bd f93f 953d
000001c0: e5a6 fe3b abd2 afbd 4b31 87bc 8f94 82bc
000001d0: be48 42bb 7c3c 7a3d de5d 183d e66c b9bc
000001e0: 740f 93bd b6da 713d af32 08bd 9850 7dbc
000001f0: 5003 ba3c 3d28 a9bd 103e 373d ee55 183d
00000200: a55c 56bd d45a 833d b1fd 65bd 2bac b33b
00000210: 3fd2 bb3b a847 643d 27b6 4a3d 3fef 9f3c
00000220: 5844 05bd 8595 8cbd 249b 6dbd f990 0f3d
00000230: c06a d2bc 0fe7 a2bd a6e4 803b 91fd 4e3d
00000240: ae44 47bd d150 833d 18fe 50bd 875b a5bc
00000250: ba21 763d 0000 f83c bc08 9cbc d607 85bc
00000260: de5d 33bd 9b38 a73d d02e 9ebd b300 b23d
00000270: a23b a3bd 5905 803d a521 69bd 297f a2bd
00000280: f98e 7bbd 8fd5 40bc 7b38 7abd 02f0 96bd
00000290: 17d3 4d3d 65f9 663d afe7 55bd 0d3a 23bc
000002a0: 657e 55bd c61b e33b 55ad 2b3d 3c5d a9bd
000002b0: 2f00 97bd b4a0 383d 9fe4 fc3c a660 30bd
000002c0: 9a30 3f3d 7cb8 f93c 0127 b6bc 0e26 a3bd
000002d0: 63eb ed3c 59d6 a5bd 1594 613d bf8c 443c
000002e0: a5e8 0dbd f27d 9a3d 39ec 77bd 1a33 83bd
000002f0: 399a 82bd eb6f 9fbd 5e2f 423d bf89 3a3d
00000300: 01c7 963d 4f20 40bd a68e 503d 4c6a 703c
00000310: 3536 1c3d b1da 9bbd 8975 3fbc c73f f9bc
00000320: 67bf 4e3d d347 bcbc dda3 04bd ad20 e5bc
00000330: 223e 283d 509b a33c d7ec 1bbd f136 9ebc
00000340: 45cf a03c 1b0c 31bd c131 63bd 5061 89bd
00000350: db00 1c3a 60e8 963b ba10 f6bc c404 8e3d
00000360: 4578 e7bb 22b0 e03c f6b1 efbb a95e 963d
00000370: 6f29 793d bf93 113c de53 853c 7724 a83d
00000380: 4952 1bbd f239 ab3c 6569 903c f5e9 133d
00000390: 039f 98bd 76a9 0f3d 2e1f 87bc 65cc 77bd
000003a0: f15c c1bc 0b4d 3c3d a63e 763d a65e 85bd
000003b0: 1a36 afbd c740 12bc 3aee 20bd d8e6 b5bc
000003c0: 016e b83d bc05 433d e0a3 0dbd bea2 7ebd
000003d0: 9362 c93b e0d0 a53d 2d69 86bd e910 d3ba
000003e0: 9b05 143a 01c6 4a3d 7074 8b3c b6c2 9fbd
000003f0: 7c3e cabc 3751 fabc 0c7b 813d 7857 84bd
-0.08058339 0.017410925 0.09686319 -0.009225231 -0.0650265 -0.012259912 0.017520634 -0.060927268
0.06274438 -0.0771646 -0.024022767 -0.07183268 -0.057406504 -0.09196429 0.016662601 -0.06854664
0.05781248 -0.02815446 -0.020444725 0.046347015 -0.057825547 0.053560305 -0.031082518 0.034006886
0.03988674 0.08436467 0.06450448 0.012196764 0.07297716 0.054992255 -0.0034710485 9.218565e-05
0.030138126 0.07627031 0.032020714 -0.010979988 0.022652829 0.011243036 -0.024450228 -0.012601929
0.04287583 0.0057112337 0.051874936 -0.09487975 -0.089577764 0.052773893 0.07585015 -0.06712846
-0.08906 -0.06431859 -0.016687213 0.05379988 0.026947502 0.003747076 -0.041434284 0.04970299
-0.01420025 -0.05633131 -0.06866255 0.071939066 -0.05515819 -0.011744478 -0.014422348 -0.0374564
0.0068615084 -0.067052536 -0.0034606988 -0.071140684 0.0827363 -0.01044694 0.0055312044 0.06545238
-0.039211646 0.01649832 -0.071884096 0.088830635 0.01709152 -0.028017363 0.028347036 0.024065949
-0.035059884 0.00118564 -0.048429877 -0.010511766 0.07809893 0.020485187 0.030581186 -0.026779786
0.056322854 -0.05070141 0.073937275 0.020615852 0.07093105 0.07687429 0.009228401 0.015818005
0.013524217 -0.0018653277 0.00559599 0.03805474 -0.038614213 -0.013673717 -0.07721367 -0.054222923
0.05366323 0.005944966 0.033663817 -0.04478676 -0.06553717 0.029111069 -0.03642762 0.072875924
0.00777136 -0.085851036 -0.016502997 -0.015939979 -0.0029645409 0.06109284 0.037198894 -0.022634935
-0.07180682 0.05904647 -0.03325146 -0.01546111 0.022706658 -0.08259628 0.04473692 0.037191324
-0.052334446 0.064138085 -0.056150142 0.0054831705 0.0057318504 0.0557324 0.04949012 0.019523261
-0.03253588 -0.06864456 -0.05800928 0.035050366 -0.025685668 -0.07954227 0.003933507 0.05053479
-0.048649482 0.06411899 -0.051023573 -0.020185245 0.060090758 0.030273438 -0.019047134 -0.016239088
-0.04379069 0.081650935 -0.077237725 0.086915396 -0.079703584 0.0625102 -0.05691685 -0.0793441
-0.061415646 -0.011769666 -0.06108902 -0.073699966 0.05025014 0.056390185 -0.052222904 -0.009962571
-0.052122492 0.006930801 0.04191335 -0.08269736 -0.07373082 0.045075133 0.030870734 -0.04306092
0.04667721 0.030483477 -0.022235395 -0.07966243 0.029042905 -0.08097524 0.055072863 0.011996447
-0.034645695 0.075435534 -0.060528014 -0.06406231 -0.06377072 -0.077850185 0.047408454 0.04554152
0.07362176 -0.046905812 0.05091729 0.014673781 0.038137633 -0.076100715 -0.011685737 -0.03042592
0.050475504 -0.022983467 -0.032382835 -0.027969683 0.04107488 0.01997152 -0.038067665 -0.019313307
0.019630084 -0.043224435 -0.05546737 -0.06708014 0.0005951055 0.004605338 -0.030037273 0.06934503
-0.007063898 0.027427737 -0.007314916 0.07342274 0.06083053 0.008885323 0.016275343 0.0821008
-0.03792027 0.020901654 0.017628381 0.03611179 -0.07452204 0.03507372 -0.01649436 -0.06049766
-0.023603888 0.04597191 0.06011834 -0.065121934 -0.08555241 -0.008926577 -0.03928969 -0.022204801
0.090053566 0.04761289 -0.03458011 -0.06216692 0.006145784 0.0809648 -0.065630294 -0.0016103062
0.0005646587 0.049505237 0.017023295 -0.0780081 -0.024687998 -0.030556304 0.063222975 -0.06461996

actor_head1.bias f4 [50]
00000000: ea89 773d a1e8 823d 2334 aebd 05e4 b8bd
00000010: 5511 04bc 995b 9f3c de32 1f3d 8c21 31bc
00000020: e8c2 913c b80d c6bc 753e 6cbc e799 d33c
00000030: 4914 a63d 73ea 683d 2f20 cebc bcdc 8bbb
00000040: f4bb 8b3c 0765 23bd 3d1d 4bbd a9bd d33c
00000050: ae5c 9d3c 8840 663d b887 9d3d 50f4 e9bc
00000060: a57e 67bd a414 983d 9901 ac3d 11d8 5dbc
00000070: f390 58bd f0e0 813d 0d68 033d 31b8 f23b
00000080: 3f5c 2bbc e47d b43d d695 a63c 3830 27bd
00000090: 8fc1 8a3c 2c9d e638 c1ae 193d aaae b83d
000000a0: af8b 07bd 6673 833d 1a5f 91bc 7a2b 3f3d
000000b0: c45f c23d 71f2 8a3d e54d 45bd 446e aa3c
000000c0: 1077 263d 25e7 19bd
0.06043426 0.06392027 -0.08506038 -0.09027866 -0.008060773 0.019452857 0.03886687 -0.010811221
0.017793134 -0.024176463 -0.014419188 0.025830222 0.08109338 0.056864213 -0.02516183 -0.004268257
0.017057396 -0.03989127 -0.04958843 0.025847273 0.019209232 0.056213886 0.07691902 -0.02855888
-0.056517262 0.07425812 0.08398742 -0.013540284 -0.05287261 0.063417315 0.032081652 0.0074072112
-0.010459005 0.08813074 0.02033512 -0.04081747 0.016937999 0.0001099653 0.037520174 0.090176895
-0.033092197 0.06418495 -0.017745543 0.04667232 0.09490922 0.06784523 -0.04816999 0.020804532
0.04064089 -0.037573952

actor_head2.weight f4 [50, 128]
00000000: d7b0 723d df93 53bd f194 553d 5fe2 ee3c
00000010: a78f c03d d9a1 903d 2695 60bc d4c2 883d
00000020: a74b ae3d d5a3 b03d 2335 923d 8504 5c3d
00000030: 89f6 813d 99a7 89bd d785 c23c 550a 5c3d
00000040: 6f73 6a3d 0b35 e03a fe50 28bd 2586 d33c
00000050: 94a8 3cbd 1f1a b5bd d311 d03b 5a40 c53c
00000060: dc89 833d 6eb2 54bd a077 1abd a035 c7bc
00000070: c614 883d bc84 d1bb b0e1 a1bc 8bbf 17bd
00000080: cc92 b0bb 2102 943d 6724 613c 5464 89bd
00000090: 4ee3 9cbd 9bf0 d4bc 7623 3e3d 9847 cb3c
000000a0: a17d 01bc 609e 893d 00cb b5bd 1882 713d
000000b0: 0c75 81ba c744 0f3c a30b 49bd a0c3 84bd
000000c0: 655d acbb bd3c 78bd 0fd3 013d 6778 963d
000000d0: 9cfa aebd adc1 253d dc97 373d f4e2 22bc
000000e0: afe7 8b3d 08fa 62bd c45e 1cbd 8697 143c
000000f0: 7b31 313d 06b8 38bd 7caa 8b3a de2d 81bd
00000100: 9d24 9bbd 0f3d 7c3d d035 913d 1212 863c
00000110: 6701 eabc 81a7 7ebd 16ed bdbd 5e14 a03c
00000120: 5082 7ebd e65d 493d d2ce 473d 71e2 ea3b
00000130: df5f 883d 026a 7b3d 69fc 363d 1981 87bd
00000140: a918 a6bc 95db 863d 5d5f 873d a02f 65bc
00000150: ad81 7cbd 1998 7ebd b4b4 273d 958a 12bc
00000160: b1f9 1eb9 0df0 063c 05c2 6cbd e972 2f3d
00000170: 03e0 c5bb eddc 743c bf0c 4f3d 210c 3c3d
00000180: 6df4 853d 1dcc febc 8aac 783b 6bc3 31bd
00000190: e438 af3c e3b7 32bd 6343 4ebd 5ec9 b83d
000001a0: 42b1 f53c 36c4 4ebd 5ae4 87bd c2fc 833c
000001b0: 892a 4c3d 383f 9abb c8e2 5f3d 4bc1 25bd
000001c0: f676 0f3d 7f3c a1bd 458d 03bd 658b 47bd
000001d0: 6953 bc3d 05a1 053d c8cc 2cbd 79f8 92bd
000001e0: 8c08 993a d66e c9bd de58 61bd 5cf3 87bd
000001f0: 95db fe3b 6af1 73ba 45a4 c83d 6961 5dbc
00000200: 490b 7c3d 100b 2a3d 7376 b43d 34e0 26bd
00000210: b94e be3c 58a4 4dbc 4f09 3dbd 5202 6b3d
00000220: 5875 98bd fd3a acbd 2fc8 a33b cd7d 11bd
00000230: 91aa 0ebc ebbc 29bd 0b38 093d 2a1a 98bd
00000240: 66d4 11bd 8cf7 94bd 25e2 c63c 8c72 49bd
00000250: adf2 113d 443d 68bd 1f1f a63d 8489 743d
00000260: a16f a9bd 3ffc 8ebd d259 e2bc 9bc3 1abd
00000270: 056a 9a3d 6eae a9bd b140 623b cc32 7cbd
00000280: 8ce1 4fbd e285 9cbd bf6c b6bd 0c16 2b3c
00000290: ea1a 323c a86b a13d 142d 41bd cb21 583d
000002a0: 7c4d a0bd 590a 223c 0357 903d bd41 4ebd
000002b0: a34a 743d 2f16 203d 814e 98bd 3ddc 523d
000002c0: bb81 46bc 8103 3d3d 6c7e 29bd 033d 14bd
000002d0: 2646 43bd 3f20 083d 5e73 6ebd 1fd5 2dbc
000002e0: b6d6 5338 8ac0 25bd 6749 b83d bcd4 36bd
000002f0: 2036 a53d 8fc9 bd3c 2bc2 7f3c a4ef 78bb
00000300: ea99 b03c fa84 a03c ac1a 41bd 2e03 c73d
00000310: 624b 04bc adc1 a33d e22d 673d c6e6 febc
00000320: ccc2 90bc c337 bf3d 4b92 6a3d 2e34 77ba
00000330: 531d 903d cec6 58bc b06f a13b 411d 893d
00000340: 2e21 b73d 7839 98bc da1c c43c 380a 9d3c
00000350: cb38 383d 8532 353d 5caa 4dbd 0d86 00bd
00000360: 967b 72bd 4ff5 2ebd 0d55 d13c 6efe 563c
00000370: 09dc 82bd 0fbd f1bb 0434 6cbc fa24 7cbd
00000380: a978 013c d53c c23b f820 a53d 5539 0b3d
00000390: 0c10 6abd a952 4cbd c6a7 08bd 1811 ca3b
000003a0: dcc9 84bd 2f90 873d b11b a1bd d59d 26bd
000003b0: 89bf 533a ae26 983d ff27 9d3d 8f05 42bc
000003c0: 5f85 5dbd 3441 b93c b769 6e3d 1b26 72bd
000003d0: 7e07 c03d cdfc 8cbd 9dbf e9bc 9393 8abd
000003e0: a109 253d f913 3fbd e9b1 3d3d 513b 473d
000003f0: de64 99bc 3d18 953d 64d8 233b 054b 403d
0.05925068 -0.051654693 0.052143995 0.029160677 0.094023995 0.0706212 -0.013707435 0.066777855
0.08510523 0.086249985 0.07139041 0.053715248 0.06345851 -0.0672142 0.02374546 0.05372079
0.057238992 0.0017105652 -0.041092865 0.025820801 -0.046059206 -0.08842873 0.006349781 0.024078537
0.06422779 -0.051927976 -0.03771174 -0.024317563 0.06644587 -0.006393997 -0.019760936 -0.037047904
-0.0053885933 0.072269686 0.013741589 -0.06708589 -0.076605424 -0.025993636 0.046420537 0.024814412
-0.007903487 0.06719661 -0.0887661 0.058961958 -0.0009876802 0.008744425 -0.049083363 -0.06482625
-0.005260157 -0.0606048 0.03169542 0.07347184 -0.08543894 0.040467907 0.04482256 -0.009941805
0.068312995 -0.05541423 -0.038176313 0.009069329 0.04326008 -0.045097373 0.0010655667 -0.063075766
-0.07575343 0.061581668 0.07090342 0.016366038 -0.028565122 -0.062171463 -0.09273736 0.019540962
-0.062135994 0.049161814 0.048781224 0.007168107 0.06658911 0.061380394 0.04467431 -0.0661642
-0.02027543 0.06584851 0.06609986 -0.0139884055 -0.061647106 -0.06215677 0.040943816 -0.008944173
-0.00015161071 0.0082359435 -0.05780222 0.042834196 -0.006038667 0.014945251 0.050549265 0.045910005
0.06540761 -0.031103188 0.0037944638 -0.043399256 0.021389432 -0.0436324 -0.050357234 0.09022783
0.02999175 -0.05048009 -0.066353515 0.016111735 0.049845252 -0.0047072433 0.054659635 -0.04046754
0.03502556 -0.07872867 -0.032117147 -0.04871692 0.09195597 0.032624263 -0.042187482 -0.07176299
0.0011675521 -0.098355934 -0.05501639 -0.06638214 0.007777641 -0.0009305688 0.09796957 -0.013511994
0.0615342 0.041514456 0.08811655 -0.04074116 0.023230897 -0.01255139 -0.046151455 0.05737526
-0.074442565 -0.084096886 0.004998229 -0.035520364 -0.008707658 -0.04143993 0.033500712 -0.074268654
-0.03560295 -0.07273778 0.024277756 -0.049181506 0.035631824 -0.056699052 0.08111405 0.059701458
-0.08273245 -0.06981706 -0.02763072 -0.0377842 0.07539753 -0.08285223 0.0034523422 -0.06157188
-0.050752208 -0.076427236 -0.089074604 0.010442268 0.010870675 0.07881862 -0.04716213 0.052766602
-0.07827279 0.009890162 0.07047846 -0.05035566 0.05964149 0.039083656 -0.074368484 0.051479567
-0.012115891 0.04614592 -0.04138033 -0.036190998 -0.04767432 0.033233877 -0.05821549 -0.010609894
5.0506285e-05 -0.040466823 0.089983754 -0.044636473 0.08066964 0.0231674 0.015610258 -0.0037984634
0.021557767 0.019594658 -0.047144577 0.09717403 -0.008074613 0.07995925 0.05644024 -0.0311159
-0.017671011 0.093368076 0.057268422 -0.00094300776 0.07036843 -0.0132309925 0.0049266443 0.06695033
0.089418754 -0.01858209 0.023939539 0.019169912 0.044976037 0.044237632 -0.050211295 -0.03137784
-0.059199892 -0.042714413 0.02555325 0.013122184 -0.063896246 -0.007377274 -0.014416698 -0.0615587
0.007902303 0.005927662 0.08062929 0.033990223 -0.05714421 -0.04988352 -0.033363126 0.0061665885
-0.06483814 0.06619298 -0.0786661 -0.040677864 0.0008077552 0.074292526 0.07673644 -0.011842146
-0.05408227 0.0226141 0.058206286 -0.05911837 0.09376429 -0.068841554 -0.028533751 -0.06766429
0.040292386 -0.046649907 0.046312246 0.048640553 -0.018724855 0.07280014 0.0025000805 0.046946544

actor_head2.bias f4 [50]
00000000: bea5 0b3d 97b9 8c3d 6cc0 72bd 0796 80bd
00000010: c27e a53c e5cc 11bd 60e6 8bbc 3972 f13c
00000020: a164 87bd 15ea 40bd 202f 5fbd 748e b8bb
00000030: 3555 91bd 35df 1e3d c246 8fbb b9fa 07bd
00000040: 56d2 253d 0b82 90bd 3a95 38ba 4645 b43d
00000050: 8078 2a3d 7d2d 08bd 6972 c63d b215 71bd
00000060: 7ea0 f63c ba1f b23d bb5b 983d 3704 263c
00000070: ab26 b53d 74cb 84bd 1cc4 8a3c 1a45 32bd
00000080: cad0 9c3c e708 bf3d 2076 293d 7863 81bd
00000090: 4221 993d 0320 3fbd ab02 93bd 5609 82bd
000000a0: 0eae d6bb a709 05bc ebbb 9cbd 4551 efbc
000000b0: 0936 c13d f1c5 8fbd 9a28 4b3d e022 74bd
000000c0: e7e6 19bb a67c 293c
0.03409361 0.06871336 -0.05926554 -0.062786154 0.020202044 -0.035595793 -0.017077625 0.02947341
-0.0661099 -0.047098238 -0.0544883 -0.005632216 -0.0709633 0.038787086 -0.0043724487 -0.033198092
0.040483795 -0.07056054 -0.00070412795 0.08802275 0.041618824 -0.033246506 0.09689791 -0.05885858
0.030105826 0.086974576 0.07439371 0.010132841 0.08845266 -0.06484118 0.016939215 -0.04352293
0.019142527 0.0932787 0.04137242 -0.063178 0.074770465 -0.046661388 -0.07178243 -0.06349437
-0.0065515107 -0.008119977 -0.0765303 -0.029213557 0.094341345 -0.07020176 0.049599268 -0.059603572
-0.0023483576 0.01034466

critic_head.weight f4 [1, 128]
00000000: 0056 56bc bfdc 51bb cfa6 7b3d 928c 2a3d
00000010: 9bae 333c 7f7a 01bd beeb 3fbd ea55 d63c
00000020: 81f1 7c3c 782f 14bd 2a15 88bd e4ae 323d
00000030: e391 91bc ec42 a93d 84ee a13d 4f51 59bc
00000040: e32b 873d ef85 953d 0863 5c3d ecdb b5bc
00000050: c392 e23b 7044 883a c612 213d f51c b53d
00000060: 6845 66bd 6d59 083d 49c5 6d3d 4a8b 6cbd
00000070: 4cb7 803d f5c2 a13c 86bc 62bd 8392 a3bd
00000080: f868 6abd 4f0d 523d 7f78 05bd ef2c 56bd
00000090: 68bc b5bd 5ea4 73bd 9e1b e6bb 2a82 97bd
000000a0: 2027 86bd ce46 a43c 339e 1dbd 1de2 a1bd
000000b0: 324a 9cbd 39d8 f13c 646d 533b 4e8f ccbc
000000c0: 2081 66bb 2dc8 583c cacb 83bd e275 d1bc
000000d0: d2f8 a1bd e169 a0bd a6ff 67bd 1b83 d93c
000000e0: b87b eabc 160a 85bd 339c a63d f6ac 853d
000000f0: c78b 85bd 0f6f c93c 6e41 1b3d f791 903d
00000100: d2a9 15bc c52f ba3c 5640 ba3c 0660 c83c
00000110: 21b5 85bd 8d2c cebb fa10 7ebc f3a6 7f3c
00000120: 700a 23bc 9f13 143b 01f2 8e3d af37 f63c
00000130: a03b a7bd dd96 33bd 1dbd 9bbd 980b b93d
00000140: 2868 793d 500f 93bc b671 83bd 1fc4 82bd
00000150: 6d18 683c ebf4 5d3c 0f11 e8bc a6e0 6a3d
00000160: c68f 4fbc 91a2 9bbd f599 953c 923a 6fbc
00000170: 0371 38bd 44d0 da3c 69ea 483c e2a0 9abc
00000180: 5e96 7bba d08f c23b 5c2c 2dbd 22b2 e4bc
00000190: 8c5f 76bd f86e 2e3d 0174 de3a a12d a93d
000001a0: 6744 a9bb 9171 9d3d 4b3d 05bd 7396 f23c
000001b0: 5920 32bc 8250 4cbc 84e0 d03c 0d93 5fbd
000001c0: bfa8 9ebd 0834 903d 9b47 b73d 61a2 8cbd
000001d0: 30a6 1bbb d980 c2bc 24db c8bc d37a 213d
000001e0: f8ca d23c f8fa 30bd d4e1 933d 41b0 83bd
000001f0: debf 1abd 8bcd b03c 258f 363d 7621 763d
-0.013082027 -0.0032022444 0.061438378 0.041637965 0.010966922 -0.031610962 -0.04685568 0.026164014
0.015438438 -0.036178082 -0.06644662 0.04362382 -0.01776976 0.082647175 0.07906821 -0.013264014
0.066001676 0.073009364 0.05380538 -0.022199593 0.006914468 0.0010396373 0.039324544 0.08843414
-0.056218535 0.033288408 0.058049474 -0.057750024 0.06284961 0.019746283 -0.05535557 -0.07986929
-0.057229012 0.051282223 -0.032585617 -0.052288946 -0.08873826 -0.059482925 -0.007022335 -0.07397874
-0.06550431 0.020053294 -0.03848095 -0.07904456 -0.07631339 0.029522048 0.0032261247 -0.024970677
-0.003517218 0.013231319 -0.06435354 -0.025568906 -0.07908787 -0.07832695 -0.05664029 0.026551774
-0.028623447 -0.06496064 0.081352614 0.0652713 -0.06520801 0.02458909 0.037904195 0.070590906
-0.009134727 0.022727856 0.022735756 0.02445985 -0.06528688 -0.006291932 -0.015506977 0.015603769
-0.009951219 0.0022594703 0.06979752 0.030055849 -0.081656694 -0.043845046 -0.0760443 0.090354145
0.060890347 -0.017951638 -0.06418173 -0.063850634 0.01416598 0.0135471625 -0.028328447 0.057343148
-0.012668556 -0.075993665 0.018261889 -0.014601367 -0.04502965 0.026710637 0.012262919 -0.018875543
-0.00095972966 0.005937554 -0.042278633 -0.027916972 -0.060149714 0.042586297 0.0016971828 0.08260656
-0.005165625 0.07687677 -0.032529157 0.029612755 -0.01087197 -0.012470366 0.025497682 -0.054583598
-0.077470295 0.07041174 0.089492045 -0.06866909 -0.0023750179 -0.02374308 -0.024518557 0.039423775
0.025731549 -0.043208092 0.07220808 -0.06430102 -0.037780635 0.021582386 0.044570107 0.060090505
