models/ppo_gear_placer_final.pt (torch, 117052 bytes, 9 tensors)

shared_layers.0.weight f4 [128, 7]
00000000: 14a2 833d a44a b03e 4860 b0be 6395 463e
00000010: 35d9 9b3d 8d35 46be af3e f1bb 7d58 a9be
00000020: 9601 293e f654 763e d53a aabe fa8f 623e
00000030: 5067 63bd a739 c13e 8c06 afbe 660b b43e
00000040: ca6a 05be cc75 a8be 5c3f 343e a0d9 873d
00000050: 6d48 903e 233a 553d 8cac 48be 9cef 083e
00000060: e767 243e 464c 7d3e 0070 573a bc69 da3b
00000070: b4b4 8b3c 6e26 edbb 5b95 f93d 28ba b5be
00000080: b0ac 063d a56b ac3e ed11 323e 7a87 4b3e
00000090: e366 113e 46ed a23e 7a97 bb3e adc8 afbe
000000a0: 2755 acbe 2868 a6be 164c 3b3e f3fd a73e
000000b0: 3320 90be f3b9 a8be 5ac7 46be 0d63 33be
000000c0: 2975 b2be f214 c1be 59cc be3d 6e21 bc3d
000000d0: 3a46 b1bd a856 54be 1e8b 7b3e 950b ee3d
000000e0: 9081 f8bd 30f7 92be b5db aabe f965 60be
000000f0: d19c ad3d 8261 b8be 2752 9d3e 9995 243e
00000100: 58e6 503e 1e6f 99bd cd34 8fbe 031c 95be
00000110: 1e5b 733e b62a cd3e e2c6 2b3e fdb8 8bbe
00000120: b92e 893e 22c9 aebc 29f6 803e d41d f13d
00000130: 38b8 53be 9ed9 b6be 1489 34bb 2b7a f13c
00000140: 4c97 61be 711a d6bc 9388 863e 3a6c 2a3d
00000150: 0d6c c7bc eea0 023d 84d6 ef3d 418d af3d
00000160: 1de9 263d 49e6 bcbe bcf7 d1bd 557d ab3d
00000170: 75d5 4b3e 21d8 913d dacd 423e 61e9 d2bd
00000180: 2f3e ae3e fe4c be3e 6068 e6bc 8835 4a3d
00000190: b117 0fbe 51e4 51be 3e1f a1be 19f3 22be
000001a0: 8a15 01be 5680 883d 845d a5be 22e0 9b3e
000001b0: 2d9c 4dbe ab0a 4abe 0bed b8be eb00 8e3e
000001c0: 0c4c 4ebd ae3b 013d 7415 563e 5450 7b3d
000001d0: a366 97be 5c06 b53d 5042 413c 9aef a53d
000001e0: b7c1 83be 1551 773e 956b 1e3e 16cc fdbd
000001f0: 5ce3 fb3d a3cf 18be 8cea 88bd 3373 963e
00000200: 8dc7 b2bc e231 3abe 37e9 e23d d096 00be
00000210: d970 bcbd 34c1 b0bd 1abd 033e b896 813d
00000220: 8fee 94be 3ac9 5e3e d08b a53d ebcc 8f3e
00000230: 8b47 9e3e bd30 adbe 600e 5cbe 2ccc 3dbe
00000240: b696 afbe ac3a fd3d 008a 6ebc 15f7 87be
00000250: 97ff 643e a795 bd3d 81ec 91bd d853 f3bd
00000260: 15b7 b23e 024d 943c 9188 7f3e 58d2 c4bc
00000270: ce8f e8bd c59e 663e 89cd 8e3d a4e2 6cbe
00000280: b657 adbe c911 a7be f7ef b43e ce00 253e
00000290: d86a a0bd a710 253e 7ab9 7cbe 9b4e b53d
000002a0: ce32 613e f491 7f3e 8a87 983e 147a 01be
000002b0: 7604 11be 82f9 89be 344e f4bd bbed ad3e
000002c0: 4bf6 babd 6ec0 88be 5561 4abe 72ca 203e
000002d0: d1b2 a2be 04f0 8cbe 8043 e43d 5678 9ebe
000002e0: efc9 503d 7489 babe 5e03 913d e099 243c
000002f0: 43a8 27be 52cd 7d3e d680 aa3e 4a22 5f3d
00000300: 3ce8 b93e be21 5fbe 9ed4 6c3e 6d80 05bd
00000310: e3db bcbe c745 30be a6bf 6a3e 9f9c a43e
00000320: ebc3 183d 4020 e93b 74de 97bd e1d7 9d3e
00000330: e886 073e 7349 b0be 6012 ea3d ae02 31bd
00000340: 62c0 bfbe 3460 8c3e e91e 93be f017 2ebd
00000350: 7703 133e 53bc c1bd 287f 6a3d 3fb0 bc3e
00000360: a075 063e c1e8 be3e e71e c5be 18c3 97be
00000370: efa6 85be a83d 583e d2b6 143e e003 583e
00000380: 591e 8c3e aa4e 97be 561b 393e b9d9 a7bd
00000390: 626b a63e e348 abbe 2e31 babd e0c2 52be
000003a0: ab93 18be 51f7 2f3e 8e12 d63d 916a debd
000003b0: faea 40be aac9 8ebc 2fec 4abe b393 aebe
000003c0: 9f7f 8b3e 876d 45be f2be 3abc 9086 cfbd
000003d0: dffb bd3b eabd 9bbe 255f 1bbd 5d20 43be
000003e0: 3b73 c3bd 247b a03e 977b b53e e27f 6ebe
000003f0: 5afa 1fbe 9180 913e 7013 cf3d f3f9 993e
0.06427398 0.34431946 -0.34448457 0.19392924 0.07609788 -0.19356366 -0.007362209 -0.33075324
0.16504511 0.24055848 -0.3324801 0.22125235 -0.05551845 0.37739298 -0.34184682 0.35164946
-0.13029018 -0.32902372 0.17602295 0.066333055 0.28180256 0.052057397 -0.19597071 0.13372654
0.1605526 0.24736127 0.00082182884 0.0066654366 0.01705394 -0.007237247 0.121866904 -0.35493588
0.03287953 0.33675876 0.1738965 0.19875899 0.14199404 0.3182165 0.36639005 -0.3433279
-0.33658716 -0.3250134 0.18290743 0.32810935 -0.28149566 -0.32954368 -0.19411984 -0.17518254
-0.3485501 -0.37711293 0.0931632 0.09186064 -0.08655973 -0.20736182 0.24564788 0.11623303
-0.12134087 -0.28704214 -0.33370748 -0.219139 0.08477176 -0.36011893 0.3072674 0.16072692
0.20400369 -0.07491897 -0.2796997 -0.29122934 0.23765227 0.40071648 0.16775087 -0.27289572
0.2679346 -0.021336142 0.25187805 0.117732674 -0.20675743 -0.35712904 -0.0027547525 0.0294772
-0.22030371 -0.026135655 0.26276073 0.04160712 -0.024343515 0.031891756 0.117108375 0.08571864
0.040749658 -0.36894444 -0.1025233 0.083735146 0.19905646 0.071213014 0.19023839 -0.1029842
0.34031817 0.37168115 -0.028125942 0.049367458 -0.13973881 -0.20497252 -0.31469148 -0.15913047
-0.12605873 0.06665103 -0.3229791 0.30444437 -0.20079108 -0.19730632 -0.3611835 0.27735075
-0.050365493 0.031551056 0.20906621 0.061355904 -0.29570493 0.088391036 0.011795595 0.08102341
-0.2573373 0.24152024 0.15470727 -0.12392442 0.12299225 -0.14922957 -0.06685361 0.29384765
-0.021823669 -0.18183091 0.110796385 -0.1255753 -0.092012115 -0.086306006 0.12865105 0.063275754
-0.29088256 0.2175645 0.08083308 0.28086028 0.30913958 -0.33826247 -0.21489859 -0.18534917
-0.3429467 0.123647064 -0.014559269 -0.26555696 0.22363125 0.092570595 -0.07125188 -0.11881226
0.34905306 0.018103126 0.2495444 -0.024026081 -0.113555536 0.22521503 0.069727965 -0.23133332
-0.3385598 -0.32630756 0.3533933 0.16113588 -0.07832879 0.16119634 -0.24680129 0.088528834
0.21992037 0.2495802 0.29790908 -0.12644225 -0.14161858 -0.26948172 -0.119289786 0.33970436
-0.09129008 -0.26709312 -0.19763692 0.15702227 -0.3177705 -0.27526867 0.11145687 -0.30951184
0.05097383 -0.36432993 0.0708072 0.010046452 -0.1637278 0.24785355 0.3330142 0.05447606
0.36309993 -0.21790215 0.23127982 -0.03259318 -0.3688651 -0.17214118 0.2292467 0.32150742
0.037296217 0.00711444 -0.074154764 0.30828765 0.13235056 -0.34431037 0.11429286 -0.043215446
-0.37451464 0.27417147 -0.2873452 -0.042503297 0.1435679 -0.09459748 0.057250172 0.36853215
0.13130808 0.37286952 -0.3850014 -0.29641032 -0.26103923 0.2111727 0.14522865 0.21095228
0.27366903 -0.29552203 0.18076834 -0.08195824 0.32503802 -0.33454046 -0.090914115 -0.20582151
-0.14900081 0.17184187 0.10452758 -0.1086017 -0.18839636 -0.017430145 -0.1981666 -0.3409706
0.27245805 -0.19280063 -0.011398064 -0.10133088 0.0057978476 -0.3041833 -0.037932534 -0.19055314
-0.09543463 0.3134395 0.35445854 -0.23290971 -0.15622845 0.284184 0.10111129 0.3007351

shared_layers.0.bias f4 [128]
00000000: 97f7 46be 310a 48be 6ed9 613c b625 9dbe
00000010: 82fb aebe 79f8 ab3d 68bb 79bd 6e8d f73b
00000020: 4e86 b43c 9b5d 443e e75f c5ba 4fa2 b63e
00000030: ba26 6e3e 368b aa3e 8622 bdbe a5a1 323e
00000040: e818 523c 8c22 afbe baaf a1bd 926c 5fbe
00000050: c482 ac3d 3593 92be f4ca 623e d849 8d3e
00000060: 9a0c 5e3e 15a7 883e 03c8 efbd 1bb2 25be
00000070: a7f7 4b3e 0aae 90bd f739 7ebe 0e66 2e3e
00000080: 95ee 1c3e 9ff0 8ebe 7031 b63e 53ed 153e
00000090: 60ac 09bc 0374 4bbe 9171 51be 2efb 863e
000000a0: 5a8c 713e 0efc ae3d 5dc4 3ebc 03eb 86be
000000b0: 1fe0 9fbe 6516 9b3e 50fa 0c3e 8c0a 96be
000000c0: e0b3 9d3d 210d 29be ddf6 87be f579 ae3e
000000d0: cc2f 34be 028b 9e3e 34b5 4fbe d398 2cbe
000000e0: 1ad5 003e d0d0 ae3d 5542 6c3c 1bd6 95be
000000f0: cec6 733e 7c19 d03d a4af 463e 136f 7dbe
00000100: e3ce 9b3e 874f 5fbe 80e4 c9bc 30f6 5c3e
00000110: 809b 7a3e a103 f63d 3f4a 9e3e fd57 45bd
00000120: 2688 07be f1f4 7e3e d0be 4cbe c3c3 603d
00000130: 2dbe dbbb de08 13bd 4ca7 48bd 2c7e 91be
00000140: 8065 53be 5281 6d3e 87fc b4be a6b1 1f3e
00000150: e5bb dc3d a3a4 84be c9a3 1dbe ca6c 2ebd
00000160: 2e35 c1be 2337 5cbe 33c7 8abe f8ab 20be
00000170: c83e 183b 61d6 ac3e c62a 56be 5ebd c7be
00000180: f9ee 383e 86cb d73b eabe a13d fc79 76be
00000190: 3caf 9f3e 3d68 bbbd 28f9 cdbc 619d 95bb
000001a0: 6fc1 b33d b63e 90be 4cd9 5fbd d1e2 07be
000001b0: 119c 82be 9a26 abbd 5666 73be 74b0 46be
000001c0: 2f3f a6be 0823 5ebd b25b 333d 04ed ab3d
000001d0: fc63 8e3e d9bf 153c 5630 aa3e 7e74 9a3e
000001e0: 30f7 26be 2c96 863e f2d9 1c3e 5105 363e
000001f0: f138 0cbe b71d 043e 224c 4b3e 4d2e 1bbd
-0.19430386 -0.19535138 0.013784749 -0.30692834 -0.3417626 0.08397002 -0.06096974 0.0075547015
0.022036698 0.19176333 -0.0015058488 0.35670707 0.2325696 0.33309335 -0.36940402 0.17444475
0.012823321 -0.34206045 -0.07894845 -0.2181876 0.08423379 -0.28627935 0.22147733 0.275954
0.21684495 0.26689973 -0.11708071 -0.16181223 0.1991869 -0.07064445 -0.248268 0.17031118
0.15325387 -0.27917954 0.35584593 0.14641313 -0.008402914 -0.19868474 -0.20453478 0.2636351
0.23588696 0.08544169 -0.011643496 -0.26351175 -0.31225678 0.30290523 0.13767362 -0.29304922
0.07700324 -0.16508915 -0.2655553 0.3407742 -0.17596358 0.3096543 -0.20283967 -0.16855173
0.12581292 0.085359216 0.014420112 -0.29264912 0.23806307 0.10161111 0.19402939 -0.24749403
0.3043128 -0.21807681 -0.02464509 0.21578288 0.24473381 0.12012411 0.3091602 -0.048179615
-0.1323553 0.24898125 -0.19994664 0.054874193 -0.0067060203 -0.03589713 -0.04898767 -0.28416574
-0.20644188 0.23193863 -0.35348913 0.15595111 0.107780255 -0.25906858 -0.1539451 -0.042584218
-0.37735885 -0.21505408 -0.27105102 -0.15690601 0.002323078 0.33757308 -0.20914754 -0.39011663
0.18059911 0.006585541 0.07897742 -0.24069971 0.3118838 -0.09150741 -0.025143221 -0.00456588
0.08777129 -0.28172845 -0.05465059 -0.13270117 -0.25509694 -0.08356972 -0.23769507 -0.19403249
-0.3247008 -0.054232627 0.04378862 0.083948165 0.27810657 0.009139978 0.33240002 0.30167
-0.16305232 0.26286447 0.15317515 0.17775466 -0.13693596 0.1290196 0.19853261 -0.037885953

shared_layers.2.weight f4 [128, 128]
00000000: c5cb c33b 1cb0 72bd 95ac 763d 0ac3 983d
00000010: 5454 c1b9 5533 a5bd f438 09bd 9331 9b3c
00000020: d99a 2a3b 7dee 89bc 21fd d2bb f286 81bc
00000030: e196 303c 0905 b0bd cfbe 32bd f2ed 8d3d
00000040: 0c7c 92bd 09c2 813d 3f89 b0bd 8e67 c93c
00000050: b9c0 1cbd 0ce8 7b3d 1eaf b1bd ee93 c8bc
00000060: 0260 babd eff6 b7bd cec0 aa3c 385b 38bd
00000070: 5b0c d93c a13d 7cbd 0195 c13d 14ac 53bd
00000080: 295b 1dbc 15eb 26bd 0f85 b33d 21a1 debd
00000090: 4b63 893d bdee 963c b9ed aebd 3c73 4bbd
000000a0: 60bc d6bb cf3e 9cbd b6cc e5bc 3ed5 da3a
000000b0: ceed a63c f717 843d 79c7 a93d 91a7 fcbc
000000c0: 036d 4ebd c28c 8bbc abdf d6bb c980 a33c
000000d0: f779 d93c 43cf 47ba 8799 3bbc 9a9e 963c
000000e0: cf51 39bd 8cf8 843d 4f78 353d dcd5 f5bc
000000f0: b2ea 8ebd 89d2 2e3d df7e 97bc c968 df3c
00000100: 1c7f 88bb 6b9a 0cbd bb58 63bd f7b2 b33d
00000110: a7c6 373d 23a7 583d 3b1d 733d cbf4 0ebc
00000120: 44e4 623d 6a32 e13c 5fd9 bcbb fdbb 57bc
00000130: aa34 17bd 4895 afbc 6fb8 743b 5a09 463d
00000140: 764d 05bd 72ed 38bd 0bd2 ffbc 8813 313d
00000150: b9dc 913c 73e1 18bd b1c3 fd3c 9df9 153d
00000160: 84bc 00bd 1fb3 15bd 0dbb a9bd 0baf 78bc
00000170: 10a5 e3bd ee75 213d b24c debb 2fda 58bd
00000180: 7319 d7bd 3623 cebc 87dd 6bbd f288 c3bb
00000190: 067b afbd cff9 48bd 256b 09bd a429 9dbd
000001a0: cce0 ddbd 143a 9bbd e830 8c3d 9b83 f63c
000001b0: aa22 a1bd e360 e1bd d07b 6e3d 52f1 cf3c
000001c0: 3969 65bb 1f9d c2bb b965 9cbd 04e9 92bd
000001d0: 77b0 9abd 2c9a 2b3d f95b 7b3a 76a6 c93d
000001e0: da42 b9bc 3c53 92bd fff9 583c ec34 483d
000001f0: d1da 873c f843 28bd 9065 6abd 14bc 88bd
00000200: 5647 873c efbf 4b3d 3a19 cdbd d57b 033c
00000210: 663b ad3d 75ec aa3c 9297 7f3b 4d2d 00bc
00000220: eea7 c8bd 4412 8fbb c9c1 79bd 6956 9ebd
00000230: cb99 0fbd ccc8 f43c eaad 55bd 7c10 56bd
00000240: 70be acbc 0663 d5bc 2b74 c93c 8bcb 05bd
00000250: a977 243d 7c84 e9bc 1204 72bd 9410 163d
00000260: bbae 933d 40dd 54bd bdaa f33c 2bf5 cebc
00000270: 0bf0 b6ba b47f c0bc 0591 80bd 4cb8 693c
00000280: 3779 aa3d 2e43 593d 2928 dfbc e4a7 c63d
00000290: 77b3 fabc 91f2 b93d 1a2b 20bb fc54 873d
000002a0: 388a d63d 4435 a73c 9792 1e3d 8705 2b3d
000002b0: 2f51 8f3d 7f6c f83c 55b1 08bd de39 943c
000002c0: ac3d 09bb 239a 53bd 29bc d73b 50ae 0d3d
000002d0: efce 943d a9fc 6c3d e38f a03d 56c7 ffbb
000002e0: d81c 8e3d e3eb 673d fc28 a33c 3283 b33d
000002f0: 94e7 92bd 7c11 06bc c97f 7f3d 2afa 083d
00000300: f42c 3d3d 050e a5ba bda7 93bc fb51 9ebb
00000310: b58c 053d f5aa 3c3d 6586 fd3c ac18 4ebc
00000320: 3ad7 893d a421 a53d b104 543c c289 5c3c
00000330: 5e3a 383d 4d87 933d f7fc bdbd 052c 963c
00000340: 2a64 d53d b380 01bc 1552 ba3b c3c5 8b3d
00000350: ecd0 88bd 0b48 843d 0227 8a3d 5721 83bd
00000360: f598 7b3b bbf0 8abd 79ee a43b 9359 a8bd
00000370: 5f29 513b 79ed 363c f1d6 4a3d c84d 1a39
00000380: 8165 4ebd 6d14 be3c 25fe 723d ea5a 2b3c
00000390: d43d af3d 4b63 e7bc 6d1e 693d 0a06 e83c
000003a0: b86f 173d 3460 a6bd a708 c3bc e685 593c
000003b0: 7ebe 0abd 48e1 23bd 1a58 2b3b 749e 9d3d
000003c0: e1d9 bd3c 1211 3bbd 9b02 80bd ef7e 753c
000003d0: 0620 283d 27c9 263c ec51 cbbc c23a 4d3d
000003e0: 2117 2d3d 12c7 b0bc b669 20bd 3159 dc3d
000003f0: dd21 62ba edff 6cbb 6608 c5bd 985f 9b3d
0.005975219 -0.059249982 0.06022318 0.07459076 -0.00036874658 -0.080664314 -0.03350158 0.018944537
0.0026032238 -0.016837353 -0.0064388667 -0.015811417 0.01077816 -0.085947104 -0.043639 0.0693015
-0.07152566 0.063358374 -0.086199276 0.024585512 -0.038269732 0.061500594 -0.08675979 -0.0244846
-0.09100343 -0.08982646 0.02084389 -0.045008868 0.02649515 -0.06158221 0.09452248 -0.05167778
-0.009604254 -0.040751535 0.08765613 -0.10870577 0.06708392 0.018424386 -0.08541436 -0.049670443
-0.006553218 -0.07629167 -0.028051715 0.0016695631 0.020377066 0.064498834 0.082899995 -0.03084162
-0.05039693 -0.017034892 -0.006557425 0.01995887 0.026547415 -0.0007622132 -0.011450178 0.018386174
-0.045244034 0.06492719 0.04430419 -0.030009203 -0.06978358 0.04268125 -0.018493114 0.027271645
-0.0041655432 -0.034326952 -0.05550454 0.08774369 0.044867184 0.05289377 0.05935405 -0.008725355
0.055393472 0.02748986 -0.0057632173 -0.0131673785 -0.03691546 -0.021433488 0.0037341376 0.048348762
-0.032544576 -0.04514832 -0.031228086 0.043231517 0.017805444 -0.03732438 0.030977102 0.036615003
-0.031429783 -0.036547776 -0.0828763 -0.015178452 -0.111154675 0.039419107 -0.006784045 -0.05294245
-0.10502901 -0.025163274 -0.05758431 -0.005967253 -0.08568387 -0.04906636 -0.033549447 -0.07673958
-0.10833892 -0.07579437 0.068452656 0.030092051 -0.0786794 -0.11004808 0.058223546 0.025383625
-0.0035005345 -0.0059391405 -0.076365896 -0.071733505 -0.07553189 0.041895077 0.0009588595 0.09846203
-0.022614885 -0.07144782 0.013243197 0.048878595 0.016583832 -0.041080445 -0.057225764 -0.06676498
0.016513508 0.04974359 -0.10014577 0.008025129 0.08458595 0.020864705 0.0039000255 -0.007823301
-0.09797655 -0.004366191 -0.060975824 -0.07731325 -0.035058778 0.029880904 -0.05216781 -0.052261814
-0.021086901 -0.026048195 0.024591526 -0.032664817 0.04015318 -0.028505556 -0.059085913 0.036636904
0.072110616 -0.051968813 0.0297445 -0.02526339 -0.0013957036 -0.023498394 -0.0627766 0.014265131
0.08323901 0.053042583 -0.02724083 0.09699991 -0.030603154 0.09079469 -0.0024439753 0.06608006
0.10475582 0.020411141 0.038714018 0.04175332 0.069979064 0.030325172 -0.033372242 0.018094
-0.00209413 -0.051660668 0.0065837097 0.034590065 0.07266032 0.057858143 0.07839944 -0.007805745
0.06939095 0.056621443 0.019917004 0.08765258 -0.07173076 -0.00818288 0.062377725 0.0334417
0.04618545 -0.0012592679 -0.01802432 -0.00483155 0.03260489 0.046061475 0.030947873 -0.012579124
0.06730504 0.08063057 0.012940572 0.013460578 0.04497754 0.07203541 -0.09276765 0.018331537
0.104194954 -0.007904219 0.0056860545 0.068248294 -0.06680474 0.064590536 0.067457214 -0.064028434
0.003839073 -0.06784197 0.005033311 -0.0822021 0.0031915528 0.011165016 0.04952139 0.0001471556
-0.05038977 0.0232031 0.059324402 0.010458687 0.08556715 -0.028245589 0.056913782 0.028323192
0.036971778 -0.08123818 -0.023807837 0.013276553 -0.033873074 -0.040009767 0.0026145042 0.07696238
0.023175182 -0.045670576 -0.06250497 0.014983877 0.041046165 0.010179794 -0.024819337 0.050104864
0.042258386 -0.0215793 -0.039163314 0.107591994 -0.0008626262 -0.0036163286 -0.096207425 0.075865924

shared_layers.2.bias f4 [128]
00000000: d03b 19bd de75 3b3d 34db a9bd 6038 91bd
00000010: 38c9 1a3d 7d92 b0bc ff26 b2bd 48ee 973d
00000020: 8dab 9e3d 2a10 553d 1ad4 903d fa80 f73c
00000030: ce91 16bc bce3 233c d5d3 9a3d cb7d 93bd
00000040: fdba 643d 6c29 6b3d 6aac 93bd de9a 1bbd
00000050: a5a8 3fbc a0c2 393d 91cb 853d 73df c2bc
00000060: b34b 973d 4a6a 74bc 7d6b 123d bbb5 afbc
00000070: 11c0 6e3c 9801 67bd 2498 823d 7c22 723d
00000080: 6391 cbbd 9046 b1bd b688 2f3d b2ba 08bd
00000090: 44f4 31bc 7dad 763d 2628 933c 9992 503d
000000a0: b6b1 003d b849 17bd 3bde 6f3d 0e09 4fbd
000000b0: 7843 c13d acdb ed3c 5522 38bd 7c6d b43d
000000c0: 1cbc 9dbd 0c25 233d 0aea 06bd 3c20 c83c
000000d0: 05ad ec3c cf07 47bc 60df 29bd 6e81 563d
000000e0: d358 103d 491f 6d3c f6d5 c33d 8325 4fbd
000000f0: 0436 d2bc f1e6 02bd 2483 06bd f41a 1d3d
00000100: cf43 ba3d 1098 7dbc 1220 81bd 1660 0b3d
00000110: 9cce a53d 6675 e53c 686f 61bc f60b 943d
00000120: 158a 45bd 2cf3 c63c 1b9b 50bd 3a49 3bbd
00000130: 981f bdbd 423c 9c3d fb1f 0fbd 98ef a23d
00000140: cc0d 943d 401f 84bd 541d 8ebc bd91 0c3d
00000150: 330f 433d bf1e 423d f4ed c9bc cbeb e2ba
00000160: 3f06 4fbd d4e0 973d 3775 bfbd fe61 8a3d
00000170: 1f4a 473d e3d6 143a fde1 a3bc 8a5b c0bd
00000180: fd68 fe3b fc7c b43c 832e 643d 8f90 8abd
00000190: 27cc ab3d ef81 6b3d e1cc febb 4473 6e3d
000001a0: 4622 7f3c 172f 9fbd 1fab 30bd da59 b5bd
000001b0: ed6f 8fbd 24b1 2cbd 7c9b 583d 0ebc 973d
000001c0: 42a1 85bc 6513 9e3d 2bec 243b 205c 48bd
000001d0: 09fa 453b d012 4e3b 08ef 34bd 4b8e 1f3c
000001e0: 09e4 8c3d 89bb 4abd d644 18bc 6952 133c
000001f0: f9ea 07bd dd08 89bd e39d 463d e846 09bd
-0.037410557 0.045766704 -0.08293763 -0.07090831 0.037789553 -0.021554226 -0.08698844 0.074184954
0.077475645 0.05201737 0.07071705 0.030212868 -0.009190036 0.010003027 0.07559935 -0.072017275
0.05584239 0.05741255 -0.0721062 -0.03798949 -0.011697923 0.045351624 0.06532968 -0.02378819
0.07387485 -0.014917919 0.03574704 -0.02144896 0.014572159 -0.056398004 0.06376675 0.059114918
-0.0993984 -0.08656037 0.042854987 -0.03338117 -0.01086146 0.060224045 0.01796348 0.050921056
0.03141948 -0.036935538 0.058561545 -0.050545745 0.09436697 0.029035412 -0.044954617 0.08809945
-0.07701895 0.039830253 -0.03293804 0.024429433 0.028891096 -0.012147858 -0.041472793 0.052369528
0.03524096 0.014472791 0.09562294 -0.050572883 -0.025660522 -0.031958524 -0.03283991 0.038355783
0.09094965 -0.015478149 -0.06304945 0.03402718 0.08096048 0.028010081 -0.0137594715 0.07228844
-0.04822739 0.024285875 -0.05092917 -0.04572413 -0.09234542 0.07628681 -0.03494261 0.07955855
0.07229194 -0.06451273 -0.01734797 0.034318674 0.047621917 0.047392603 -0.024649598 -0.0017312703
-0.050543066 0.074159294 -0.09348529 0.06756972 0.04865467 0.00056777726 -0.02000522 -0.0939246
0.0077639804 0.022032253 0.05570842 -0.067658536 0.08388548 0.05749696 -0.0077758883 0.058215395
0.015572136 -0.077726535 -0.043131944 -0.088550285 -0.0700377 -0.042161122 0.052882656 0.074089155
-0.016312245 0.07718543 0.002516518 -0.048915982 0.0030208847 0.0031444319 -0.04417327 0.009738515
0.06879432 -0.049495254 -0.0092937555 0.008991816 -0.03318307 -0.06691144 0.048490416 -0.033514887

actor_head1.weight f4 [41, 128]
00000000: c7f3 5f3d 5e83 193d f0ac 423d 16dd 5ebd
00000010: 63e9 7ebd 9784 5b3d e820 8b3d 40a3 523c
00000020: 0b3b c83d 5014 893d 74d3 20ba a4a2 86bd
00000030: 52a1 3a3d f0ef a2bc 17dc f23b 5295 0bbd
00000040: fd9b 253d 0968 90bd 2129 87bd 8936 cebc
00000050: 3415 6bbd ff8f 133d e845 733b b20a 80bc
00000060: 4a12 53bd aba2 06bc c2ce 08bd bac7 263d
00000070: 229f 443d c234 a93d c918 b3bd fdb6 d0bd
00000080: a32a ad3b 5ee1 7ebd 261d 833d e300 753d
00000090: a2b1 87bd 4a35 2e3d da3b 363d 7e73 ae3c
000000a0: 516c cb3d d4ba f63c d6b0 9bb9 29e8 113d
000000b0: 21e5 0f3d b68c 8ebd ec2e 0bbd 4aa2 843d
000000c0: b622 fbbc eb0e 823d bea1 d13c 2298 74bd
000000d0: d8ae 9a3d eb0a be3c 12eb 853d b5ee 20bd
000000e0: 7540 773d f5ac 5cbd d4ef a13d 7711 5c3d
000000f0: 6eb1 9bbc ddc7 07bd 75db 413a 0518 1ebb
00000100: e207 60bd 9702 333d a852 6a3d 92c0 543c
00000110: a315 b9bc fd79 82bc 7933 82bc 26db b6bd
00000120: 40a8 5c3d e8e2 85bd 0671 a2bd 82cb 37bd
00000130: adb1 ae3b 5f13 593d 1037 8abd 2449 903b
00000140: be1b 40bd 1492 36bd 9a5e a43d b1d9 23bc
00000150: e45a 73bd 8363 283d 89af 263d c7bf 273c
00000160: 4e10 923d 557d 77bd 3ae4 13bc a31e 9fbb
00000170: 494f 583d 3b3e e93c dba9 353c 369a a5bb
00000180: d319 12ba 53fe 8bbc 8e5c ffbc bcd9 613d
00000190: 6b06 253d 3cef ad3d 8f05 8ebc 60a6 49bd
000001a0: c436 2b3d 37b0 96bd 270b 4139 33c5 3e3d
000001b0: 9bf9 acbd 2827 cdbd 7d17 403d 7b4b 863d
000001c0: 3b6b 153c f178 febc 36c7 2dbd 7b7a a73d
000001d0: cad2 5d3c 3220 88bd a710 2abc 4517 c8bc
000001e0: 50a2 a1bd 783d 44bd 2240 8fbd 9f46 a9bc
000001f0: fb1c 913d 8927 26bd dcb2 93bd 0539 d0bd
00000200: 6b2e a9bc 175e 823c cb3a a5bc c642 93bd
00000210: 0ab6 2fbb 3482 65bd 6a5d aebd 498c 613d
00000220: 047e 96bd fec1 31bc a6db a3bd d07c 9fbc
00000230: 1afa a1bd b762 d4bc 6338 b73d 69b7 843d
00000240: e766 803d ee91 24bd 0bf3 bc3c 987c babb
00000250: 1e63 94bb dd06 273d 8519 023d f450 b43d
00000260: 940b 2dbc 5442 d53c a50d 963d 81c4 883d
00000270: 56f9 263d b89c a4bd 5971 903c 3da9 61bb
00000280: 9178 25bd 1544 e8bb f0dd 9f3c 212f 96bd
00000290: a395 a7bd ba8d 9c3d 350c 63bd baa7 cebc
000002a0: 68b6 2b3d 01ee a93c a479 673d b909 843d
000002b0: 2407 443d 0a9a 67bd f8f7 8cbd 05ab 823d
000002c0: 0f75 22bd 846c f73c 6305 9cbd ce9b 2a3c
000002d0: 0613 5ebd 1d5e 953d a2ea ab3d 3c5b bb3b
000002e0: 3a8b 1dbd c641 82bd e50b 1e3d af2f 4bbd
000002f0: a91d f2bc ae24 97bb 9877 543d 3bde 95bd
00000300: 832a cf3d e88b 1c3d 6325 1d38 06b4 d8bc
00000310: d2c4 e23c e921 babc a46e 8a3b 08d8 6f3b
00000320: 05ad 8ebc 74dd d1bc b969 423d 8537 bbbd
00000330: 105f bfbd 8dde b1bc 4835 6bbc 802d 833c
00000340: cf58 c5bc 876e 07bd b302 82bd 8143 26bd
00000350: bb4b e53c ba51 7ebc c7be 7bbd 6aec 92bd
00000360: eef0 353d 3257 b33c e306 76bd 0a85 bd3d
00000370: c7d7 69bc a8c0 05bd 6ff8 adbd c802 5cbd
00000380: 10e1 9e3c e025 89bd 4c7d 8a3d 7626 41bd
00000390: 225f 64bd 630a a13d ff0f 243d 3088 ac3d
000003a0: 3396 7f3d c896 5d39 3c75 683d bdb1 7c3d
000003b0: 1a59 aebd 4711 853c e907 a43c a489 9cbc
000003c0: 1b2f 9d3d f6e3 c33b a93e 4fbd 34c8 3e3c
000003d0: 5429 48bd 314f 433d fb47 81bd 2cd7 2bbb
000003e0: 31db ea3c e844 883c 82fa 1c3d f031 00bb
000003f0: acfa 55bd 712c 7c3d 93b6 a73d 9b2f f63c
0.054675844 0.037478797 0.047528207 -0.054410063 -0.062234294 0.053593244 0.06793386 0.012856305
0.097768866 0.066933274 -0.00061350246 -0.0657399 0.045564003 -0.019889802 0.0074114907 -0.03407795
0.040431965 -0.07051093 -0.065996416 -0.025172489 -0.057393268 0.036025997 0.0037120525 -0.0156301
-0.051531114 -0.008217494 -0.033400305 0.040717818 0.048003323 0.08262016 -0.08744962 -0.10191152
0.0052846237 -0.062226646 0.06402044 0.0598153 -0.06625678 0.04253129 0.044490673 0.021295305
0.09932769 0.030118383 -0.00029695657 0.035621796 0.035130624 -0.06960432 -0.033980295 0.06476267
-0.0306562 0.063505016 0.02558982 -0.059715398 0.0755288 0.023198565 0.06538977 -0.03929015
0.060364205 -0.053875882 0.07907072 0.053727593 -0.019005504 -0.03314959 0.00073950674 -0.0024123203
-0.054695018 0.04370364 0.057207733 0.012985365 -0.022593325 -0.01592731 -0.015893685 -0.08928518
0.053871393 -0.065374196 -0.07931714 -0.044871815 0.005331239 0.05299699 -0.067487836 0.0044032503
-0.046901457 -0.044572905 0.08025856 -0.010000632 -0.059412852 0.041110527 0.040694747 0.010238594
0.07132016 -0.06042226 -0.009026581 -0.004855947 0.052809987 0.028472057 0.01108786 -0.0050537838
-0.0005573306 -0.017089045 -0.031172063 0.05513929 0.040289324 0.08492896 -0.017336635 -0.049230933
0.041800275 -0.07357829 0.00018410069 0.046574783 -0.08446046 -0.10017234 0.0468974 0.065573655
0.009119804 -0.031063529 -0.04242631 0.08177658 0.013539026 -0.06646766 -0.010379947 -0.024425158
-0.07892287 -0.047910184 -0.06994654 -0.020663558 0.07085606 -0.040565047 -0.07211849 -0.101671256
-0.020652017 0.015914006 -0.020169636 -0.071904704 -0.0026811385 -0.056032375 -0.08513911 0.055065427
-0.07348254 -0.010849474 -0.08000879 -0.019468695 -0.07909031 -0.025925977 0.08946302 0.06480295
0.06269627 -0.040178232 0.02306511 -0.0056911223 -0.0045284173 0.04077803 0.03176262 0.08804503
-0.0105618425 0.026032604 0.07326821 0.06678105 0.04076513 -0.08037704 0.017632173 -0.003443315
-0.040398184 -0.007088194 0.019515008 -0.07333208 -0.08182838 0.0764422 -0.055431563 -0.025226463
0.041922003 0.020743372 0.05651249 0.06447167 0.047858372 -0.056543387 -0.06883234 0.06380276
-0.039662417 0.030203111 -0.07618215 0.010413123 -0.05421736 0.07293341 0.08394362 0.005717663
-0.038462855 -0.063602015 0.038585562 -0.04960602 -0.029555159 -0.004612527 0.051871866 -0.07317778
0.1011553 0.038219362 3.7466536e-05 -0.02645303 0.027681742 -0.022721248 0.004224615 0.003659727
-0.017416487 -0.025618292 0.047464106 -0.09141449 -0.093443036 -0.021712566 -0.014355965 0.016012907
-0.024090199 -0.03306439 -0.06348171 -0.04059172 0.027990213 -0.015522415 -0.061461236 -0.07173999
0.04441922 0.021892164 -0.06006516 0.09253891 -0.014272637 -0.032654434 -0.084946506 -0.05371359
0.019394428 -0.06696677 0.0676218 -0.04715582 -0.05575479 0.07863309 0.040054318 0.08424413
0.0623991 0.00021132373 0.05675243 0.061692942 -0.085130885 0.01624359 0.020023303 -0.0191086
0.07675 0.005978103 -0.050596867 0.011644412 -0.04886754 0.047682945 -0.06312557 -0.0026220782
0.028668972 0.01663442 0.03832484 -0.0019561015 -0.052241012 0.06156582 0.0818912 0.030051997

actor_head1.bias f4 [41]
00000000: 9967 e83c db5f 01bc 5839 c93c aff5 dcbc
00000010: b5d8 2d3d fe2e 93bd 9f0d a93d 1ac4 763d
00000020: f08a 82bd f588 4fbd e63d 94bd 9191 35bd
00000030: 2ad7 8cbc 2977 bdbd 0200 8e3d 5d51 2dbd
00000040: f577 2fbd dd14 1fbd 22fa 9b3c 6582 383d
00000050: d19b 003d b357 9fbc 6a52 acbc 58cf 8f3c
00000060: 2d84 c13c 5247 9abc e6ee 8abc 38f4 52bd
00000070: 4794 a9bc 0c50 aabd b1af 853d 657d f6bb
00000080: fbd8 853d ac27 1ebb eb17 02bd c6fd 893d
00000090: 1438 70bd 47f3 133d 2180 f23c 54b6 54bd
000000a0: 8e4f 97bd
0.028369712 -0.007896389 0.024563476 -0.02697262 0.042442996 -0.071866974 0.08254551 0.06024561
-0.063741565 -0.05066772 -0.07238369 -0.044328276 -0.017192442 -0.092512436 0.06933595 -0.042313922
-0.04283901 -0.038838256 0.019040171 0.04504623 0.031398598 -0.019450998 -0.021035392 0.017554924
0.023622597 -0.018832836 -0.016959619 -0.051502436 -0.020700587 -0.08316049 0.06527651 -0.0075222724
0.06535526 -0.0024132533 -0.03176109 0.067378566 -0.05864723 0.03612068 0.029602112 -0.051931694
-0.07388221

actor_head2.weight f4 [41, 128]
00000000: 08ab 823d 1ddb ef3c 29fa 26bc 52b9 be3b
00000010: a8ab c73d d0a8 6abb d791 8abd af96 ea3c
00000020: 8e27 263b e192 823c 5056 65bc b234 8fbd
00000030: 1d49 ccbd b233 abbd 2c68 81bd 6e2f 3ebd
00000040: b011 843d 0b45 95bd 971a a93c fe64 043d
00000050: 58b3 4bbd 4236 94bd 6e91 73bd f0c5 3a3d
00000060: 5e07 34bd 258c a7bd 8321 3c3d 077e 8c3d
00000070: 1f58 82bd 7bbc 213a 57de 98bd 21ce 893d
00000080: 8710 133d e243 acbd eadc 183d d63a a13d
00000090: 692d c03c a3e4 87bd 454d 623d e805 033d
000000a0: b564 08bd 3b82 e43c 9160 8ebc 00ba 88bd
000000b0: 729d 4abd f82f 16bd 171e 7dbd b13e 80bb
000000c0: 5835 c63d 214d 6ebd b204 5f3d 5538 a0bd
000000d0: f4d3 133d 6bbb 323d 8762 213d bd0a 9dbd
000000e0: 7990 123c 4b4e b13d 4f83 75bd 2445 9b3d
000000f0: 0b3a 9c3d 7594 3a3d 52bb 053d f151 be3b
00000100: dd97 eb3c afe6 b4bc b4ca d3bc 710b e13c
00000110: 85fb 4abc 575b 0fbd 1800 07bc 704c e1bc
00000120: cfac 94bd aa6f 1c3d 4c81 313d ed55 3f3d
00000130: c874 5c3d aee4 5ebb 92f7 013d 123a 6ebd
00000140: a23b 16bd 95dd 17bd df0a 96bc b618 953d
00000150: 5614 b9bc 0a61 62bd 6c97 223a 3068 253d
00000160: 4d87 403d afac a03d 1eb5 72bd 72b2 c6bc
00000170: 7ab0 353d 1621 9dbd 44fa 9cbd b6de 96bd
00000180: a54a abbc 7afb 93bd 2d87 4bbd e712 9c3d
00000190: ae3c fb3c 76db 673d 51b3 9a3d c65d 8dbd
000001a0: 04d8 a1bd e002 673d 6c0c 5fbd 6df0 ef3b
000001b0: 866d 0b3d 569d 34bc 3cb4 383d 3178 463c
000001c0: 8c59 1dbd 011a 173d d48e 46bd 1fa2 703d
000001d0: 4027 4f3c 1a72 47bd 5ee7 37bd bdbb abbd
000001e0: 1c24 85bb 7174 be3d 7e73 9e3d 282f 50bd
000001f0: 6ccb fe3c dd1e 623d ed7e 8bbd c857 84bd
00000200: 2278 f83c 0c84 673d c486 b23d b793 a03c
00000210: 2b15 04bd 3b4e eabc 8e83 93bc 0fdd 8b3d
00000220: 7d27 50bd 3074 babd 3a63 063d 9550 ad3c
00000230: 0827 553c 9323 99bc 06ab 3c3d 5721 28bd
00000240: 300b bb3d 881b cebc b450 9a3d 1c3b 9a3d
00000250: 17bf a4bd ed52 0dbd 2c3b d53c 7beb c23d
00000260: 638a 7b3c 591b 863d 96d6 533d 2056 0f3d
00000270: 59ee bfbd 1450 63bd 82c2 bfbd 7ceb 8f3c
00000280: 4a94 63bd 68d7 7e3d 9bb7 1d3d 94f1 6c3c
00000290: 5840 343d 0c42 233d 4863 0fbd f8d7 72bd
000002a0: 614c 1e3c 741a aabc 6b0f 9ebd f2bc 663d
000002b0: 672a ac3d bcef 8a3d 8dfd b3bb f8a1 67bb
000002c0: 25de 58bd 2677 30bd 1e34 3c3d 4b34 913d
000002d0: 7190 c93d 5a03 853d 3f20 26bd aea5 353d
000002e0: 351a bbbc 9c86 aebd d0cb 703d fa31 8bbc
000002f0: c2e4 113d bfdc 0cbc 27ce cf3c 0d81 5fbd
00000300: 5787 01bc 8aec edbc 462b 6f3d dda5 a43c
00000310: 0a95 703d b26e 1fbd 8f42 4fbb f3c1 05bd
00000320: 42d5 7c3d 5647 2dbd 3c99 933b acfd d5bd
00000330: d5c7 263d 1d02 b6bc 69b5 a4bd 56bd fa3b
00000340: a179 ccbd fac7 3cbc 1484 84bc d7e1 b1bd
00000350: 3b07 78bb 030e 523d 091e 263d 1a4b 683c
00000360: 8c4e fabb 15e9 713d b163 663d 9586 8c3d
00000370: 9bd1 163c 434e 3c3c 656f 8a3d c73b aebc
00000380: ebc6 b03c d861 8abd 470e d0bd b426 76bd
00000390: 124b 593d 84b1 a2bc acdf 6ebc 62e5 d3ba
000003a0: 79a9 5ebd 415b 66bd f3ab ad3d 244e 523d
000003b0: 7d46 2a3d 9367 e5bc d8db 1d3d d94a c23d
000003c0: 8e50 52bc ed6e 173d 6d86 52bd c585 23bd
000003d0: 0268 a73d 89fb c4bd 58f1 67bd 9c1d 9abd
000003e0: 4ecd 243b 6696 7dbd c7ba ac3c 6b30 993d
000003f0: fe1a 56bd e79b f93c 1e58 953d a725 5a3d
0.06380278 0.029279286 -0.010191479 0.0058204317 0.09749538 -0.0035806186 -0.06766098 0.028636305
0.0025353166 0.015939178 -0.013997629 -0.06992473 -0.09974883 -0.083594695 -0.06318697 -0.04643195
0.06448686 -0.072885595 0.020642562 0.032322876 -0.049731582 -0.07236911 -0.059464864 0.045598924
-0.04395234 -0.08181027 0.045930397 0.06859975 -0.06364464 0.00061697484 -0.07464283 0.06728769
0.035904434 -0.08411385 0.037320055 0.0787255 0.023459153 -0.06635406 0.05524947 0.031988055
-0.033299167 0.02789413 -0.01738003 -0.06676102 -0.049466558 -0.03666684 -0.061796274 -0.0039137234
0.09678143 -0.058179025 0.054447837 -0.078232445 0.036090806 0.043635767 0.039400604 -0.07668064
0.008945578 0.08657511 -0.05993968 0.07581547 0.07628258 0.045551736 0.032649346 0.005808108
0.028758937 -0.022082655 -0.025853492 0.027471276 -0.0123890685 -0.034999218 -0.008239768 -0.027502269
-0.07259523 0.03819243 0.043336198 0.046712805 0.05382231 -0.0034010815 0.031730242 -0.05816085
-0.036677964 -0.03707655 -0.01831573 0.07280104 -0.022592705 -0.055268325 0.0006202373 0.040382564
0.047004033 0.07845437 -0.059254758 -0.024255011 0.044357754 -0.07672326 -0.07664922 -0.073666975
-0.020909617 -0.072257 -0.04968946 0.07620793 0.030668583 0.05660578 0.07553733 -0.069026515
-0.0790253 0.056399226 -0.054455206 0.007322362 0.034039997 -0.01102384 0.04509376 0.012113617
-0.038415477 0.036890034 -0.048476055 0.05874836 0.012643635 -0.0486928 -0.044898383 -0.083854176
-0.0040631425 0.09299553 0.07736872 -0.05082622 0.031102858 0.055205215 -0.068113185 -0.064620554
0.030330721 0.056522414 0.08717111 0.019601686 -0.03224675 -0.028601756 -0.018007066 0.06829273
-0.05081891 -0.09104192 0.032809474 0.021156589 0.013009794 -0.01869372 0.04606154 -0.04104742
0.09132993 -0.025159612 0.07534924 0.075308055 -0.0804426 -0.034502912 0.026029192 0.095175706
0.015352818 0.06548185 0.051718317 0.034994245 -0.09371633 -0.05549629 -0.09363271 0.017568342
-0.05556134 0.062217146 0.038505178 0.014461894 0.044006675 0.03985791 -0.03500679 -0.059287995
0.009661765 -0.020764567 -0.077177845 0.056332536 0.08406525 0.06784007 -0.005492872 -0.0035344344
-0.05294623 -0.04308238 0.04594814 0.07090052 0.09842003 0.0649478 -0.040558096 0.044347458
-0.022839645 -0.085217685 0.05878812 -0.016991604 0.03561855 -0.008597552 0.025366856 -0.05456643
-0.007905803 -0.029043455 0.05839088 0.020098621 0.058735885 -0.038923927 -0.0031625365 -0.032655668
0.061726816 -0.04230436 0.004504351 -0.10448775 0.04071792 -0.022217805 -0.08042414 0.007651965
-0.099841364 -0.0115222875 -0.016176261 -0.08685654 -0.0037846107 0.051282894 0.040555988 0.014178062
-0.007638758 0.059060175 0.056247417 0.06861607 0.009205247 0.011493268 0.06759528 -0.021268738
0.021579226 -0.067569435 -0.10158973 -0.060095504 0.05305011 -0.019860037 -0.014579695 -0.0016166384
-0.05436084 -0.05623937 0.08480062 0.051344052 0.04157113 -0.02800349 0.038539737 0.09486932
-0.012836589 0.03697102 -0.05139773 -0.039922494 0.08174135 -0.09618289 -0.056626648 -0.07525179
0.0025146785 -0.06191101 0.021085156 0.07479938 -0.052271836 0.030469848 0.07292198 0.053258564

actor_head2.bias f4 [41]
00000000: c076 a8bb b0bf a33d 6ff6 2dbd 5737 b33d
00000010: 52c2 ba3d 648f 503d 40b5 7cbd 21f4 91bc
00000020: 5501 cabc 8d39 ab3d 1a8d 81bb 0f32 1d3d
00000030: b4d7 ecbc 26ad a1bd 7854 94bd b3d3 b2bd
00000040: 295d e23c 2274 5a3d 1f42 a33d 02db 883d
00000050: 0d94 553d 8d26 8abc c33a babc 157a 8d3d
00000060: df59 8f3c a57b 87bd 0e57 8f3d 3691 bfbd
00000070: 4a03 91bd d1dd 853d 810e 6fbd f390 00bd
00000080: 4354 54bd 7b55 bebd 7dab 143d 98e8 3f3d
00000090: b9eb 5ebb 378e 86bc 203d f6bc 24c0 87bd
000000a0: b48f 40bd
-0.005141109 0.07995546 -0.042471346 0.087507896 0.09119095 0.050917998 -0.06169629 -0.017816605
-0.024658838 0.08360586 -0.003953588 0.038377818 -0.028911449 -0.078943536 -0.07242674 -0.08731785
0.027632313 0.05333341 0.07971596 0.066823974 0.052143145 -0.016864086 -0.022733098 0.06908051
0.017498909 -0.0661538 0.06999026 -0.09353869 -0.070807055 0.06536449 -0.05836344 -0.031388234
-0.05183817 -0.09293648 0.036296356 0.046852678 -0.0034015013 -0.016425235 -0.030058444 -0.06628445
-0.047012046

critic_head.weight f4 [1, 128]
00000000: 02ab eebc 9451 b23d 17d8 8a3d 546f c53d
00000010: 6ff5 693d 9f81 98bd 263e c2bd 99c3 25bd
00000020: c5c4 b43d 9302 84bd d008 d23d 75dd a2bd
00000030: 6e3d 0fbd a890 d4bd 01b1 283d de12 c5bd
00000040: de83 6d3d 6f00 083d 72cd 22bd 6eeb c1bd
00000050: ffd7 83bd 9b76 8fbd a801 e93d 6651 823d
00000060: e1a7 b0bd c5f0 923d d6ba 5ebd d6dc 893d
00000070: 2899 3ebd c419 403d 0f7b 94bd b0b5 f8bc
00000080: f62c c4bc 89ff 87bd 21a4 acbd a117 d53d
00000090: 3b5e 81bd a4fd 7a3d bd37 87bd 11a6 7e3c
000000a0: 14f6 463d df92 ae3d 2506 1dbd bd72 e73d
000000b0: 4c81 e53d 7c80 783d 7ef6 353d fe0d 3b3d
000000c0: fd0a 8e3d 2076 283d 1e35 b53d fe60 b7bd
000000d0: 4422 693d 9d36 d13d e2b2 023d da56 9fbd
000000e0: 9e0a 89bd eb57 3abd 5ba1 a53d e083 41bd
000000f0: 2d29 e63d bfb2 a83d 8058 b8bc fb85 c8bd
00000100: d17e 3f3d 2929 1f3d 12dc d2bd acbb 8abd
00000110: 49c3 793d 9f3e e3bd f517 cebd 4308 92bd
00000120: ccb8 5abd 402d 323d fc26 b63d 1fe7 babd
00000130: d64e a2bc 7c94 8c3d 7cc2 57bd 4d85 6cbd
00000140: 831e 8abd 08c6 a63d f08a 7dbd bc1a acbd
00000150: df5a 71bd 07e3 3fbd 79a9 8dbd 9b62 9abc
00000160: f830 c9bc 3b3c 7b3d 3ff2 87bd 3c43 843d
00000170: 6afd 4cbd 2315 55bd b2e4 3abd dfe4 8bbd
00000180: 42e6 e9bd d080 bdbd bf87 0fbd afac 4d3d
00000190: 5de0 1e3d c618 42bd b8d4 c13c b1a8 c53c
000001a0: 7677 1dbd 6380 803d ce26 833d 01c9 a5bc
000001b0: d55e c3bd 52c0 babd e1d6 68bd 34fb a43d
000001c0: 5949 a33d 17b3 aabd 6ae0 203d 0c95 9ebd
000001d0: 9a3b d73d 7492 41bd 878f 5a3d d26c 1abd
000001e0: 1fd3 05bd 8d6e 853d 698e 863d 42d8 873d
000001f0: 091d 6cbd 4895 df3d 9d75 b9bd dd3b 193d
-0.029134277 0.08706966 0.06779497 0.09640375 0.05711883 -0.07446598 -0.0948451 -0.04046974
0.08826593 -0.064458035 0.10255587 -0.07952396 -0.034970693 -0.103791535 0.04118443 -0.09622739
0.057987086 0.03320354 -0.03974671 -0.09468733 -0.06437682 -0.07005044 0.11377269 0.06363182
-0.0862577 0.071748294 -0.0543774 0.06731574 -0.04653278 0.046899572 -0.07250034 -0.030360073
-0.02394722 -0.06640536 -0.084297426 0.104048975 -0.06316801 0.061277047 -0.06602428 0.015542523
0.048574522 0.08524107 -0.038335938 0.113011815 0.11206302 0.060669407 0.044424526 0.04566764
0.069356896 0.041128278 0.08848022 -0.08954047 0.056917444 0.10215495 0.031908877 -0.077802375
-0.06691478 -0.045494 0.08087417 -0.047244906 0.112383224 0.08237218 -0.022503138 -0.0979118
0.0467518 0.038857613 -0.10295881 -0.06774077 0.060977254 -0.110959284 -0.10063163 -0.07130482
-0.053398892 0.043500185 0.088941544 -0.09126114 -0.019812983 0.06864259 -0.05267571 -0.057744313
-0.06744101 0.0814324 -0.06190008 -0.08403537 -0.058924552 -0.04684737 -0.0691709 -0.018845847
-0.024559483 0.061336737 -0.06638002 0.064581364 -0.050046362 -0.05202211 -0.045628257 -0.06830763
-0.11420871 -0.09253085 -0.035041567 0.050213512 0.03878819 -0.047386907 0.023661003 0.02412829
-0.038444005 0.06274488 0.06403886 -0.020237448 -0.09539572 -0.091187134 -0.05684555 0.08055726
0.07972974 -0.0833494 0.039276518 -0.07743272 0.10509415 -0.04725881 0.053359535 -0.037701435
-0.032672044 0.065152265 0.06570131 0.06633045 -0.057644878 0.10917145 -0.09055636 0.037410606
