models/ppo_gear_placer_best.pt (torch, 107822 bytes, 9 tensors)

shared_layers.0.weight f4 [128, 5]
0	0x3e985ba8	0.29757428
1	0x3eb408e4	0.35163033
2	0xbed0a9a5	-0.40754429
3	0x3d3751b0	0.044755638
4	0x3ecf095c	0.40436828
5	0xbd6023d8	-0.054721683
6	0x3d19ed60	0.037579894
7	0x3e775e88	0.24157155
8	0xbe2b8e98	-0.16753614
9	0xbea11a04	-0.3146516
10	0xbed60497	-0.41800377
11	0x3e83e59e	0.25761122
12	0xbde25a80	-0.11052418
13	0x3e0fc430	0.14039683
14	0x3da5c310	0.08093846
15	0xbd2bc338	-0.041934222
16	0xbec9fd76	-0.39451188
17	0x3dc9bb70	0.09850204
18	0xbed2cb19	-0.41170576
19	0xbed60734	-0.4180237
20	0xbdc48314	-0.09595314
21	0x3ea63916	0.32465428
22	0xbe130fe2	-0.14361528
23	0xbe13ab58	-0.14420831
24	0xbe4eec9a	-0.20207444
25	0x3e6e1304	0.23249441
26	0xbe3bfccc	-0.18358153
27	0xbeadd9b1	-0.33955148
28	0xbebca966	-0.3684799
29	0xbe8a2250	-0.26979303
30	0xbe3e952c	-0.18611592
31	0xbe295f6e	-0.1654031
32	0xbea1ec86	-0.31625766
33	0x3e7fa8e4	0.2496677
34	0x3eb9ead0	0.3631196
35	0xbd8aa7ec	-0.0677031
36	0xbd902740	-0.07038736
37	0x3e4da5e8	0.2008282
38	0x3dc4b628	0.09605056
39	0x3cd359b0	0.025799602
40	0x3dd4e170	0.10394561
41	0xbe1b5056	-0.15167364
42	0x3e3b0d94	0.18266898
43	0x3e1288a0	0.14309931
44	0xbec9ee69	-0.39439705
45	0xbeb70802	-0.35748297
46	0x3eb98968	0.36237645
47	0xbe8c972d	-0.27459088
48	0xbd5283c0	-0.051395178
49	0x3e52dc84	0.20591933
50	0x3e40df24	0.18835121
51	0x3e8760d4	0.26441061
52	0xbea0b277	-0.31386158
53	0xbda2ea28	-0.07954818
54	0xbe89fa9d	-0.26949015
55	0xbe800d20	-0.25010014
56	0x3e0274c4	0.12739855
57	0xbe700ac8	-0.23441613
58	0x3e892a9c	0.2679032
59	0x3e186354	0.1488164
60	0xbecd953e	-0.40152925
61	0xbdea484c	-0.11439571
62	0xbebb9a5a	-0.36641198
63	0xbeac2b2f	-0.33626696
64	0x3e104810	0.1408999
65	0x3c6f61e0	0.014610738
66	0x3e1cbeac	0.1530711
67	0x3dc3dd00	0.09563637
68	0x3ec5bb72	0.38619572
69	0xbea9361c	-0.33049095
70	0x3db83dd8	0.08996171
71	0x3e2b0704	0.16701895
72	0x3d2f1268	0.042742163
73	0xbe1ebec2	-0.15502456
74	0xbe82028d	-0.2539257
75	0xbee36c98	-0.44418788
76	0x3e519bac	0.2046954
77	0xbdd347f0	-0.10316455
78	0x3e0cd67c	0.13753694
79	0xbe47fff2	-0.19531229
80	0x3ebbdf8e	0.36693996
81	0x3eb29a0a	0.34883147
82	0xbe8af567	-0.27140352
83	0x3d21eba0	0.03953135
84	0xbe12071a	-0.14260522
85	0xbea5dc08	-0.32394433
86	0x3dfe8fc8	0.12429768
87	0xbdadee7c	-0.08492753
88	0xbda8d7d8	-0.08244294
89	0x3def43f8	0.11682886
90	0xbe2b797e	-0.16745564
91	0x3db41ac8	0.087941706
92	0xbe9ea05a	-0.30981714
93	0xbe6c4ebc	-0.2307691
94	0xbcf3bfa0	-0.02975446
95	0x3dabc380	0.08386898
96	0xbed38ce0	-0.41318417
97	0xbec1e429	-0.37869385
98	0xbe5ac20e	-0.21363088
99	0x3e95da36	0.29268044
100	0x3e5cef18	0.21575582
101	0x3eab2148	0.3342383
102	0xbea5b0a5	-0.32361332
103	0xbee04451	-0.4380212
104	0x3d7cab20	0.061686635
105	0xbea3438a	-0.31887466
106	0xbea75a3b	-0.32686028
107	0x3eaf875c	0.34282959
108	0xbe7fc40a	-0.24977127
109	0xbed4cbb0	-0.4156165
110	0xbe30be92	-0.17260197
111	0xbec25344	-0.37954152
112	0xbe827f7a	-0.25487882
113	0x3d848ab0	0.06471765
114	0x3d9f0ad0	0.07765734
115	0xbea94a31	-0.33064416
116	0x3de91e20	0.11382699
117	0x3e6e0ccc	0.23247069
118	0x3ea1345e	0.31485265
119	0xbec5c433	-0.3862625
120	0xbe377ae6	-0.17917976
121	0xbed40f03	-0.41417703
122	0x3e5b4388	0.2141248
123	0xbea68f1b	-0.32531056
124	0x3e4fc19c	0.202887
125	0x3e9359c6	0.2877943
126	0xbcd9c720	-0.026584208
127	0x3e840078	0.25781608
128	0xbe8eed46	-0.279154
129	0x3ecc99f8	0.3996122
130	0x3e2c5cf0	0.16832328
131	0xbe18fea8	-0.14940894
132	0x3e89bf0e	0.26903576
133	0x3e3ccfd8	0.18438661
134	0x3d21afb0	0.03947419
135	0x3df28698	0.11842078
136	0xbe9bc4f8	-0.30423713
137	0x3d8bc2a0	0.06824231
138	0x3d9af4b0	0.07566202
139	0x3dc29550	0.09501135
140	0xbeb81c0b	-0.35958895
141	0xbe7df219	-0.24799384
142	0xbebb47ba	-0.3657816
143	0x3e4be2cc	0.19910735
144	0x3eca55a8	0.39518476
145	0xbe55fd75	-0.20897467
146	0xbdb7d388	-0.08975893
147	0xbe918d2e	-0.28428024
148	0xbe4f1256	-0.20221838
149	0xbe6f4576	-0.23366341
150	0xbe8a7992	-0.27045876
151	0x3e0cb8c8	0.13742363
152	0x3d8224e0	0.063546896
153	0x3d121c38	0.035671443
154	0xbee1671c	-0.4402398
155	0xbe9c72ab	-0.30556235
156	0x3e2ce1e8	0.16883051
157	0x3ec6e1ea	0.38844234
158	0x3e95c5d4	0.29252493
159	0x3e8febf2	0.281097
160	0xbe19cf16	-0.15020403
161	0x3e528b94	0.20561057
162	0xbdafbf80	-0.085814476
163	0x3e85460c	0.26030004
164	0x3e8709f4	0.2637478
165	0xbdaa3174	-0.08310214
166	0xbe291eca	-0.16515651
167	0x3e0cf5f0	0.13765693
168	0x3d16c008	0.03680423
169	0x3cbabd40	0.02279532
170	0xbea49128	-0.32141995
171	0xbed881b4	-0.42286456
172	0x3ebbdea0	0.36693287
173	0xbebf75c4	-0.37394536
174	0xbe488636	-0.19582447
175	0xbeb7b69c	-0.35881507
176	0xbeb43088	-0.35193276
177	0xbc30ff40	-0.010803044
178	0x3e826486	0.25467318
179	0xbe0f571e	-0.13998076
180	0xbe69da31	-0.2283714
181	0xbec8a4f6	-0.39188355
182	0xbed809bd	-0.4219493
183	0x3ec87b34	0.39156497
184	0x3de57b50	0.112051606
185	0xbe91a672	-0.284473
186	0x3dc254c8	0.09488827
187	0xbe1cc414	-0.15309173
188	0xbd0556e0	-0.032553554
189	0x3eaedeee	0.34154457
190	0x3ea5f28c	0.3241161
191	0xbee25725	-0.4420711
192	0x3df31350	0.11868918
193	0x3ebbd152	0.36683136
194	0x3d454ab0	0.04816693
195	0x3eccc984	0.39997494
196	0xbd804610	-0.06263363
197	0xbe4c6702	-0.1996117
198	0xbe1975ca	-0.14986339
199	0xbd91f270	-0.071263194
200	0x3eb35744	0.35027516
201	0x3e2ec798	0.17068326
202	0x3dbe41c0	0.092898846
203	0x3e1f8980	0.15579796
204	0x3ec2d784	0.3805505
205	0x3ea5e82e	0.32403702
206	0x3de70678	0.11280531
207	0x3e9b0f20	0.30284977
208	0x3ed32faa	0.41247302
209	0x3e334b98	0.17509305
210	0xbd926ebc	-0.07150027
211	0x3e2a918c	0.16657084
212	0xbe48175c	-0.19540161
213	0xbecb5925	-0.3971645
214	0x3ec51a64	0.38496697
215	0x3e04589c	0.12924427
216	0x3da0a468	0.07843858
217	0x3dc9b9f8	0.09849924
218	0xbed80f4b	-0.42199168
219	0xbe6d37ca	-0.23165813
220	0xbe878eac	-0.26476038
221	0x3e326518	0.17421377
222	0xbe4f3e6a	-0.20238653
223	0xbe5126a9	-0.20424904
224	0x3e0d2ca8	0.13786566
225	0x3d8ac840	0.06776476
226	0x3ecdab34	0.4016968
227	0x3e1ac4e4	0.1511417
228	0xbe94eb7c	-0.2908591
229	0xbd9d73c0	-0.07688093
230	0x3e4e4c70	0.20146346
231	0x3df9eaa8	0.1220296
232	0xbeafd1ec	-0.34339845
233	0xbeb6d54e	-0.35709614
234	0xbbd09c80	-0.0063663125
235	0xbe2533e6	-0.16133079
236	0xbeb5705f	-0.35437295
237	0xbc6491e0	-0.013950795
238	0xbe98acc7	-0.2981932
239	0x3c326020	0.010887176
240	0xbdf96f6c	-0.12179455
241	0x3edfefae	0.4373755
242	0x3e3a1614	0.18172485
243	0xbe971e32	-0.29515225
244	0x3e715c68	0.23570406
245	0xbeab35c1	-0.33439448
246	0xbe82b83f	-0.25531194
247	0xbdc86e84	-0.09786704
248	0xbecb51c2	-0.39710814
249	0xbda96a04	-0.08272174
250	0x3ea675c6	0.3251173
251	0xbed7fc17	-0.42184517
252	0xbde83210	-0.11337674
253	0xbe11d622	-0.14241841
254	0x3e82e6f8	0.2556684
255	0xbeb65350	-0.35610437

shared_layers.0.bias f4 [128]
0	0x3db0fa18	0.086414516
1	0x3e6d3034	0.2316292
2	0xbdc56308	-0.09638029
3	0x3d9aca30	0.075580955
4	0x3eaf7d38	0.34275222
5	0xbeb038e0	-0.34418392
6	0xbea2be14	-0.31785643
7	0x3ce63090	0.028099328
8	0x3e91c55e	0.28470892
9	0xbed84491	-0.42239812
10	0xbe0b941a	-0.13630715
11	0x3edd9112	0.43274742
12	0x3d357c58	0.044308037
13	0xbe928f00	-0.28624725
14	0x3ea3fede	0.32030386
15	0xbe992f5e	-0.2991895
16	0x3ee49bb0	0.4465003
17	0x3c96ef00	0.018424511
18	0xbe3983b2	-0.18116644
19	0xbee4820a	-0.44630462
20	0xbc2ddbe0	-0.010611504
21	0x3e8596e4	0.26091683
22	0x3e8f5f4e	0.280024
23	0x3e8ce21a	0.27516252
24	0x3e9c5226	0.30531424
25	0x3ec13818	0.3773811
26	0x3e67177c	0.22567552
27	0x3e4d3784	0.20040709
28	0x3e6255c0	0.22103024
29	0x3e788820	0.24270678
30	0xbede6e1b	-0.4344338
31	0xbeaabd29	-0.33347443
32	0x3d6d2840	0.057899714
33	0xbe896ffa	-0.26843244
34	0x3ebb45ce	0.36576694
35	0x3e9d8610	0.30766344
36	0xbe1bae40	-0.1520319
37	0x3cb06e50	0.021536976
38	0xbd56e780	-0.05246687
39	0x3eda2c06	0.42611712
40	0xbea20c30	-0.31649923
41	0x3d1e4710	0.03864199
42	0x3eb17336	0.3465821
43	0x3d9293d8	0.07157105
44	0x3ebc93a2	0.36831385
45	0xbe6c2b04	-0.23063284
46	0x3d88e5b8	0.066844404
47	0xbda7abfc	-0.081871
48	0xbda8b2e4	-0.08237246
49	0xbe0bbd5e	-0.13646457
50	0xbecd1eb2	-0.4006248
51	0x3ec900c8	0.3925841
52	0x3e90009a	0.2812546
53	0xbea853d1	-0.32876447
54	0x3e736e10	0.23772454
55	0x3a142a00	0.00056520104
56	0x3e961ef8	0.29320502
57	0x3edfdbe4	0.4372245
58	0x3d9af4d8	0.075662315
59	0xbd5d6a88	-0.054056674
60	0xbee02445	-0.4377767
61	0xbe4f5038	-0.20245445
62	0x3e203800	0.15646362
63	0xbe8d47de	-0.27593893
64	0x3d729bc0	0.059230566
65	0x3ea5bd6a	0.32371074
66	0x3d209758	0.039206833
67	0x3dee07f0	0.11622608
68	0x3ec3664e	0.3816399
69	0xbe7ba9b0	-0.2457645
70	0xbde97a60	-0.11400294
71	0x3bb624c0	0.00555858
72	0xbe883da8	-0.2660954
73	0xbe53dd16	-0.20689806
74	0x3e7626cc	0.24038237
75	0x3e14f9cc	0.14548415
76	0x3e0b0c1c	0.13578838
77	0x3db66ba8	0.089072526
78	0x3ed67848	0.41888642
79	0x3de14470	0.109993815
80	0x3ecba4b0	0.39774084
81	0xbd7100e0	-0.058838725
82	0xbdc09978	-0.09404272
83	0xbea865fe	-0.32890314
84	0x3e916a32	0.28401333
85	0xbe2c0fb0	-0.1680286
86	0x3dea77e8	0.114486516
87	0x3e80299c	0.25031745
88	0x3eadf7de	0.3397817
89	0x3dc62ac8	0.096761286
90	0x3e77ce88	0.24199879
91	0x3ed6cc80	0.41952896
92	0xbecdc968	-0.40192723
93	0x3dbaa390	0.09113228
94	0xbe8b1f12	-0.27172142
95	0x3e6c20a4	0.23059326
96	0x3e91d296	0.28480977
97	0x3e99cd38	0.30039382
98	0xbec05b99	-0.37569883
99	0x3bcd3ec0	0.006263584
100	0xbe82e924	-0.25568497
101	0x3e94685e	0.28985876
102	0x3e50f74c	0.20406836
103	0xbe7fb911	-0.24972941
104	0x3ea9649a	0.33084565
105	0x3ea21216	0.31654423
106	0xbe57b6b7	-0.21065794
107	0xbe7053e6	-0.23469505
108	0x3d4668c8	0.04843977
109	0xbe7404ae	-0.2382991
110	0xbc25f920	-0.010130197
111	0x3ed7be94	0.42137587
112	0xbebf3842	-0.3734761
113	0x3d613040	0.054977655
114	0xbda6d0f4	-0.081453234
115	0xbee33bb5	-0.4438149
116	0xbe73baf2	-0.23801783
117	0x3ee01db0	0.4377265
118	0xbec7f6e2	-0.39055544
119	0x3ea213a4	0.3165561
120	0xbe354688	-0.17702687
121	0xbe197ef0	-0.14989829
122	0x3ea08b80	0.3135643
123	0x3dc21f90	0.09478676
124	0xbe59361e	-0.2121205
125	0xbedbcf40	-0.42931557
126	0xbeafebe4	-0.34359658
127	0x3eceae68	0.40367436

shared_layers.2.weight f4 [128, 128]
0	0xbc7ed140	-0.015552819
1	0x3be5adb0	0.0070092306
2	0xbd14279b	-0.036170583
3	0xbcdf6d02	-0.027273659
4	0xbafeaec0	-0.0019430742
5	0xbd73207d	-0.059357155
6	0xbbcda610	-0.0062758997
7	0xbdaa9eaa	-0.08331044
8	0x3d76990a	0.060204543
9	0xbd465a69	-0.048426066
10	0xbcfa87bc	-0.030582301
11	0xbd181615	-0.037130434
12	0xbdac9892	-0.08427538
13	0xbbfde280	-0.007747948
14	0xbbd579d0	-0.0065147653
15	0x3db0c6d5	0.08631674
16	0x3d9d07b1	0.07667483
17	0x3da67939	0.0812859
18	0xbd621a9f	-0.05520117
19	0x3d08590e	0.033288054
20	0xbcda3892	-0.026638303
21	0x3b84d0d0	0.0040532127
22	0xbd101155	-0.03517278
23	0xbd2ba2da	-0.041903354
24	0xbdacd76f	-0.08439528
25	0xbd9bdcd9	-0.07610483
26	0x3d0a5d8e	0.033780627
27	0x3d5f628e	0.05453735
28	0xbd4014ae	-0.04689472
29	0x3d8919f5	0.06694404
30	0x3d598426	0.053104542
31	0xbb080240	-0.0020753294
32	0xbc9174c4	-0.017755874
33	0x3c9a17ec	0.018810235
34	0xbc0253f0	-0.007954583
35	0xbc2f23f8	-0.010689728
36	0x3c6c8e68	0.014438249
37	0xbd2d3417	-0.042286005
38	0xbccfea74	-0.02538035
39	0xbd38cf41	-0.045119528
40	0xbd80ff25	-0.06298665
41	0xbbdc4c60	-0.006722972
42	0x3c36a500	0.0111477375
43	0xbc3d9990	-0.011572257
44	0xbd724caa	-0.059155144
45	0xbd1b7672	-0.037954755
46	0x3da8e817	0.082473926
47	0xbd2ffca5	-0.04296555
48	0xbcfb13f0	-0.030649155
49	0xbc9fd5e0	-0.019511163
50	0xbd8035c1	-0.06260253
51	0xbd52e8bd	-0.051491488
52	0x3bac85b0	0.00526496
53	0x3ce097a0	0.02741605
54	0x3d36fcd2	0.044674702
55	0x3d68ef2a	0.05686871
56	0xbd82285d	-0.06355355
57	0x3d68baae	0.056818657
58	0x3db373d1	0.087623246
59	0xbd10cde2	-0.035352595
60	0x3d6635e6	0.056203745
61	0xbd9ade9a	-0.07561989
62	0xbd5dce66	-0.054151915
63	0x3d0928ba	0.033486106
64	0xbcabafdc	-0.02095788
65	0x3d792936	0.060830317
66	0xbc60c380	-0.013718486
67	0xbd99e906	-0.07515149
68	0xbd968131	-0.0734886
69	0xbc570978	-0.013124816
70	0x3da602f1	0.0810603
71	0xbbc91f90	-0.0061377957
72	0xbd9147a4	-0.070937425
73	0xbd6f1721	-0.058371667
74	0x3d081428	0.033222347
75	0xbd436bf8	-0.04771039
76	0xbb50bde0	-0.0031851456
77	0xbd33360c	-0.043752715
78	0x3d2f836a	0.042849936
79	0xbc79e5e8	-0.015252568
80	0xbd98af0d	-0.07455263
81	0x3d8859ad	0.06657729
82	0x3d775a96	0.060389124
83	0x3c4d4618	0.012528919
84	0x3d9d3985	0.076769866
85	0x3c097f20	0.008392125
86	0x3d5d3f62	0.054015525
87	0xbc4a5430	-0.012349173
88	0xbdaa7edb	-0.08324977
89	0x3c0dbd68	0.008651115
90	0xbd02cb8d	-0.031932402
91	0xbd530c70	-0.051525533
92	0xbc00ee78	-0.007869355
93	0x3d996ec9	0.07491834
94	0x3ca5786c	0.020199023
95	0x3d82495b	0.06361648
96	0xbd9baac2	-0.07600929
97	0xbd813714	-0.063093334
98	0xbd65ce83	-0.056105148
99	0xbd3c1b79	-0.045924637
100	0x3d74c196	0.05975493
101	0xbd992b9c	-0.07479021
102	0x3d722392	0.059115954
103	0x3cc04038	0.023468122
104	0xbda074a4	-0.078347474
105	0x3d9d5a0f	0.07683193
106	0x3ca03fb4	0.019561626
107	0x3d182052	0.037140198
108	0xbc9f88ac	-0.01947435
109	0xbd6d2cfc	-0.05790423
110	0xbdaaeb0a	-0.083456114
111	0xbc041110	-0.008060709
112	0x3c99a8c0	0.018757224
113	0xbd955fff	-0.072937004
114	0x3d417722	0.047232755
115	0x3da94a2f	0.082661025
116	0xbb8c1f70	-0.0042762086
117	0xbd39c652	-0.04535515
118	0x3d93d479	0.0721826
119	0xbcfc8e16	-0.03082947
120	0xbd86d674	-0.065838724
121	0xbd4c6d5c	-0.04990898
122	0x3c287858	0.010282598
123	0x3d4c9a7a	0.049952008
124	0x3d93f0b1	0.072236426
125	0x3c5266d0	0.012841895
126	0xbbe532b0	-0.006994568
127	0xbd213aed	-0.039362837
128	0x3bcfdea0	0.0063436776
129	0xbd3e76c2	-0.046499975
130	0xbd4f1eee	-0.050566606
131	0xbc440b08	-0.011965521
132	0x3db2f7a9	0.08738644
133	0x3da1552d	0.07877574
134	0x3d3d0a9a	0.04615269
135	0x3d8f8439	0.07007641
136	0xbc6d0588	-0.014466651
137	0xbd85c250	-0.06531203
138	0x3d0e24cc	0.03470306
139	0xbbe52580	-0.0069929957
140	0xbc8f6d88	-0.017508283
141	0xbd6e15c4	-0.058126226
142	0xbd811f41	-0.06304789
143	0xbbf6a9b0	-0.0075275525
144	0x3d87d601	0.06632615
145	0x3ce8640c	0.028368019
146	0x3d92c90b	0.07167252
147	0x3d852c5d	0.06502602
148	0xbd96ae7e	-0.073575005
149	0x3d866f59	0.06564207
150	0x3d26b49a	0.04069958
151	0x3d831d37	0.06402057
152	0x3da7e5c5	0.08198122
153	0xbd77f0c4	-0.060532346
154	0xbda52d5c	-0.08065292
155	0xbdaca8de	-0.08430646
156	0xbdaebcbd	-0.08532093
157	0xbcf054f6	-0.029337388
158	0xbd3da89a	-0.04630337
159	0x3b763be0	0.003757231
160	0xbd076cfe	-0.033062927
161	0x3d1c34e6	0.038136385
162	0x3cc6aedc	0.024253301
163	0xbd6e11e8	-0.058122545
164	0x3c8cd530	0.0171915
165	0x3bd63ab0	0.006537758
166	0xbda0899c	-0.07838747
167	0xbd8490c0	-0.06472921
168	0xbcec64fc	-0.028856747
169	0x3d8f4447	0.06995445
170	0xbcf7884e	-0.030216362
171	0xbdb359e5	-0.087573804
172	0xbcd26588	-0.02568318
173	0xbdaeef26	-0.08541708
174	0x3b1fdec0	0.0024394244
175	0xbd2f02ea	-0.04272739
176	0x3cdd33c4	0.027002223
177	0x3d94613b	0.07245108
178	0xbd1552ae	-0.036455803
179	0xbd718d2f	-0.058972534
180	0x3cc0f0cc	0.02355232
181	0xbd111821	-0.0354234
182	0xbd37f6c8	-0.044913083
183	0x3ceabd44	0.028654702
184	0x3d606046	0.054779314
185	0xbd9c3a05	-0.07628254
186	0xbd94c320	-0.0726378
187	0xbcce683c	-0.025196187
188	0xbc66a220	-0.01407674
189	0xbdb0debf	-0.086362354
190	0xbd6e028a	-0.05810789
191	0xbdb30563	-0.08741262
192	0x3ce49164	0.027901359
193	0x3b70b880	0.0036731064
194	0x3da89b77	0.082327776
195	0xbd3a63da	-0.045505382
196	0xbdb009dd	-0.08595631
197	0x3ce1e534	0.027575113
198	0x3d5fb3be	0.054614775
199	0xbcdc70d2	-0.026909266
200	0x3d498016	0.049194418
201	0x3baaee80	0.0052164197
202	0xbd94d4d6	-0.07267158
203	0x3d17478e	0.036933474
204	0x3cec12ac	0.028817497
205	0x3da8898b	0.08229359
206	0x3c154b40	0.009112179
207	0x3da48149	0.08032472
208	0xbdb1de14	-0.08684936
209	0x3c071920	0.008245736
210	0x3da66d69	0.08126337
211	0xbd4c49c8	-0.04987505
212	0xbd48178b	-0.048850577
213	0x3db1cf6d	0.086821415
214	0xbdb411b2	-0.087924376
215	0x3d6c2086	0.057648204
216	0xbab55600	-0.0013834834
217	0x3cfea7a0	0.03108579
218	0x3d9e3eb1	0.07726801
219	0xbc4b9008	-0.012424476
220	0x3d2890a2	0.041153558
221	0x3d01e4c4	0.03171231
222	0x3db1c271	0.08679665
223	0xbd356414	-0.044284895
224	0x3ce19f10	0.027541667
225	0xbd92ebfe	-0.07173918
226	0x3d8769d1	0.0661198
227	0xbd8cfebf	-0.068845265
228	0xbd9f8c7a	-0.07790466
229	0xbd8521d6	-0.06500594
230	0x3c765bc8	0.015036531
231	0x3d673a8e	0.056452326
232	0x3d7594e2	0.05995644
233	0xbd994733	-0.07484283
234	0xbd22044f	-0.03955489
235	0x3c2dc8e0	0.010606974
236	0x3da1337d	0.07871149
237	0xbd71daf2	-0.059046693
238	0xbc0f0138	-0.008728318
239	0x3d909c2b	0.07061037
240	0xbd1d9780	-0.03847456
241	0xbd0e410a	-0.034729995
242	0x3c2b81b0	0.010467932
243	0x3d87602f	0.066101424
244	0xbcff1e5e	-0.03114241
245	0xbd87976a	-0.06620677
246	0xbd586e25	-0.052839417
247	0xbda33fa7	-0.07971125
248	0xbbc33ca0	-0.005958155
249	0x3d663a1e	0.05620777
250	0x3cc440bc	0.023956649
251	0xbd7611f7	-0.060075726
252	0xbd2e8597	-0.04260787
253	0x3cb93750	0.022609383
254	0x3d51b262	0.05119551
255	0xbdb2b4e1	-0.08725906

shared_layers.2.bias f4 [128]
0	0xbd5f81da	-0.054567195
1	0xbcb79a90	-0.022412568
2	0x3da0ba6f	0.078480594
3	0xbbdf16b0	-0.0068081245
4	0x3b0ee300	0.0021802783
5	0xbc450848	-0.0120259
6	0xbd9fc86b	-0.078018986
7	0xbcc672c0	-0.024224639
8	0xbd14ce07	-0.036329295
9	0x3da76cf7	0.0817508
10	0x3c01a1b8	0.007912092
11	0x3d1a09ba	0.037606932
12	0xbd9e980c	-0.077438444
13	0x3d5c768a	0.053823985
14	0xbda6a1c6	-0.081363246
15	0x3cdf4090	0.027252465
16	0x3d6c2912	0.057656355
17	0xbdb18cf3	-0.08669462
18	0x3cd642d8	0.02615492
19	0xbcc811e8	-0.0244226
20	0xbd5121d1	-0.05105764
21	0xbc447500	-0.011990786
22	0x3da9cfb7	0.082915716
23	0x3bd920f0	0.006626241
24	0xbd6836b8	-0.05669281
25	0x3cdf4838	0.027256116
26	0xbc624b48	-0.013811894
27	0x3c9ac910	0.018894702
28	0xbd25643a	-0.040378787
29	0x3d65a606	0.056066535
30	0x3d93c97d	0.07216165
31	0xbd6f5120	-0.058426976
32	0x3d09a7f8	0.033607453
33	0x3c74c688	0.014939912
34	0x3cb68bfc	0.022283547
35	0xbd12d84b	-0.035850804
36	0xbcaba498	-0.020952508
37	0x3c304d88	0.010760672
38	0x3d52c7f6	0.05146023
39	0xbd9e10a6	-0.07718019
40	0x3d340a46	0.04395511
41	0xbd1460d6	-0.036225162
42	0xbd3dda9c	-0.04635106
43	0x3da4b8e5	0.08043078
44	0xbd99abbe	-0.0750346
45	0xbcd1e038	-0.025619611
46	0xbd124a60	-0.03571546
47	0xbc15f910	-0.009153619
48	0xbd074e1c	-0.033033475
49	0x3c213408	0.009839065
50	0x3dadf111	0.084932454
51	0xbb6aba40	-0.003581658
52	0xbd29543b	-0.041340094
53	0x3c8210b0	0.015877098
54	0xbcddfba6	-0.027097534
55	0xbcd32aa4	-0.025777169
56	0x3c29fce8	0.010375239
57	0xbd8e2cc2	-0.069421306
58	0x3c09fd08	0.008422144
59	0x3da0b44d	0.0784689
60	0xbc67e670	-0.014154062
61	0x3c765078	0.015033834
62	0xbd918ad8	-0.071065605
63	0xbdaa19af	-0.0830568
64	0xbccd9d68	-0.025099471
65	0x3d35faee	0.04442876
66	0xbca8519c	-0.020546727
67	0xbd1d1168	-0.038346678
68	0x3da28c93	0.07936969
69	0xbd2c90dc	-0.042130336
70	0x3d9ffb7d	0.078116395
71	0xbdae2abc	-0.08504245
72	0xbcd3db04	-0.02586127
73	0x3d72d27e	0.059282772
74	0x3d833cdf	0.064080946
75	0xbc9b65b0	-0.018969387
76	0x3d7dc08e	0.061951213
77	0x3d15fde2	0.036619075
78	0xbda9bdad	-0.08288131
79	0x3dad5f5b	0.08465453
80	0xbd1b79e7	-0.037958052
81	0x3d088120	0.03332627
82	0x3b99f1e0	0.004698023
83	0x3cf082b4	0.0293592
84	0x3be3c1e0	0.006950602
85	0xbdafa031	-0.08575476
86	0x3d8d7663	0.06907346
87	0xbbbdb1b0	-0.0057890043
88	0xbd119b93	-0.035548758
89	0x3d9a64a1	0.07538725
90	0x3d0ef50e	0.03490167
91	0xbd718918	-0.058968633
92	0xbce200d8	-0.027588293
93	0xbd2423c1	-0.04007316
94	0xbd296019	-0.04135141
95	0x3d9f715f	0.07785296
96	0xbcf7bc08	-0.030241027
97	0x3d98a1f9	0.07452769
98	0xbd1f469b	-0.038885694
99	0xbc121138	-0.008915238
100	0xbca3ab1c	-0.019979052
101	0x3bf5f7b0	0.0075063333
102	0xba114d80	-0.00055428594
103	0x3da11e3b	0.07867094
104	0x3cc9e3f4	0.02464483
105	0xbd8734b6	-0.06601851
106	0xbbb44f50	-0.005502619
107	0xbd90d863	-0.070725225
108	0xbce49828	-0.027904585
109	0x3d8d81e9	0.06909544
110	0xbdafe135	-0.08587877
111	0x3dadd3d9	0.08487672
112	0xbd8d5395	-0.06900708
113	0x3c9f5958	0.019451782
114	0x3c350188	0.011047728
115	0x3cfa75b4	0.030573703
116	0x3c0a0890	0.008424893
117	0xbd5d6a52	-0.054056473
118	0xbd75ac4f	-0.05997878
119	0x3d864d17	0.065576725
120	0x3ba2ad40	0.0049645007
121	0x3d411f0e	0.047148757
122	0xbc9141b4	-0.017731525
123	0x3db46971	0.08809174
124	0x3d9ee391	0.077582486
125	0x3d2cf8c2	0.04222942
126	0xbdb2035d	-0.08692048
127	0xbd8d83e4	-0.06909922

actor_head1.weight f4 [33, 128]
0	0x3ce10b68	0.02747126
1	0x3d18c20a	0.037294425
2	0xbd77189a	-0.060326196
3	0x3d97c8b7	0.0741133
4	0x3db431af	0.08798539
5	0x3c4a46a8	0.012345947
6	0x3c3831e8	0.011242367
7	0x3d36cf56	0.044631325
8	0xbd4f08f2	-0.05054564
9	0x3da24c93	0.079247616
10	0xbd10164d	-0.035177518
11	0xbd650ad1	-0.05591852
12	0x3d6c7ce2	0.057736285
13	0x3d8483c1	0.064704426
14	0x3bf01180	0.007326305
15	0x3bc72170	0.006076984
16	0x3c9cdb84	0.019147642
17	0xbcd532e0	-0.026025236
18	0xbd8024a4	-0.06256989
19	0xbd870542	-0.065928
20	0xbd1b519e	-0.037919633
21	0xbd946210	-0.072452664
22	0xbd8c28d3	-0.06843724
23	0xbc7ccf10	-0.015430227
24	0xbd91dff6	-0.07122795
25	0xbd96a29f	-0.07355236
26	0xbccb23d0	-0.02479735
27	0x3d97816f	0.073977344
28	0x3c96b9cc	0.018399142
29	0x3cea3e7c	0.028594248
30	0xbcd11af0	-0.02552554
31	0xbce5f50c	-0.028070949
32	0xbd360e78	-0.044447392
33	0x3d89ab1f	0.06722092
34	0xbb5f3c80	-0.003406316
35	0xbd112454	-0.035435036
36	0x3d8d538d	0.06900702
37	0x3cd12b0c	0.025533222
38	0x3c950720	0.018191874
39	0x3c7d1560	0.015446991
40	0x3d8ff1ed	0.070285656
41	0x3d58e9a2	0.052957185
42	0x3d5080de	0.050904147
43	0xbd42dc7b	-0.047573548
44	0xbcd08eb8	-0.025458679
45	0x3cb7eba0	0.022451222
46	0xbbab26d0	-0.0052231327
47	0xbd275b2e	-0.04085844
48	0xbd91520c	-0.07095727
49	0xbc689a60	-0.014196962
50	0xbd3a2612	-0.045446463
51	0xbcaa1448	-0.020761624
52	0xbc996bf0	-0.018728226
53	0x3d0eec90	0.034893572
54	0x3c470cd0	0.012149051
55	0xbd3e69aa	-0.046487488
56	0xbd030555	-0.031987507
57	0x3d85ebb3	0.06539097
58	0xbd96b64b	-0.073589884
59	0xbd656327	-0.056002762
60	0xbce11bae	-0.027479019
61	0x3bafd1f0	0.0053656027
62	0xbd78d96d	-0.06075423
63	0xbd5b4f5c	-0.05354248
64	0x3d7009a6	0.05860295
65	0x3b8610d0	0.0040913597
66	0xbd45211e	-0.048127286
67	0x3cfa8dac	0.030585133
68	0xbda71d49	-0.081598826
69	0xbd8687d1	-0.06568874
70	0xbd35fdb8	-0.04443142
71	0xbcbd1174	-0.023079611
72	0x3c976e08	0.018485084
73	0xbd59741b	-0.053089242
74	0x3d87da4f	0.06633436
75	0x3d5ba5a6	0.05362477
76	0x3c8c00c0	0.017090201
77	0x3d821c95	0.06353108
78	0x3d0d2d1a	0.03446684
79	0x3d578c62	0.052624114
80	0x3b82b710	0.003989108
81	0xbd8cfc96	-0.068841144
82	0x3d3a854a	0.04553727
83	0xbd6d6300	-0.057955742
84	0x3d3abc6e	0.045589857
85	0x3cb5eb5c	0.022206955
86	0x3d5af782	0.053458698
87	0xbca5130c	-0.020150684
88	0xbc975b70	-0.018476218
89	0xbd42f116	-0.0475932
90	0xbd98b988	-0.07457262
91	0xbcde9ec0	-0.027175307
92	0xbc8d943c	-0.017282598
93	0x3d272512	0.040806837
94	0xbdaf6a90	-0.08565247
95	0xbc9b6fc4	-0.018974192
96	0x3c62c780	0.01384151
97	0xbcd0c60c	-0.025485061
98	0x3ccd1c24	0.025037833
99	0x3bfdd5e0	0.007746443
100	0xbd942416	-0.07233445
101	0xbd9eff98	-0.077635944
102	0x3b883f00	0.004157901
103	0xbbd94150	-0.0066301003
104	0x3d13d526	0.036091946
105	0xbcff0da4	-0.031134434
106	0x3d588fbe	0.05287146
107	0xbd0442cb	-0.03229026
108	0xbd85a25b	-0.065251075
109	0xbcfc3300	-0.030786037
110	0x3d807c4d	0.062737085
111	0xbc447468	-0.011990644
112	0xbdafe45e	-0.085884795
113	0xbc9be188	-0.01902844
114	0x3d33a676	0.04385992
115	0x3d83d7eb	0.064376675
116	0x3c8deac0	0.017323852
117	0x3d5de296	0.054171167
118	0x3c9cd684	0.019145258
119	0xbd2aa615	-0.041662294
120	0xbca81ba4	-0.020520993
121	0x3db46ead	0.08810172
122	0xbd535f4a	-0.051604547
123	0xbd3737a1	-0.044730786
124	0xbd97fd78	-0.07421392
125	0x3d393d5a	0.045224525
126	0x3a094f80	0.00052379817
127	0xbbab9a40	-0.005236894
128	0xbd29bcc8	-0.0414398
129	0xbc3c4de8	-0.011493184
130	0xbcdc1952	-0.026867542
131	0xbd1cf396	-0.03831824
132	0xbd9fae69	-0.07796938
133	0xbcae947c	-0.021311037
134	0xbca862dc	-0.020554952
135	0xbdac50c2	-0.08413841
136	0xbca9f7bc	-0.020748012
137	0xbc4fcb90	-0.01268281
138	0xbbb5be60	-0.005546376
139	0xbd1e572c	-0.038657352
140	0xbd7d1eb4	-0.06179686
141	0xbdad84fc	-0.084726304
142	0xbc9e8290	-0.019349366
143	0x3c7c1000	0.015384674
144	0x3d2a1066	0.041519545
145	0x3c905200	0.017617226
146	0xbc157968	-0.009123184
147	0xbd487a49	-0.048944745
148	0xbcc440bc	-0.023956649
149	0x3d37945e	0.04481923
150	0x3d868755	0.06568781
151	0x3d0333b2	0.032031722
152	0xbb438ea0	-0.002983965
153	0xbca08524	-0.019594736
154	0x3d382432	0.044956394
155	0x3c1f1e78	0.009711854
156	0xbda9e848	-0.08296257
157	0xbc4902e8	-0.012268759
158	0x3c9cc520	0.019136965
159	0x3d7db166	0.06193676
160	0xbbc22f90	-0.00592608
161	0xbd0170ae	-0.0316016
162	0x3d9c2097	0.076234035
163	0x3d604856	0.054756485
164	0xbba1e5a0	-0.0049407035
165	0x3c0843c0	0.008316934
166	0x3d0e4796	0.03473624
167	0x3da03f83	0.07824614
168	0x3cf37a84	0.029721506
169	0xbcc759e8	-0.024334863
170	0xbda6d8c9	-0.08146817
171	0xbac5e0c0	-0.0015096888
172	0xbca06fe8	-0.019584611
173	0x3d83267d	0.064038254
174	0x3da01119	0.07815761
175	0x3c8e2fe4	0.01735682
176	0x3d2eeb82	0.042705067
177	0x3d8c623d	0.06854675
178	0x3d6e79de	0.05822169
179	0xbd5385f9	-0.05164144
180	0x3cbed000	0.023292542
181	0x3c1d3258	0.009594522
182	0xbd6a1558	-0.05714926
183	0x3caabbf8	0.020841584
184	0xbda3cbf2	-0.07997884
185	0x3d85aca5	0.0652707
186	0xbc6c7420	-0.014431983
187	0xbd69f041	-0.05711389
188	0xbda1e16e	-0.079043254
189	0xbc9e9cd4	-0.01936189
190	0xbd464d87	-0.04841378
191	0x3d079ca4	0.03310837
192	0xbd674ddc	-0.056470737
193	0xbc608498	-0.013703488
194	0x3c9db9b4	0.01925359
195	0x3db2b919	0.08726711
196	0x3d314f2a	0.043288387
197	0xbce260dc	-0.027634077
198	0x3d90cde7	0.07070523
199	0x3d07a178	0.033112973
200	0x3c8a03e0	0.01684755
201	0xbc663db8	-0.014052801
202	0xbd86b334	-0.06577149
203	0xbc8e7e68	-0.01739426
204	0xbb0f0580	-0.0021823347
205	0x3caf93cc	0.02143278
206	0xbac8bcc0	-0.0015315041
207	0xbdaf3d9e	-0.085566744
208	0x3d47a052	0.048736878
209	0x3d0eedfa	0.03489492
210	0xbcfe2a32	-0.03102598
211	0x3c3d3ff0	0.011550888
212	0x3bb05ee0	0.0053824037
213	0x3db3bc43	0.087761424
214	0x3d532bf6	0.051555596
215	0xbcf24214	-0.029572524
216	0xbda76342	-0.08173229
217	0xbd8f41da	-0.06994982
218	0xbd8dfaca	-0.069326
219	0xbbdbd550	-0.0067087784
220	0xbd3b8881	-0.045784477
221	0xbd51d4d0	-0.051228344
222	0x39eff800	0.00045770407
223	0x3c9546c4	0.01822222
224	0x3c9785f4	0.018496491
225	0x3be368e0	0.0069399923
226	0x3bd913a0	0.006624654
227	0x3c36e300	0.011162519
228	0xbd0dd389	-0.034625564
229	0xbd1916b2	-0.03737516
230	0xbc10ca10	-0.008837238
231	0x3d60737a	0.054797627
232	0x3d767056	0.060165726
233	0x3db4edc3	0.08834412
234	0x3da63f69	0.08117563
235	0xbd323f6f	-0.043517526
236	0x3da4e86d	0.08052144
237	0xbd935739	-0.07194371
238	0x3d867a83	0.06566336
239	0x3d1fea5e	0.03904187
240	0xbd912f60	-0.07089114
241	0x3dab227d	0.083561875
242	0xbd9f1265	-0.0776718
243	0xbcab919c	-0.020943455
244	0xbd29e081	-0.04147387
245	0x3cb590fc	0.02216386
246	0xbd6593f9	-0.05604932
247	0x3d95c1eb	0.073123775
248	0xbda74a26	-0.081684396
249	0xbd236015	-0.039886553
250	0xbc2ebfd0	-0.010665849
251	0x3d245d7a	0.04012821
252	0xbcde04fa	-0.027101982
253	0xbd9a35a2	-0.07529761
254	0xbda3a538	-0.07990497
255	0xbc825824	-0.01591117

actor_head1.bias f4 [33]
0	0x3af23700	0.0018479526
1	0xbcee77b6	-0.029109817
2	0x3ca0d5b4	0.019633152
3	0xbd36a123	-0.044587266
4	0xbbf17950	-0.007369198
5	0xbc96b0ec	-0.01839491
6	0xbd9c0ba0	-0.07619405
7	0x3c274090	0.010208264
8	0x3d903233	0.07040825
9	0xbb4f8060	-0.003166221
10	0x3d363f22	0.044493802
11	0xbdaff2d7	-0.0859124
12	0x3c69c298	0.014267586
13	0xbca03854	-0.01955811
14	0xbd457c36	-0.04821416
15	0xbd3980a1	-0.045288686
16	0x3daa7b6d	0.08324323
17	0xbda901c8	-0.08252293
18	0x3ce9c8ec	0.02853819
19	0x3d498e66	0.049208067
20	0x3cbb7350	0.022882134
21	0xbb51e940	-0.0032029897
22	0x3d44315e	0.047898643
23	0x3d17e57a	0.03708408
24	0xbdaa903f	-0.08328294
25	0x3d509372	0.050921865
26	0xbd9e081d	-0.07716391
27	0x3c386730	0.011255071
28	0xbcfbc6d0	-0.03073445
29	0xbb66dae0	-0.0035225675
30	0x3cdc88c8	0.026920691
31	0xbd8eef6c	-0.0697926
32	0x3db09c69	0.08623583

actor_head2.weight f4 [33, 128]
0	0xbd4ca590	-0.04996258
1	0xbd21e0f4	-0.039521173
2	0xbd8c2104	-0.06842235
3	0xbcdf0d7a	-0.027228106
4	0x3db3a029	0.087707825
5	0xbcebe3ac	-0.028795086
6	0xbd39bda9	-0.04534689
7	0x3be3a680	0.0069473386
8	0xbd664093	-0.056213927
9	0x3d784452	0.06061203
10	0xbbd7fbc0	-0.0065912902
11	0x3d0bcf62	0.034133323
12	0x3b92f040	0.0044842064
13	0xbd53bdbc	-0.051694617
14	0xbd39787f	-0.04528093
15	0xbc660150	-0.014038399
16	0x3c131d70	0.008979186
17	0xbd2886ed	-0.0411443
18	0xba94d9c0	-0.0011356398
19	0x3b778020	0.0037765577
20	0x3d898de9	0.0671652
21	0xbdb12b14	-0.086507946
22	0x3d71736e	0.058947973
23	0xbd184c55	-0.03718217
24	0x3d35fe42	0.044431932
25	0xbd7c30e2	-0.061570056
26	0xbcf93666	-0.030421447
27	0x3d9d6391	0.076850064
28	0xbcce75f0	-0.025202721
29	0x3cbc2d48	0.02297081
30	0xbd7ba9bc	-0.06144117
31	0x3bf21670	0.0073879287
32	0xbcc489d8	-0.02399151
33	0x3d839259	0.06424398
34	0xbd861fbe	-0.06549023
35	0xba3d2a00	-0.00072160363
36	0xbbca53c0	-0.0061745346
37	0xbcda1000	-0.026618958
38	0x3d805473	0.062661074
39	0xbc96af7c	-0.018394224
40	0xbd2e4dcc	-0.04255466
41	0x3bdc7fe0	0.006729111
42	0xbdb3a3c0	-0.08771467
43	0x3d23c6ba	0.039984442
44	0xbceec2fe	-0.029145714
45	0x3d57ef32	0.05271835
46	0xbcd5e0d2	-0.02610818
47	0xbd25b3cf	-0.040454682
48	0x3ccd9c54	0.025098957
49	0xbd943af8	-0.0723781
50	0x3d31c1ce	0.043397717
51	0xbd923cb6	-0.07140486
52	0x3da7ee85	0.08199791
53	0x3db41989	0.08793933
54	0xbc1e5068	-0.009662725
55	0xbdb0dbd0	-0.08635676
56	0x3d94e03f	0.07269334
57	0x3bf778b0	0.007552229
58	0xbc326908	-0.010889299
59	0xbdb02e9f	-0.08602642
60	0x3b221060	0.0024728999
61	0xbd6a6c35	-0.0572321
62	0xbdb24324	-0.08704212
63	0xbcc4b210	-0.024010688
64	0xbbb1ebd0	-0.0054297224
65	0xbdb26ea4	-0.08712509
66	0x3d24813a	0.040162303
67	0xbda2252c	-0.07917246
68	0xbcc72944	-0.02431167
69	0xbd5ee6e3	-0.05441941
70	0x3c83e8ac	0.016102158
71	0xbd308d9a	-0.04310379
72	0xbb60e2c0	-0.003431484
73	0xbd556e16	-0.05210694
74	0x3c7aea58	0.015314661
75	0x3d127168	0.035752684
76	0xbd921d70	-0.07134521
77	0x3bb9f8b0	0.005675398
78	0x3c179120	0.009250909
79	0x3d9e1b05	0.07719997
80	0x3dab628d	0.083684064
81	0x3d8ca71b	0.0686781
82	0x3ca51da8	0.020155743
83	0xbc2721c8	-0.010200925
84	0xbdaf9516	-0.08573358
85	0x3c432f08	0.011913069
86	0xbd0a9be6	-0.033840083
87	0xbc281758	-0.010259472
88	0x3dae0185	0.084963836
89	0x3c8cc42c	0.017183386
90	0xbd11bfed	-0.035583425
91	0xbb5e6700	-0.0033935905
92	0xbd99519e	-0.0748627
93	0x3d9df045	0.077118434
94	0x3d582e2e	0.052778415
95	0x3d659a32	0.056055255
96	0xbd31a6e9	-0.04337207
97	0x3cb64fa8	0.02225478
98	0x3d757446	0.05992534
99	0xbdae4a0c	-0.08510217
100	0x3db43027	0.08798247
101	0x3d6dd63e	0.058065645
102	0x3c3a3ec8	0.011367507
103	0xbca78104	-0.020447262
104	0xbcc28518	-0.023745105
105	0xbd9b8aeb	-0.07594856
106	0xbc3f60e8	-0.011680819
107	0xbc5e4230	-0.013565585
108	0xbd7e5cd8	-0.06210026
109	0xbd0aa813	-0.033851694
110	0x3da4003f	0.080078594
111	0x3b45aa00	0.0030161142
112	0xbca4c0c8	-0.020111457
113	0x3d4fbfce	0.05072003
114	0xbda9f310	-0.082983136
115	0x3af61ac0	0.0018776283
116	0x3c21a178	0.009865157
117	0x3d43e3a6	0.047824524
118	0x3c5accd0	0.013354495
119	0xbce1674c	-0.027515076
120	0xbd86fdd6	-0.06591384
121	0xbdab1764	-0.08354071
122	0x3da5a7ff	0.08088683
123	0x3d92fdaf	0.071772926
124	0x3d6b75ee	0.057485513
125	0xbc9cc388	-0.019136205
126	0xbc36a348	-0.011147328
127	0xbcc4f46c	-0.02404233
128	0xbc881210	-0.016610175
129	0x3d26d352	0.040728875
130	0xbbb54560	-0.005531952
131	0xbdaaea01	-0.08345414
132	0x3c7759a0	0.015097052
133	0xbd501c13	-0.050808024
134	0xbdb2c88c	-0.087296575
135	0x3d7f2002	0.062286384
136	0xbcf9f722	-0.03051335
137	0x3cdb0064	0.026733585
138	0xbd1fc081	-0.039001945
139	0xbd85a464	-0.06525496
140	0xbc5181f8	-0.012787335
141	0xbd582dcd	-0.052778054
142	0xbd852907	-0.06501966
143	0xbcc94e78	-0.02457355
144	0x3d808a4f	0.0627638
145	0xbd9f877d	-0.07789514
146	0x3c46fbf0	0.0121450275
147	0xbdafcbe5	-0.08583812
148	0x3ca72614	0.0204039
149	0x3d275de6	0.040861033
150	0xbd493501	-0.049122814
151	0x3c835654	0.016032375
152	0xbc4bd170	-0.0124400705
153	0x3cfbd0c8	0.030739203
154	0xbd2564b4	-0.04037924
155	0xbd23dd8d	-0.04000621
156	0xbd61ef01	-0.055159573
157	0x3a77af00	0.0009448379
158	0x3c4cde80	0.01250422
159	0x3d2b0086	0.041748546
160	0x3d071712	0.032980986
161	0x3d70a616	0.058752142
162	0x3c8de61c	0.017321639
163	0x3d8c67e7	0.06855755
164	0x3da6c1bb	0.0814242
165	0xbcc1de54	-0.023665585
166	0xbc40f8e0	-0.011778086
167	0x3d108796	0.035285555
168	0xbc72d9f8	-0.014822476
169	0xbd906e18	-0.07052249
170	0x3d2c9fce	0.04214459
171	0x3d88f6c5	0.066876926
172	0xb9d94600	-0.0004144162
173	0x3b75ebe0	0.0037524626
174	0x3c962270	0.018326968
175	0x3d751ba6	0.05984082
176	0xbd272938	-0.040810794
177	0xbd34d023	-0.044143807
178	0xbd7f9a28	-0.062402874
179	0xbc4654e0	-0.012105197
180	0x3ce00744	0.027347215
181	0x3d782132	0.060578533
182	0x3d93d845	0.072189845
183	0xbc1ac0e8	-0.0094454065
184	0xbd8464e7	-0.06464558
185	0x3cddfb58	0.02709739
186	0x3d4604c6	0.048344396
187	0xbd161270	-0.036638677
188	0x3cab3068	0.020897105
189	0x3d9654e9	0.07340414
190	0xbd324928	-0.0435268
191	0x3d4b1ad6	0.04958614
192	0x3da4a635	0.08039514
193	0xbc1cbb50	-0.009566143
194	0xbd9cfbc0	-0.07665205
195	0xbb405ca0	-0.0029352084
196	0xbd31b0e0	-0.04338157
197	0x3c0b0618	0.00848534
198	0xbd94384b	-0.072372995
199	0xbd3ae23f	-0.04562592
200	0x3b263b80	0.0025365055
201	0x3d0431fa	0.032274224
202	0xbd8aa4b9	-0.067696996
203	0x3d97eaf9	0.07417864
204	0x3cf5cd70	0.030005187
205	0xbd2ad630	-0.04170817
206	0x3d63a13e	0.055573694
207	0x3c485260	0.012226671
208	0x3c8517e4	0.016246744
209	0xbce84452	-0.02835289
210	0xbcba9204	-0.022774704
211	0xbcb54068	-0.022125438
212	0x3cf524c0	0.02992475
213	0x3db41b73	0.08794298
214	0x3d4cef42	0.05003286
215	0xbd985001	-0.074371345
216	0xbc908e64	-0.017646022
217	0xbd13bac7	-0.036066797
218	0xbd869be3	-0.06572702
219	0x3d9fa071	0.07794274
220	0xbd87acf5	-0.06624786
221	0xbd463853	-0.04839356
222	0xbc86c028	-0.01644905
223	0x3da89f33	0.0823349
224	0xbc8fe658	-0.017565891
225	0xbd1a288f	-0.037636336
226	0xbd96cdcf	-0.073634736
227	0x3bb2c130	0.0054551587
228	0x3d1f2e1e	0.03886234
229	0xbd545ce0	-0.051846385
230	0xbc0d6ad8	-0.008631431
231	0xbd98460e	-0.07435237
232	0x3d64b13e	0.055833094
233	0x3d7a8716	0.061163984
234	0x3bcbbdd0	0.006217696
235	0x3d2e5bd2	0.042568035
236	0xbd65e230	-0.056123912
237	0x3db0dd4d	0.0863596
238	0xbc86c598	-0.016451642
239	0x3d3b6dbe	0.045758955
240	0xbd68d14a	-0.05684022
241	0xbd60dcb6	-0.054897986
242	0x3d4a811e	0.049439542
243	0x3a033000	0.0005004406
244	0x3d03ee9a	0.03220997
245	0xbc505a20	-0.0127168
246	0xbb89cda0	-0.0042054206
247	0xbd4f1c07	-0.05056384
248	0x3c35be58	0.011092745
249	0x3c217640	0.009854853
250	0x3d998275	0.07495586
251	0x3c061ff8	0.008186333
252	0x3c0a1298	0.008427285
253	0x3d277ece	0.040892415
254	0x3da1a3a5	0.07892541
255	0x3d739882	0.059471615

actor_head2.bias f4 [33]
0	0xbd3cd539	-0.046101782
1	0xbb8ca970	-0.0042926595
2	0xbd97ef9a	-0.07418747
3	0xbd20999b	-0.03920899
4	0xbd1116f3	-0.035422277
5	0xbd0c4c9b	-0.034252744
6	0x3d05d128	0.03267017
7	0x3d643782	0.055717
8	0x3d26cf4a	0.04072503
9	0xbd794ea1	-0.060866002
10	0x3db0daaf	0.086354606
11	0xbd43b089	-0.04777578
12	0x3d343bca	0.04400233
13	0x3cb7b848	0.02242674
14	0xbc046c98	-0.008082531
15	0xbda0889a	-0.07838555
16	0x3c421f58	0.011848293
17	0xbc4a8058	-0.012359701
18	0xbd269cb1	-0.040676776
19	0xbd44fda7	-0.048093464
20	0x3c7e2e88	0.015514024
21	0x3d6b996a	0.057519354
22	0x3d5a61aa	0.053315796
23	0x3cb596c0	0.02216661
24	0x3d94f5f1	0.07273472
25	0xbbce33a0	-0.0062927753
26	0xbcf03146	-0.02932037
27	0x3d33cd0a	0.043896712
28	0x3d818ab1	0.063252814
29	0xbd0a76bb	-0.033804636
30	0xbd8d3f46	-0.06896834
31	0xbc7f4da0	-0.015582472
32	0x3caaaf84	0.020835645

critic_head.weight f4 [1, 128]
0	0xbd8b7126	-0.06808691
1	0xbce4cd2a	-0.027929861
2	0x3d908399	0.0705635
3	0xbda9b431	-0.08286322
4	0xbd9b2dea	-0.07577117
5	0x3d8fc5af	0.07020127
6	0x3b960d80	0.004579246
7	0x3b9ec3a0	0.0048450977
8	0x3d06a7de	0.032874934
9	0x3c6ade70	0.01433526
10	0xbccbff58	-0.02490203
11	0xbce727d2	-0.02821723
12	0x3d9cd1a3	0.076571725
13	0xbd999fe0	-0.07501197
14	0x3baa7460	0.0052018613
15	0x3d572362	0.052523978
16	0x3c8d0bc0	0.017217517
17	0x3c8f6084	0.017502077
18	0xbd05690f	-0.032570895
19	0xbc684940	-0.01417762
20	0xbd89d384	-0.067297965
21	0xbdb1c15f	-0.08679461
22	0xbacc8cc0	-0.0015605912
23	0x3ce48f4c	0.02790036
24	0x3c7787c8	0.015108056
25	0x3d4c3ed6	0.049864613
26	0xbd91afca	-0.07113607
27	0x3d7bd8e2	0.061486132
28	0x3cc1794c	0.02361741
29	0x3b894020	0.0041885525
30	0xbd8b0e79	-0.0678987
31	0x3d752cca	0.059857167
32	0xbd38c427	-0.04510894
33	0xbd3157c2	-0.043296583
34	0x3d8293d7	0.063758545
35	0xbcd97634	-0.026545621
36	0xbcf9f672	-0.030513022
37	0xbbd63710	-0.0065373257
38	0x3b0e2ac0	0.0021692961
39	0xbd6720a9	-0.05642763
40	0x3db05757	0.08610409
41	0x3cc65640	0.02421105
42	0xbdab01dc	-0.08349964
43	0xbc19ea08	-0.009394176
44	0xbd15d8f9	-0.036583874
45	0xbda89d22	-0.08233096
46	0xbd401147	-0.046891477
47	0xbc98ddd0	-0.018660456
48	0x3d6d3e8a	0.05792097
49	0xbc9db1e0	-0.019249856
50	0x3cd69cb8	0.026197776
51	0xbd85dc64	-0.06536177
52	0x3d9cb697	0.07652014
53	0xbce4c0e8	-0.027924016
54	0xbb9721a0	-0.0046121627
55	0xbd94389a	-0.072373584
56	0xbd995340	-0.07486582
57	0x3d2e0a3a	0.04249022
58	0x3d4e7d02	0.050412185
59	0x3c1db4d8	0.009625636
60	0x3c05c7a0	0.00816527
61	0xbd84f78d	-0.06492529
62	0xbd020d02	-0.031750686
63	0xbca8f350	-0.020623833
64	0x3c90f9c4	0.017697223
65	0xbd829744	-0.06376508
66	0x3a795280	0.00095108896
67	0xbc1d2a80	-0.009592652
68	0xbd85562a	-0.06510575
69	0x3cb7a2c0	0.022416472
70	0xbd18ba2d	-0.037286926
71	0x3d879d53	0.06621804
72	0x3db0550f	0.08609974
73	0xbc251fb0	-0.010078356
74	0x3dafb349	0.08579118
75	0xbd7b74ca	-0.061390676
76	0xbca09b18	-0.019605204
77	0xbcfcb27a	-0.030846823
78	0x3bf24010	0.0073928908
79	0x3cb5b520	0.022181094
80	0x3d283c86	0.041073345
81	0x3d1547c6	0.0364454
82	0xbd5c1447	-0.053730275
83	0xbcd4939a	-0.025949288
84	0xbd68a59a	-0.056798555
85	0xbb853b50	-0.0040659085
86	0xbd693cb1	-0.056942645
87	0xbd24678f	-0.040137824
88	0xbda82e85	-0.08211998
89	0xbcc0a6cc	-0.023517035
90	0x3c948a80	0.018132448
91	0xbdac8f2a	-0.08425744
92	0x3c3c5ea8	0.011497177
93	0xbda9e34e	-0.08295308
94	0xbd46d898	-0.048546404
95	0xbd8ed9a1	-0.06975103
96	0xbcdccf4a	-0.026954312
97	0x3cc472f0	0.023980588
98	0x3cab7a4c	0.02093234
99	0x3c42a978	0.011881225
100	0x3d7b3646	0.061331056
101	0x3ba17820	0.00492765
102	0x3d9768f7	0.07393067
103	0x3d4c77a6	0.049918793
104	0x3d50650e	0.050877623
105	0xbd61909b	-0.055069547
106	0xbd477557	-0.04869589
107	0xbc22f9b0	-0.009947225
108	0x3c9f67bc	0.019458644
109	0x3a8466c0	0.0010101423
110	0xbd64d939	-0.055871222
111	0xbd943130	-0.07235944
112	0x3d68544a	0.05672101
113	0xbd887557	-0.06663006
114	0x3da7e40d	0.08197794
115	0xbbe2d970	-0.006922893
116	0x3da2dc7d	0.07952211
117	0xbd2ebac2	-0.042658575
118	0xbb0deb60	-0.0021655187
119	0x3d1eb396	0.038745485
120	0xbc77b668	-0.015119173
121	0x3d116cda	0.0355042
122	0x3b672800	0.0035271645
123	0xbcca5b0c	-0.024701618
124	0xbcafb518	-0.021448657
125	0x3d741606	0.059591316
126	0xbd25e8cf	-0.040505227
127	0xbd9393e8	-0.07205945
