models/ppo_gear_placer_final.pt (torch, 101052 bytes, 9 tensors)

shared_layers.0.weight f4 [128, 6]
000000 e8 03 09 3e bc 96 64 3e 02 45 81 3e aa 00 b7 3e
       0.13380396 0.22323126 0.2524796 0.35742694
000010 46 1b 84 3e ae cf 02 be 7a 3b 86 3d 2f 93 3d 3e
       0.25802058 -0.12774536 0.06554313 0.18513177
000020 39 11 c4 3d 44 4b 20 be b4 58 7b be c8 cc 02 3d
       0.095735975 -0.15653712 -0.24545556 0.031933576
000030 09 57 7a be dc bc ae 3d 68 b1 a4 3e 7c 1e a5 be
       -0.24447264 0.08532116 0.321666 -0.3224982
000040 4e 8c b2 3e e7 47 a4 be 03 40 2b 3e 35 fe 7f 3e
       0.3487267 -0.32086107 0.16723637 0.24999316
000050 69 4f 3c bd d3 43 18 be 4b 29 82 3c 74 28 32 be
       -0.04597417 -0.14869623 0.01588883 -0.17398244
000060 82 bf 8a be 80 65 08 be 2d 91 89 be 07 77 b2 3d
       -0.27099234 -0.13319969 -0.26868573 0.08714109
000070 24 62 24 3e 64 85 9c 3e d9 9d b0 3e d0 52 05 be
       0.16053063 0.3057052 0.34495428 -0.13019872
000080 ef a7 b5 3e 0f 6e 33 bc 00 a3 08 be 32 d6 2b be
       0.35479686 -0.010951533 -0.1334343 -0.16780928
000090 c0 ac bc be a0 b8 2a bc 62 b3 fe 3d 84 44 9a 3e
       -0.36850548 -0.010419995 0.12436558 0.30130398
0000a0 cc ce 47 be d8 da cb 3e aa 25 29 3e c6 52 8f 3d
       -0.1951248 0.39815402 0.16518274 0.0699821
0000b0 de 59 97 3e c4 b8 99 3e 00 b7 72 3d 80 1c 52 bd
       0.2956075 0.30023777 0.059256554 -0.05129671
0000c0 dd 37 81 bd a9 a2 4d 3d 2c 82 50 3e 9f 3a 25 3e
       -0.06309483 0.050203953 0.20362157 0.16135643
0000d0 ff a1 0b 3d 00 28 cc 3a b8 6c 34 be 28 83 8c 3e
       0.03409004 0.0015575886 -0.17619598 0.27443814
0000e0 49 0f 97 3e fb a9 11 be 91 44 74 be a0 ee 68 bd
       0.2950385 -0.14224999 -0.23854281 -0.056868196
0000f0 cc 5c a4 3e c4 ac 59 be 03 0a 4e be ae 2c 4d 3e
       0.32102048 -0.21257311 -0.20121007 0.20036575
000100 1e 93 1a 3d da a8 bd be 64 12 ac 3e a8 4d 39 3e
       0.037737958 -0.37042886 0.3360778 0.1809603
000110 f2 15 c3 3b fe c8 65 be 15 bc cc 3d 38 8d ea bd
       0.005953544 -0.22439954 0.09996811 -0.114527166
000120 30 78 fb 3c f2 87 88 3e 85 3f 7b be 9c 54 29 be
       0.030696958 0.26666218 -0.2453595 -0.16536182
000130 21 f8 9c be 5d 15 af be 3d 85 85 3d d2 a9 d4 be
       -0.30658057 -0.34195986 0.06519554 -0.41535813
000140 bd 99 e8 bd 54 83 20 3e c6 18 8b 3e 64 7c 74 3e
       -0.11357448 0.15675098 0.27167338 0.23875576
000150 a3 a6 16 3e eb d6 8c be 38 48 3c 3e c6 c7 47 be
       0.14712004 -0.2750772 0.18386924 -0.19509801
000160 7b 67 e3 bc 00 ba 86 3b 40 a0 d0 3e fe 7a 7e be
       -0.027759304 0.0041115284 0.4074726 -0.24851605
000170 d7 be bf 3e 1d e6 56 be 7c c5 a0 3e 58 d5 a9 3e
       0.37450287 -0.20986219 0.3140067 0.3317058
000180 71 74 db be 96 95 b5 bc ae aa 0e be 0b 09 8e be
       -0.42862275 -0.022166055 -0.13932297 -0.27741274
000190 c7 1a 4f 3e 94 d3 cc 3e 7c 26 43 be ea f4 a0 3e
       0.20225058 0.4000517 -0.1905765 0.31436855
0001a0 d5 c3 c2 3e fb f9 bb 3e 21 7f aa be 36 16 cf 3e
       0.38040033 0.36714157 -0.33300117 0.40446633
0001b0 ea b5 b6 3e 56 33 50 3e c6 c5 b6 bd cc 01 c3 be
       0.35685664 0.20332083 -0.08924441 -0.38087308
0001c0 b3 65 57 be 60 c6 11 bd 6a 2e 5f be 2f f4 48 3d
       -0.21034889 -0.035589576 -0.2179505 0.049060997
0001d0 72 3b c8 bd 4b d6 4e be f5 ce 77 be 18 c2 9c 3d
       -0.09776963 -0.20198934 -0.24200042 0.07654208
0001e0 98 c4 5e be fe fa 66 be b4 39 00 be 91 5a f3 3d
       -0.21754682 -0.22556683 -0.12522012 0.118825085
0001f0 5a 13 85 3e 54 9f 98 be b8 91 2a be 6f 36 19 3d
       0.25991327 -0.29809058 -0.1665715 0.037405428
000200 63 54 4a 3e c8 8f ab 3d 90 57 6a bd f0 cd 43 be
       0.19758753 0.083770335 -0.057212412 -0.19121528
000210 e1 4e 91 be 3e c0 a7 3e 46 73 08 3e f0 22 c8 3d
       -0.28380492 0.32763857 0.13325223 0.09772289
000220 5c 09 ed bd 7c 0c ae 3e b4 26 6a be 78 fd 9c 3d
       -0.11574051 0.339939 -0.22866327 0.07665533
000230 7a 47 80 3e c4 d8 a6 3e c4 00 93 3e c0 82 68 bc
       0.25054532 0.32587254 0.28711522 -0.0141913295
000240 be 37 df bd df 99 85 3e 44 a7 ae bd 19 0d 41 3e
       -0.10899304 0.26093957 -0.08527997 0.18852653
000250 8b f0 b7 be 14 69 9a 3d 5f ea d0 bd 27 b3 60 3e
       -0.35925707 0.07539573 -0.10200953 0.21943341
000260 fc 85 be 3e 48 36 a1 3d d7 8f 86 be c6 37 cc be
       0.37211597 0.078716815 -0.26281616 -0.39886302
000270 7f 0b d4 be 6e 22 c2 3e a2 27 05 bd 11 05 67 be
       -0.4141502 0.37916893 -0.0325085 -0.22560526
000280 0d 97 92 be 34 5a 90 3d 8e 12 cc bc 25 2a 84 be
       -0.28630868 0.07048455 -0.024911191 -0.25813404
000290 ab 2b 3e be 66 b4 7c bd aa aa 54 be 74 b5 11 3e
       -0.18571346 -0.06169548 -0.20768228 0.14229375
0002a0 63 c3 ce 3e e0 ba 93 3e 18 70 a5 3c ee 34 15 3e
       0.40383443 0.28853512 0.020195052 0.14570972
0002b0 4d 18 7e 3e c4 ab 51 3e 34 7d 89 3e a4 8c 64 be
       0.24813958 0.2047568 0.26853335 -0.22319275
0002c0 00 e5 be be d3 48 b5 be e4 79 70 be f6 1d 08 be
       -0.37284088 -0.35407123 -0.23483998 -0.13292679
0002d0 36 75 8b be 9e 8d 17 3c 07 cd ba 3e af 73 2c be
       -0.27237862 0.009250073 0.36484548 -0.16841005
0002e0 04 5e bb bc 07 f4 2a be 52 34 b1 3d 72 5d 37 3e
       -0.022871979 -0.16694652 0.086525574 0.1790674
0002f0 c7 d5 d0 3d 46 49 88 be 6d a8 15 3c 86 c3 9e 3e
       0.10197025 -0.26618403 0.009134394 0.31008548
000300 4f 93 c9 3e 81 19 26 3d 58 5f 97 3e 2b 5e dc 3c
       0.393702 0.040551666 0.2956493 0.026900372
000310 55 8a ee bd ce 97 83 3e 96 48 9d be 9e 19 44 3d
       -0.116474785 0.25701755 -0.3071944 0.047875993
000320 9d b7 6c 3e c4 56 b4 be 6d 9e ca bd a0 1e 24 3e
       0.23116918 -0.35222447 -0.098934986 0.16027308
000330 6b 48 74 be 36 da 1d be 6c 4d 9a bd a7 d7 23 be
       -0.2385575 -0.15415272 -0.07534298 -0.16000234
000340 e0 15 93 bd cc 11 b5 3e 4a 47 6d 3e 37 3b 03 3e
       -0.07181907 0.3536514 0.23171726 0.12815557
000350 dc fd e0 3d 32 88 71 3e aa c2 23 be 38 28 22 3d
       0.1098592 0.2358711 -0.15992227 0.039589137
000360 91 a6 c6 bd 14 d0 24 3d 91 52 6e bd 12 4d 45 be
       -0.09699739 0.0402375 -0.05818421 -0.19267681
000370 7a 8f 96 be b0 4b b2 3d 83 ec a1 3e 69 9e a8 be
       -0.2940634 0.087058425 0.31625757 -0.32933357
000380 b4 7b 2f be 73 7d 6f be 32 4d de bb 1a 6c 8b be
       -0.17137033 -0.23387699 -0.0067841047 -0.27230912
000390 04 1a ab 3c 79 c0 03 3e c5 2c 61 3d fa 29 77 be
       0.020886429 0.12866391 0.054974336 -0.24137107
0003a0 a0 06 d3 3d 5f 4d af be a0 39 a1 bc f9 98 ca 3d
       0.10303998 -0.34238717 -0.019680798 0.098924585
0003b0 95 0c 50 be cf 5b 22 be f0 26 89 3e 2c 4f 13 be
       -0.203173 -0.15855335 0.2678752 -0.1438567
0003c0 d4 da a6 be 59 9d 2b 3c 53 0b 74 3e d5 b2 4f be
       -0.32588828 0.010474526 0.23832445 -0.20283063
0003d0 25 fe 36 3e 2f b6 c1 be bf f8 ba 3e 7f 57 b4 bd
       0.17870386 -0.37834308 0.36517903 -0.08805751
0003e0 90 3e 9c 3e 31 59 8d be 01 f3 bb 3e 40 93 79 3c
       0.3051648 -0.2760711 0.36708835 0.015232861
0003f0 15 59 59 be e0 bf 8a bc 00 7f 3c 3e 24 a9 06 3e
       -0.21225388 -0.016937196 0.18407822 0.1315046

shared_layers.0.bias f4 [128]
000000 20 79 2a bc 37 4b 18 be 94 2f b8 bd 26 2e f7 3d
       -0.010404855 -0.14872442 -0.0899345 0.12069349
000010 c3 bf 2e 3e 45 ff 0c be e2 7f 11 3e 44 fc 1b 3e
       0.17065339 -0.13769253 0.1420894 0.1523295
000020 13 30 eb bd 5b a4 76 3d e0 24 3c be f1 22 94 3e
       -0.11483779 0.060215335 -0.18373442 0.28932908
000030 08 af ad bd 0e 22 9f 3d 08 dc 7b be ba 46 81 be
       -0.0848065 0.07770167 -0.24595654 -0.25249273
000040 23 55 e4 bd 5e 70 13 3e 4d 11 89 3d 67 30 25 3e
       -0.11149051 0.14398333 0.06692753 0.16131745
000050 96 ec 49 3d a9 43 bc 3e 59 ab 0a bc 09 36 67 be
       0.04929789 0.3677037 -0.008463704 -0.22579207
000060 22 9d c0 3e 34 b7 32 be a1 ad 6e 3d 47 ed c3 be
       0.37619883 -0.17452699 0.058271054 -0.38266966
000070 6e 81 87 3e a5 b4 54 be b2 8c cf be d6 ab 5a 3e
       0.26465935 -0.20772035 -0.4053703 0.21354613
000080 a2 91 2e 3e 22 fd 92 3d da c5 58 3d 6c ec 55 be
       0.17047742 0.071771875 0.05292306 -0.20890969
000090 24 fc b8 3e 94 5f 07 3e 94 da 55 be df b7 ce be
       0.36129868 0.13220054 -0.20884162 -0.40374658
0000a0 30 21 d2 3e 3f 22 1a be 10 ef c5 3d 78 14 aa be
       0.41040945 -0.15052126 0.09664738 -0.3321874
0000b0 58 e2 53 3e 10 b0 b4 3d 1f bb a6 3e a8 5f aa 3e
       0.20691812 0.08822644 0.32564637 0.33276105
0000c0 d9 89 94 3e d1 32 56 3e 4f ca 02 be 57 8d a0 be
       0.2901142 0.20917822 -0.12772487 -0.31357834
0000d0 9c 4f 87 bd b2 35 5e be 1a 87 8d bd 3f ec bd 3e
       -0.06606981 -0.2170017 -0.06910534 0.37094304
0000e0 de 5f 95 be 8b 51 37 bb 4e 75 c1 3e 9f d9 90 3e
       -0.29174703 -0.0027972187 0.3778481 0.28291032
0000f0 9c 19 c3 3e 00 05 dc 3d e6 3c 86 be 93 0a 97 be
       0.38105476 0.10743141 -0.26218337 -0.29500255
000100 a2 9a ad be f0 9e aa be 90 a7 41 3e 4f 6d 93 3e
       -0.33907038 -0.33324385 0.18911576 0.28794333
000110 1b 7a 9d 3e b3 06 bd 3e 20 d8 10 3d b0 ad cc 3e
       0.30757222 0.36919174 0.035362363 0.39976263
000120 4a 81 bb be f4 9f d9 bd 13 e5 ac be 02 c4 98 3e
       -0.36622077 -0.10626212 -0.3376852 0.29837042
000130 55 4c 4a be 6b 69 7e 3e 4c 5d aa 3c aa bf cd be
       -0.19755681 0.24844901 0.02079644 -0.4018529
000140 f1 63 a9 3e 2c 29 f8 bd 87 9f 35 be a3 1d 94 bd
       0.33084062 -0.12117228 -0.17736636 -0.07232215
000150 f4 19 ae 3e 76 4f 70 3e 14 b4 a6 3e a1 af 65 3e
       0.34004176 0.23467812 0.32559264 0.22430278
000160 ad 97 90 be b0 3d bb b9 8d f7 7c 3c 60 d7 26 bd
       -0.2824072 -0.0003571338 0.01543988 -0.04073274
000170 c9 70 70 3e a9 a9 8c be 1e f1 af be 17 88 59 be
       0.23480524 -0.2747319 -0.34363645 -0.2124332
000180 3a da 89 be 7f c2 b8 3e bd ea 10 3d d5 1b cd 3e
       -0.26924306 0.3608589 0.035380114 0.40060297
000190 e9 f3 77 be 8f 9c c2 bd 8e 11 00 3e a6 0e 09 3c
       -0.24214138 -0.095025174 0.12506697 0.008365309
0001a0 b5 b5 b5 3d 5c 2f 16 be 8f e1 e4 bd e6 28 dc 3d
       0.088725485 -0.14666504 -0.111758344 0.10749988
0001b0 08 f7 a9 3e d5 87 0d be 97 65 f5 3d 3f 2a 03 3e
       0.33196282 -0.13821347 0.11982267 0.12809084
0001c0 d0 bc 8d be 9e 71 c1 be cc 25 e3 3c 3c 5b 99 be
       -0.27683115 -0.37781996 0.027727984 -0.2995242
0001d0 66 e8 9d be 30 3d 52 3e 07 04 06 3e 06 c2 b8 be
       -0.30841368 0.20531154 0.13087474 -0.36085528
0001e0 27 23 c7 3e f2 3c 86 be 4a 5d e0 3e 06 45 50 be
       0.38894007 -0.26218373 0.43821174 -0.2033883
0001f0 30 39 f4 bc a1 78 72 3e d2 0d 96 be a6 84 9e 3e
       -0.029812425 0.23678829 -0.2930742 0.30960578

shared_layers.2.weight f4 [128, 128]
000000 2b ea 0f bd 72 d8 d0 bc f9 f2 61 3d 4d f9 c0 3b
       -0.03513543 -0.025493834 0.055163357 0.005889094
000010 4a 46 c8 bd 3e 8f 4a 3d a4 b7 25 bc 16 cf 41 3c
       -0.097790316 0.049453013 -0.010114584 0.011829158
000020 14 03 09 3d df a0 b1 bd a2 3d 94 3d 33 5d ae 3d
       0.0334502 -0.08673262 0.07238318 0.0851387
000030 c3 cd 66 3c e9 a7 99 3d 5e a0 ab 3d 81 b6 96 3d
       0.014087143 0.075027294 0.08380197 0.073590286
000040 c8 24 9f 3c 58 c2 7a bd bc e7 6a 3d 47 4f 5e 3d
       0.019426718 -0.061220497 0.057349905 0.054274824
000050 66 3e 7c bd 0e 27 19 3d bd 69 97 bc bb b3 be 3c
       -0.061582945 0.03739076 -0.018483037 0.023279062
000060 09 39 2e bd 08 58 4b 3d 98 1a 80 3d 41 8a 4f 3d
       -0.04253486 0.0496445 0.06255072 0.05066896
000070 6d 32 4b bc b8 17 4e bd a4 b9 b7 bd 4b ac 9b 3d
       -0.012402159 -0.05031559 -0.08970955 0.07601222
000080 af 73 00 bc 11 77 b2 bd 5d 61 b5 bd 5a ab d1 3d
       -0.007840081 -0.08714116 -0.08856461 0.10237761
000090 8a 98 09 bd b2 ef 9a 3c 78 49 04 bd da 49 88 bd
       -0.03359274 0.018913124 -0.032296628 -0.06654711
0000a0 82 cc 06 bc 01 90 a5 bd 5b 55 45 3d d7 5e 4c bd
       -0.008227469 -0.08084107 0.048177104 -0.049895134
0000b0 a9 eb e9 3d 87 87 1e 3d df 4d 8d 3d cc bd 2c bd
       0.11421902 0.038703468 0.06899618 -0.042173192
0000c0 90 df a7 bd 9e ed 8e bd 05 0e 63 3c a2 b7 6e 3b
       -0.08196938 -0.06978916 0.013858323 0.0036425372
0000d0 e0 ab 0f 3d cc 1a 87 3d 30 72 e7 bd 22 01 19 bd
       0.035076022 0.06596908 -0.113010764 -0.037354596
0000e0 77 ba c8 3d e3 ea 9c bd c9 5a 72 3c 69 ac a5 bd
       0.0980119 -0.076619886 0.014792153 -0.08089525
0000f0 b1 bd ea bc 2c 48 1f 3d 2c 07 af bd d8 b3 8c 3d
       -0.028654905 0.038887188 -0.0854629 0.0687024
000100 6c 2f fd bc 06 50 70 3d 50 77 f3 3b 83 a0 e1 3c
       -0.030906402 0.058670066 0.0074299946 0.027542358
000110 a0 08 7e bd a5 fd c4 3c ec 41 b9 bc 2d 26 f1 3c
       -0.062019944 0.024046728 -0.022614442 0.029437149
000120 64 55 48 3d 3f 93 8a 3a 90 24 a1 3b 74 0a 04 bd
       0.04890956 0.0010572447 0.0049176887 -0.03223653
000130 43 30 af bd aa e0 84 bd bb 98 2a 3d 6e 5c 99 3d
       -0.08554127 -0.06488164 0.04164956 0.07488333
000140 25 cc 95 bd 83 31 91 3d fa c2 c2 bd e8 05 b4 3d
       -0.07314328 0.07089522 -0.09509845 0.08790189
000150 27 4e b8 3d 38 30 3f bd a8 fb 66 3d f4 10 8d bd
       0.089992814 -0.046676844 0.05639234 -0.06887999
000160 48 85 f8 bc d4 18 71 bc 0b 4e 56 bd 5b 6f f2 3b
       -0.030336991 -0.014715392 -0.05232052 0.0073985285
000170 13 9f 79 bd fc af a4 bc 8d 23 89 3d e4 23 61 bb
       -0.06094272 -0.020103447 0.06696234 -0.0034353668
000180 4c e5 42 3d fd 55 c3 39 7e 8b 83 bd 26 30 c9 bc
       0.047581956 0.00037257365 -0.064230904 -0.024559092
000190 30 a8 1e 3c 71 34 3f 3d 55 5d 41 bd 9c a3 ab bd
       0.009683654 0.04668087 -0.04720815 -0.083808154
0001a0 4e 6f 2c 3c f4 42 3c bc 12 48 76 bd 33 dc e2 bb
       0.010524584 -0.011490572 -0.060127325 -0.0069232224
0001b0 ba 46 39 3d ee 3c 6d bd 1d 71 16 3d 2e 91 bf bd
       0.045233466 -0.057919435 0.036728967 -0.09353863
0001c0 75 e1 eb 3d 6b b8 cd 3d ca 4e 3a bc 42 ad b7 3b
       0.11517612 0.100449406 -0.011371324 0.0056053707
0001d0 a6 00 fb bc b8 6b ad bc 5d b7 c8 bd b6 c7 be 3d
       -0.030639958 -0.021169528 -0.09800599 0.093154356
0001e0 46 cc 96 bd b4 9d 83 3d 1e 92 e0 39 3d a6 31 bb
       -0.07363181 0.06426564 0.00042833475 -0.0027107142
0001f0 55 4a 6a 3d 80 5d c4 3d b8 62 d0 bd cb fd 46 3d
       0.057199795 0.09588146 -0.10175079 0.04858188
000200 f9 fd d5 bd e4 9d b5 3d 62 38 95 bd b1 68 ab bd
       -0.10448832 0.08868006 -0.07286145 -0.08369578
000210 bc 45 68 bd 21 1c 3a 3d c0 0e da 3d 44 46 c9 3c
       -0.05670713 0.045436982 0.106473446 0.024569638
000220 23 91 65 bd eb 1c b9 3d 58 53 8d 3c 2e a3 3b bd
       -0.056046616 0.09038719 0.017251655 -0.045809917
000230 88 16 78 3d df 58 77 3d 39 65 1c ba e4 5d 4a 3c
       0.060568362 0.06038749 -0.0005966011 0.012351487
000240 d4 77 19 3d 0e 2f 11 3b 58 0f 72 bd ac bb 4c bd
       0.037467793 0.002215329 -0.059096664 -0.049983665
000250 d6 c3 9e bd 7e 17 0d 3d 0a 92 78 bc 2d 64 20 bb
       -0.077521965 0.034446232 -0.015171537 -0.0024473772
000260 78 47 84 bd fe aa 85 bb b7 7f 98 39 b1 02 c3 bc
       -0.06458944 -0.0040792217 0.00029086854 -0.023804994
000270 a7 be 39 bc b6 03 88 3c da 74 ff bc 10 35 8b bd
       -0.011336959 0.016603332 -0.031183649 -0.0679723
000280 50 1c 30 3d e1 37 e9 bb b7 8b 5a 3d aa 08 76 bd
       0.04299575 -0.007117257 0.0533559 -0.060066856
000290 cc d5 45 3d c5 60 21 3d c5 4b e7 bb 7b b2 42 bd
       0.048299596 0.039398927 -0.007058593 -0.047533493
0002a0 64 67 1f bd 11 01 71 3c fd dc 3f 3c 79 15 0b bc
       -0.03891696 0.014709727 0.011710403 -0.008489006
0002b0 5a 73 99 bd 8d e0 64 bd 29 78 08 bd a4 64 b1 bc
       -0.07492705 -0.05587821 -0.03331772 -0.021654435
0002c0 01 34 be 3d a7 a0 9d bd cd c6 30 bb 75 9e 99 bc
       0.09287263 -0.07696658 -0.0026973963 -0.018752316
0002d0 8a c2 a4 3d 9c cd 46 bd b9 0a 95 3d a2 67 c8 3d
       0.08044918 -0.048535928 0.07277436 0.097853914
0002e0 31 92 86 3a 6e c6 a8 bc 08 3e 52 bd bd 38 ce 3c
       0.0010266957 -0.020602431 -0.05132869 0.02517354
0002f0 9c bb 10 3d 11 f9 b4 3d 2f 0d a7 3d ee 77 20 bd
       0.03533517 0.08836568 0.081568114 -0.039176874
000300 4d 1f 0c 3d 07 79 76 bd de 4d 0b 3b 0b c1 8a 3d
       0.03420954 -0.060174014 0.002125613 0.06775101
000310 61 9b 46 bd c9 d8 4b bd 6c 14 8a bd 20 e9 26 3d
       -0.048488025 -0.04976729 -0.067421764 0.04074967
000320 5e df 46 bd 9e ee 83 bd d3 e5 b5 3c 04 42 df bc
       -0.048552863 -0.06441997 0.022204315 -0.027253158
000330 a5 a3 70 3a ec 44 e1 ba 5e 6a 8a 3d 37 f3 83 3d
       0.00091796584 -0.0017186678 0.06758569 0.06442874
000340 0b 8d d3 bc ee 45 f6 bc 27 42 3a 3d f0 d1 2c bd
       -0.02582409 -0.030062642 0.045473244 -0.0421924
000350 6f da af bd ec 08 bd bc 06 7f 72 3d 3a 8d 78 3d
       -0.08586585 -0.023075543 0.05920317 0.06068156
000360 79 e5 e7 3c 13 c9 d1 bc 62 c1 ee bc 33 1b ac bb
       0.028307663 -0.025608575 -0.029144946 -0.005252266
000370 62 03 86 3d 51 f9 4e bd 68 df 01 bc 9d ab 6d bc
       0.06543614 -0.050530735 -0.007926799 -0.014506248
000380 35 cc 87 bc 1d 99 61 bd ba 11 c9 bc 7b b9 d7 bc
       -0.016576866 -0.05507766 -0.024544585 -0.026333561
000390 b4 55 25 bc 81 59 3f bd 32 bd 9a bd fe bb ba 3d
       -0.010091234 -0.046716217 -0.075556174 0.09117888
0003a0 94 7c 66 bd 95 14 b3 bb d4 ca 0c bd a0 e7 84 3d
       -0.05627115 -0.0054651 -0.03437312 0.064894915
0003b0 93 72 c7 bc 3c 5a 13 bc 63 f4 1f bc f6 f0 58 bc
       -0.024346625 -0.0089936815 -0.009762856 -0.013241043
0003c0 0b c3 8c bb 8c c8 94 bd 41 f6 fe bb 1d 63 2b bd
       -0.004295712 -0.07264814 -0.0077808206 -0.04184257
0003d0 fd 79 ae 3d 06 4f 0e 3d d4 9f 7c 3d 4f b8 9e bd
       0.08519361 0.03474333 0.06167586 -0.07749998
0003e0 d2 51 13 3d 52 1c 1d bd 0c 18 b9 3d 2e 39 da 3c
       0.0359667 -0.038357086 0.0903779 0.026638594
0003f0 69 82 3d bd fc 2d ca bd ac e0 85 3d bd 67 51 bd
       -0.046266947 -0.09872052 0.065369934 -0.051124323

shared_layers.2.bias f4 [128]
000000 ae 51 32 bd 08 02 6b 3c d5 89 6a bd 4c 00 bd bc
       -0.043534927 0.014343746 -0.057260353 -0.02307143
000010 51 b8 0f bd 3e 32 89 bd c2 08 3b bd 81 22 81 3d
       -0.035087887 -0.06699036 -0.04566265 0.06305409
000020 88 52 83 3d b1 38 02 3d 5b ce 10 bd b5 03 c1 3c
       0.06412226 0.031792346 -0.035353046 0.023561338
000030 9b 3c 03 bd ca 9d ef 3c 40 ea 46 bd 08 5e 1a bd
       -0.03204022 0.029250044 -0.048563242 -0.03768733
000040 c1 f5 36 bd 50 8a 5c bd aa 5c fa 3b 22 7c 67 3d
       -0.044667963 -0.053842843 0.007640441 0.056514867
000050 7b e6 c1 3b 77 cf 9a bc a5 7d 80 3d ed 50 b6 bd
       0.005917368 -0.018897755 0.06273965 -0.08902154
000060 8d 2d 3c 3c 68 47 b7 3c b0 73 bc bc ce 7b 0a 3c
       0.0114854695 0.022372916 -0.023004383 0.008452369
000070 af b6 aa bc 40 0b 46 3c 9f 25 d1 3b 76 5a aa bd
       -0.020839063 0.012087643 0.0063826586 -0.08318035
000080 bc 6b 61 bd fe ee 4e bd 42 4d 29 3d 20 3b e7 bc
       -0.055034384 -0.05052089 0.041333444 -0.028226435
000090 ef 11 53 bd 91 0d 80 3d 93 40 d4 bd 9e bc bc 3d
       -0.051530775 0.062525876 -0.10363879 0.092156634
0000a0 67 c9 03 bd 85 de 77 3d 4f df 9e bd 12 8d e1 3d
       -0.032174494 0.060514946 -0.077574365 0.11013235
0000b0 74 02 f5 bc 98 ef 35 bd 9f 9b 8f bc 37 2a 95 bc
       -0.029908396 -0.044417948 -0.01753026 -0.018208606
0000c0 d3 35 cc 3c 0e 99 73 bd 00 3a 15 bc 9e 2d 4c 3d
       0.02492801 -0.059472136 -0.009108067 0.04984819
0000d0 dc d8 75 3d 88 44 a7 3c 99 ee d7 bd 33 7d d0 bd
       0.060021266 0.02041842 -0.10543556 -0.1018013
0000e0 39 ba 85 3d e8 0f 2a 3d 74 3f 30 bd 3d 09 8d 3d
       0.0652966 0.041519076 -0.043029264 0.06886528
0000f0 24 b1 16 3d a0 62 c0 3d 85 04 02 3d 39 95 45 bc
       0.03679003 0.09393811 0.03174259 -0.012059503
000100 28 59 8e bc bf 62 61 bd 1f f2 d5 bd 46 d4 ee 3c
       -0.017376497 -0.055025812 -0.104465716 0.029153954
000110 df 7d 25 bd f5 9c 81 bd fd 7c 0d bd 55 f5 3f 3d
       -0.040403243 -0.06328765 -0.034543026 0.046864826
000120 11 ae 65 bd ad 3f 54 bd be 85 ce bd f0 c9 85 bd
       -0.056074206 -0.05181854 -0.10084103 -0.06532657
000130 0d 21 cd 3d cf 50 d8 bc 9b d1 64 3c d3 04 59 3d
       0.100160696 -0.02640572 0.013965989 0.052983116
000140 23 80 03 bd 70 cc b2 3d 44 9c 7c 3c 2b 61 8f bd
       -0.032104623 0.087303996 0.015418116 -0.07000955
000150 7b 5e 8c bd c8 e3 bc 3d ba 1d 84 bd 72 41 a2 bd
       -0.06853958 0.09223133 -0.064509824 -0.07922639
000160 eb c7 7f bd eb 13 bb bc 39 ff b4 ba d3 1d dd bd
       -0.062446516 -0.022836646 -0.0013808972 -0.10796704
000170 fc 5f 88 ba 07 8f 73 bd 14 f8 92 bd b0 e6 9a bc
       -0.0010404582 -0.059462573 -0.071762234 -0.018908828
000180 16 2f 2d 3d c9 1b 4d bd 3b 0c e4 3c 1a 0c 8e bd
       0.042281233 -0.050075326 0.027837863 -0.06935902
000190 d5 d2 a1 bd f8 34 c4 bc 82 55 7d 3c 0a db 31 bd
       -0.07901541 -0.023951039 0.015462281 -0.043421783
0001a0 66 1c 23 3d 5e 54 50 3c 84 3c 3a 3d 7d e2 53 bd
       0.039822005 0.012715427 0.04546787 -0.051729668
0001b0 b7 fe bd 3d cb 75 10 3d 7b b4 73 bd 30 77 02 bc
       0.092770986 0.035268586 -0.05949829 -0.007962987
0001c0 f3 37 bb bd 2e 37 8e 3a a1 0c 99 3c d4 48 42 3d
       -0.09141531 0.0010850185 0.01868278 0.047432736
0001d0 77 db f9 3c e8 46 13 bb f4 af a6 3d 0b aa d0 3d
       0.030500157 -0.0022472683 0.08139029 0.10188683
0001e0 81 49 d2 bc 7a aa 76 3d 29 82 c3 bc da 3d bf bc
       -0.025669815 0.060221173 -0.023865776 -0.023344923
0001f0 20 ff 8d 3d 36 1a 3c bb 8e 9b 92 bd 32 5d 8f 3d
       0.06933427 -0.0028702146 -0.07158576 0.070001975

actor_head1.weight f4 [26, 128]
000000 63 55 d9 3d 1c 32 67 bd dc 47 8e bd 56 33 b5 3d
       0.10611989 -0.056444272 -0.069473 0.08847682
000010 bf e0 07 bd 71 40 c6 bd 2d 45 4b bd 29 41 36 3d
       -0.03317332 -0.0968026 -0.049626518 0.044495735
000020 a1 63 78 3c 4b 8e 87 3d 5d 17 b6 bb a2 c3 1e 3a
       0.015160472 0.06618937 -0.0055569843 0.0006056373
000030 06 59 51 bd dc fe 4f 3d c1 5c 74 3d 6c 7a 79 bb
       -0.05111029 0.050780162 0.05965877 -0.0038067354
000040 ee 2c 1d bd 6c ef 1c 3d 3e 2a e0 3c 62 10 63 3c
       -0.038372926 0.038314268 0.027363893 0.013858886
000050 38 22 58 3b 3a 25 b5 bd f0 e4 03 bd 3a 20 d7 3c
       0.003297938 -0.08844991 -0.032200754 0.026260484
000060 8f b5 86 bd a7 be 11 3d b5 c5 b0 bc cc a3 25 bd
       -0.06577598 0.03558221 -0.021578649 -0.040439412
000070 82 46 7d 3d ea bd a4 3d 8c 2b 81 3d 9c 25 9a 3c
       0.06183482 0.08044036 0.06307134 0.018816762
000080 0e 94 96 3d f9 25 55 bd 94 d5 92 bd 7b 4f 4e 3d
       0.07352458 -0.052038167 -0.07169643 0.050368767
000090 2b 08 86 bd 6b 25 c5 3d 40 84 65 3d 98 4d a5 3b
       -0.06544527 0.096262775 0.056034327 0.0050446503
0000a0 c4 83 4a 3d 01 ee 9f bd dc 24 4f 3d 86 27 99 3d
       0.049442068 -0.078090675 0.05057226 0.074782416
0000b0 c0 a8 59 bc 1c b8 0d 3d 45 b4 a1 bd cc 48 88 3d
       -0.013284862 0.03459941 -0.07895712 0.0665451
0000c0 0e d5 3c 3d 21 9d 46 bd 0f 46 fc 3c d2 cb 3b 3d
       0.046101622 -0.048489694 0.030795125 0.045848675
0000d0 6d 86 0d bd c7 e3 07 3c 08 ba e8 3c eb a5 8c bc
       -0.034552027 0.008294052 0.02840902 -0.01716896
0000e0 da 56 33 bd ef 2f 52 bd 45 10 bd bd 50 3c bb 3c
       -0.043784 -0.051315244 -0.09231619 0.022855908
0000f0 ca dd ac bd 43 ff 80 3d e7 39 51 bd 04 82 37 bc
       -0.084407404 0.06298687 -0.05108061 -0.011200432
000100 61 ec df bc 97 24 1d bd 80 c4 39 bd b7 29 c2 bc
       -0.027334394 -0.038364973 -0.045353413 -0.023701532
000110 b1 34 22 bd 6b 2a ba bd 44 83 eb 3c 8b 05 79 3d
       -0.03960103 -0.09090122 0.028749116 0.0607963
000120 87 99 ab 3c b9 de cc 3b 1b 21 0d bd 60 8f c6 3d
       0.020947231 0.0062521365 -0.0344554 0.09695315
000130 3e 75 86 3c dc f3 54 bd ea 73 d5 3c 4c 64 0e 3d
       0.016413327 -0.051990375 0.026056249 0.03476362
000140 f0 61 14 bd 93 30 a7 3d f7 e8 a2 3d 4b 09 8e bd
       -0.036226213 0.08163562 0.07954591 -0.06935366
000150 cb 82 59 3d 80 e7 b8 3d 44 fe 66 3c 07 01 b9 bc
       0.05310325 0.0902853 0.014098708 -0.022583498
000160 e5 5f 82 3d 48 72 a5 bd 78 19 19 3b 34 1d c7 bb
       0.06365947 -0.08078438 0.0023361128 -0.0060764793
000170 bc 29 5e 3d e7 5d 1e bd b6 f9 cb 3c d3 a2 de 3c
       0.05423902 -0.03866377 0.024899345 0.02717725
000180 bb 18 bb bd 33 a8 90 3d 25 ca c4 3c 1a 8a 17 3d
       -0.09135576 0.070633315 0.024022171 0.03699694
000190 fa a3 83 bd 8d e6 ef bc e1 73 a2 bd 5b e8 a0 bd
       -0.064277604 -0.02928474 -0.079322584 -0.07856818
0001a0 8d 62 55 bd 63 b6 83 bc c9 80 ce bc d3 0e 0b bd
       -0.05209594 -0.01607818 -0.025207894 -0.033949684
0001b0 22 9c f2 3c bf 55 49 3d c5 95 96 bd 21 98 e5 bc
       0.029615466 0.04915404 -0.07352785 -0.028026642
0001c0 88 22 74 bd 1f 98 99 bb 28 aa c1 3d 5f 28 2b 3b
       -0.059603244 -0.0046873237 0.09456283 0.0026116592
0001d0 cc b9 52 3d 6b 08 67 bd cd f6 96 3c 9a 5b 40 bd
       0.05144672 -0.056404512 0.01842823 -0.046962358
0001e0 51 64 30 bd 20 17 13 bd dc 96 7a bd e6 99 55 bd
       -0.04306442 -0.035910726 -0.061179027 -0.052148722
0001f0 15 4e a1 3d ca 00 45 bc b1 8c b7 bb f2 72 77 bd
       0.07876221 -0.012024114 -0.0056014885 -0.060412355
000200 5b 6e c7 3d 79 b7 bb bd d9 39 fb 3c 02 6d c3 3c
       0.097378455 -0.09165854 0.030667232 0.02385569
000210 af 7c 30 bc 0c 89 8e bd 7c bf 4f bd 39 aa 04 bd
       -0.010771914 -0.06959733 -0.050719723 -0.0323889
000220 73 b4 38 3c 24 36 59 3c 74 86 c2 bd f6 69 89 3d
       0.011273491 0.013257537 -0.09498301 0.067096636
000230 04 6c 42 3b 55 5c 6e 3d c4 16 75 3d 5d 59 a2 3d
       0.0029666433 0.058193523 0.059836164 0.07927201
000240 63 0e 33 3c 48 c9 8a 3d c7 eb 3e 3d e4 51 c0 bc
       0.010928723 0.067766726 0.046611574 -0.023476548
000250 40 fb c1 3d 90 d0 70 3c af 81 47 bc 7e c4 24 3b
       0.0947175 0.014698163 -0.012176915 0.0025141533
000260 62 7c 77 3d 44 d2 8a 3d bc b5 90 bc 32 e2 d6 3d
       0.060421355 0.06778386 -0.017664783 0.10492362
000270 98 39 f0 bc 6f 45 51 bd 4c dc f8 3c 33 24 0d bd
       -0.029324338 -0.051091608 0.030378483 -0.03445835
000280 05 f2 72 3d ee 5f c8 bd 8a 41 9c 3d f1 b5 c7 3d
       0.05931284 -0.09783922 0.07629688 0.097514994
000290 7b 50 4b bd 6e 98 e5 bc 13 db 16 bc cf 19 1e bd
       -0.0496373 -0.028026786 -0.009207505 -0.03859883
0002a0 9a 2a b4 bd 2f 10 85 bc 26 a9 92 bd b1 5c 8c bd
       -0.08797188 -0.016243069 -0.07161169 -0.06853617
0002b0 b4 18 a2 bd cb 09 1f 3d 82 5f a0 bd 1e ca c6 3d
       -0.07914868 0.0388277 -0.07830717 0.097065195
0002c0 7e 02 39 bd df 98 17 3d e4 eb 5b bd f0 03 41 bd
       -0.045168392 0.037011024 -0.05369176 -0.047122896
0002d0 85 33 9f 3d bb 6b b1 3d f1 56 4f 3d be 7e 34 3d
       0.077734984 0.08663126 0.050620023 0.044066183
0002e0 c4 96 36 3d c9 07 37 bd dd 2b 9a bd f9 7c ec bc
       0.044577375 -0.04468516 -0.075278975 -0.028868185
0002f0 d9 90 2b bb b8 a4 a2 3b 94 f2 2d bd 3a 63 69 bd
       -0.0026178865 0.0049634837 -0.04246767 -0.056979395
000300 cb af 81 bc 8d 6d 21 3b 4e fc 24 bd 2e 82 94 3c
       -0.015830895 0.0024631948 -0.04027968 0.01812848
000310 a1 38 c3 bc e7 db 90 bd 1b 18 6b 3d 20 10 78 bd
       -0.023830714 -0.07073193 0.057396036 -0.060562253
000320 a4 9c 9c 3d 01 64 b7 bd 6b cd bb 3b 81 77 bc bc
       0.07647064 -0.08954621 0.005731275 -0.023006203
000330 ea 67 bc 3d 54 d4 3b bd 9c f0 dd 3c 08 0c 45 3d
       0.091995075 -0.04585679 0.02709227 0.048107177
000340 58 53 8a 3d b0 47 12 3c 87 e3 5e bd 49 34 aa bd
       0.06754178 0.008928224 -0.054416206 -0.08310754
000350 78 6a 16 bb ca 0b 0e 3c 8a de bc 3b 52 33 6c bd
       -0.0022951644 0.008669803 0.0057638334 -0.05766613
000360 a9 5b 12 bd f4 33 a1 bd ff ce fb ba de 73 33 bd
       -0.035731945 -0.078712374 -0.001921147 -0.04381167
000370 56 97 c4 3c 0a 6b 52 bc 86 bb 02 3b c6 8f 35 bd
       0.023997944 -0.012842903 0.0019948198 -0.044326566
000380 67 62 98 bc ee 25 f4 b9 82 98 8a 3d 82 b2 34 bd
       -0.01860161 -0.00046567566 0.0676737 -0.04411555
000390 f2 52 9a bd 39 e6 d3 bc 9e 48 56 3d e1 b0 23 3d
       -0.07535352 -0.025866615 0.052315347 0.039963607
0003a0 60 0c 6a 3d 55 e2 3b bc 02 94 8e bd 9c bf 87 bb
       0.057140708 -0.011467536 -0.06961824 -0.0041427147
0003b0 49 59 f3 bc 9d 5d 1f bd f7 d6 5b 3d 7c 0e 73 bd
       -0.02970566 -0.038907636 0.053671803 -0.059339985
0003c0 c4 d4 de 3c 8f ea 7a bc 25 b0 17 bd 49 db 26 bd
       0.027201064 -0.015314712 -0.03703322 -0.04073647
0003d0 ea c8 80 bc 08 9d a7 3c a5 af d0 bc 3b cd 94 3d
       -0.015720803 0.02046062 -0.025474379 0.07265707
0003e0 4d 25 58 bd 24 2b 99 3d 99 a7 9d bc a1 fb a0 bd
       -0.052769948 0.074789315 -0.019244956 -0.078604944
0003f0 da 80 fd bc cf 2b 80 bd 55 c6 63 3d 6f 08 56 bd
       -0.03094523 -0.06258356 0.055609066 -0.052254137

actor_head1.bias f4 [26]
000000 2a 27 d5 3d 1a c0 88 3d c4 53 80 3c e7 5d 30 3d
       0.104078606 0.066772655 0.015664943 0.043058302
000010 7f 21 17 3c 09 c9 98 3d 65 df 0f 3a ce 68 af 3c
       0.009224295 0.074602194 0.00054883055 0.02141228
000020 c4 eb dc 3b ff ad 9e 3c 62 89 a7 3d 56 2b 1c 3d
       0.0067419726 0.019370077 0.081805006 0.038127266
000030 ac 53 48 bd f9 79 77 bd 17 fe 24 3d 58 62 b0 bd
       -0.04890792 -0.060419057 0.04028138 -0.086125076
000040 c7 0f 27 bd d0 8f 6e 3c 60 46 72 3d a8 94 1d 3d
       -0.04078653 0.014560655 0.059149146 0.038471848
000050 bb 54 15 bd d7 c6 a7 bb 8d 22 a8 bd b7 0f ba bd
       -0.03645776 -0.005120139 -0.08209715 -0.090850286
000060 6b 9e 76 3d e2 81 85 bd
       0.060209673 -0.06518914

actor_head2.weight f4 [26, 128]
000000 c7 93 21 3d 9d a7 be bd f3 c4 9c bd 88 10 82 3d
       0.039447572 -0.093093134 -0.076547526 0.06350809
000010 c1 43 ff 3a 36 b2 3b 3d 7d 99 23 bd ba 2e 7a bd
       0.0019475148 0.045824252 -0.0399413 -0.06107972
000020 ed 85 23 3d 98 e8 10 3d bd 67 82 3d d4 9c 81 3d
       0.039922643 0.03537807 0.06367443 0.06328741
000030 92 79 ac bc d5 52 c2 3c 5c 01 c7 3c 69 12 99 bc
       -0.021054063 0.023721138 0.02429264 -0.018685536
000040 0c e6 90 3d 78 0c d9 bd 9b 34 1f bd 25 5b 09 3c
       0.07075128 -0.10598081 -0.038868528 0.008383547
000050 49 00 85 3d 5a 14 86 3d cf b7 4e bc c9 f6 0d 3c
       0.06494195 0.065468505 -0.012617066 0.008664795
000060 ee d3 35 3c 48 f5 73 bd ec 9a b7 bb 87 f8 84 3d
       0.011097891 -0.05956009 -0.005603185 0.06492715
000070 c4 81 78 bd 71 16 3c bd 30 c6 e9 3c 16 b3 74 bc
       -0.06067063 -0.04591984 0.028536886 -0.014935276
000080 c9 44 1b 3d a4 22 78 3c a6 f1 8d bd 4b 10 f9 bc
       0.037907396 0.015144978 -0.069308564 -0.030403277
000090 f1 06 94 3c d5 df 86 3d f0 9b 5c bd 53 2c cd 3c
       0.018069716 0.06585661 -0.05385965 0.02504555
0000a0 51 7c 6a bd 11 08 81 3d 6a 2d 10 bc 2d 40 17 bd
       -0.057247464 0.06300367 -0.00879989 -0.036926437
0000b0 8f 8c cf 3c ab 3e 0e 3d 6b c6 6d 3d c2 9c 6c bc
       0.025335578 0.034727734 0.058050554 -0.014441671
0000c0 4b 69 44 bc 34 bc 59 3d 7a 1c c7 3c d9 cf 83 bc
       -0.011987994 0.053158 0.02430557 -0.01609032
0000d0 55 8d 77 3c 0d f4 67 bd e7 4e 6c 3d 79 31 06 bd
       0.01510938 -0.05662923 0.057692435 -0.032762025
0000e0 bd 63 62 3b 39 36 4c bc 79 35 65 bd 6c 51 7a bd
       0.0034544312 -0.0124641 -0.0559592 -0.061112806
0000f0 8a 9d 40 bc 96 9e 13 3d 53 be 26 3c 57 2f 44 bd
       -0.01175631 0.03603991 0.010177213 -0.04789671
000100 a1 92 19 3d d9 28 8b 3d 12 d9 08 bd b3 e8 75 bd
       0.03749335 0.067949004 -0.03341014 -0.060036372
000110 41 82 c8 3d a2 43 bd bd 0b c1 2f bc b3 bb 0e 3d
       0.09790469 -0.092414156 -0.010727177 0.034846973
000120 17 e8 16 3d 26 1e 0a 3d 9f 18 24 bd 87 4d 2f bd
       0.036842432 0.033720158 -0.040062543 -0.042798545
000130 6c 34 58 bd 5e 0b a2 bc d9 9c 85 3d f4 88 75 3c
       -0.05278437 -0.01978081 0.06524057 0.014986265
000140 d0 4b 83 bb 7d 58 9e 3d f4 ec f1 bc 2a e3 46 bd
       -0.0040068403 0.077317216 -0.029531933 -0.048556484
000150 4b df 83 3d d8 ea 64 bc 37 49 c7 bc c9 ea ff 3c
       0.06439074 -0.013972007 -0.024326904 0.031239884
000160 30 12 9b 3d 8a 16 18 3d 0b eb 88 3d 8e 5f ce 3c
       0.07571828 0.03713087 0.06685456 0.025192048
000170 5c b2 b5 3c 97 32 5e 3d e6 f9 2a 3d 02 72 0f 3c
       0.022179775 0.054247465 0.041742228 0.008755209
000180 3a 14 e8 bc 32 26 23 3d 16 3d 2d 3d 91 2b 22 3d
       -0.028329957 0.039831348 0.042294584 0.03959233
000190 81 22 61 bd 09 99 6f bd 4b 76 ba 3d ef 6b bd 3c
       -0.054964546 -0.058495555 0.09104594 0.023122756
0001a0 49 8e 5f 3d 33 41 b5 bd 4d b9 c9 bc d6 02 15 3d
       0.054579053 -0.088503264 -0.024624491 0.036379658
0001b0 f0 9c a4 3d 71 52 3e 3a 22 32 be bd 65 82 4b bd
       0.08037746 0.00072602095 -0.09286906 -0.0496849
0001c0 4a 34 81 3d 83 c3 8e 3d 7a 8f 40 bd 0c 97 d0 3c
       0.063088015 0.06970885 -0.04701183 0.02546265
0001d0 60 b2 91 3d 15 19 e9 3c 13 9b d1 3d 29 ff ce 3d
       0.071141005 0.028454343 0.10234656 0.10107262
0001e0 41 02 aa 3d 6a 94 0a bd 9b 32 5b 3d 39 49 64 bd
       0.08301211 -0.033832945 0.053515058 -0.055733893
0001f0 0e 3b 9e 3b 14 9e 8d 3d 3a c4 c4 3a 4b 74 86 3d
       0.004828817 0.06914917 0.0015012093 0.0656515
000200 b3 d5 59 bd 7c 7c cf bd d1 ec 86 3d f0 3f ab 3d
       -0.053182315 -0.101311654 0.06588138 0.083618045
000210 01 4e 64 bd 06 cc 99 bd 8e 19 be bd 96 34 45 b9
       -0.055738453 -0.075096175 -0.09282218 -0.00018806974
000220 2b 1a 41 bd b7 cc 75 bd 0f 31 9b 3c 1c 8d 0d bd
       -0.047144096 -0.060009684 0.018944291 -0.0345584
000230 a8 5c 5c bd 5d c5 1c 3d 94 7a d8 3c 10 66 72 bd
       -0.0537993 0.038274158 0.026425637 -0.059179366
000240 4e 4b 80 3d c3 4a bf 3b 6d 14 7d 3d b7 26 8c 3d
       0.06264363 0.0058377697 0.061787058 0.06843322
000250 5c ca e4 3c ff 07 d0 bd 98 fa 82 bd 68 1d 13 bd
       0.027928524 -0.10157775 -0.06395453 -0.035916716
000260 bc 2e 02 bc f8 c5 cc 3d 25 80 cf bd 7a 94 c4 3d
       -0.007945713 0.09998697 -0.101318635 0.09598632
000270 3c df c1 3c eb 32 7d bb 65 58 a2 bd cf 77 c0 bb
       0.023666017 -0.0038635086 -0.07927016 -0.0058736573
000280 66 ec 05 bd 3c 6c b1 bd b2 45 a1 3c a4 24 89 bc
       -0.03269615 -0.08663222 0.019686554 -0.016741104
000290 9d 7e d3 bd 05 b2 a4 3d 96 cc 3c 3b 88 aa 38 bd
       -0.10326884 0.08041767 0.0028808466 -0.045084506
0002a0 05 9d 83 3d 5c e0 58 3d 94 9e a9 3c c3 24 3a 3d
       0.064264335 0.05294834 0.020705499 0.045445215
0002b0 e9 67 34 bc eb 71 70 3d 9b 11 95 bd ab ad b2 3d
       -0.011011102 0.05870239 -0.072787486 0.08724531
0002c0 27 4a 23 bd a8 1a 81 3b ad 80 25 bd 3d 46 4f 3d
       -0.03986564 0.0039399453 -0.040405918 0.050604094
0002d0 7f c4 65 3d bd 79 7e bd 9e 74 ad bb ea 6e 9e 3c
       0.056095596 -0.062127817 -0.005293443 0.019339997
0002e0 83 c1 67 3c b7 14 80 3d 11 af b1 bd 67 3f 86 3b
       0.014145258 0.06253951 -0.086759694 0.0040969136
0002f0 0c df 58 bd 5f cc 15 bd f2 0e f3 3c d7 4d 62 bc
       -0.05294709 -0.036571857 0.029670212 -0.013812504
000300 99 83 45 3b 24 3c 55 bd 56 43 89 3d f9 ad 6c bd
       0.0030138253 -0.052059308 0.067022964 -0.0577831
000310 03 8e 12 bd bf ad e9 bb e6 aa 90 bc 40 18 5f 3a
       -0.035779964 -0.007131308 -0.017659616 0.00085103884
000320 98 4c 98 bd 06 b7 0f 3d 44 be aa bd ce f5 c4 3d
       -0.07436484 0.035086654 -0.083370715 0.09617196
000330 28 fa ed bc da 51 9b 3b 5f 3c 9e bd db 00 3b bd
       -0.029049948 0.004739982 -0.077263586 -0.045655113
000340 30 76 68 bd 45 b6 e8 bb aa 58 9e 3a a9 fa 62 bd
       -0.056753337 -0.0071018063 0.0012080867 -0.05541483
000350 46 65 3f 3d b8 76 ba bb f3 01 88 3c 33 e0 5f 3d
       0.04672744 -0.005690422 0.016602492 0.054657172
000360 82 7a 25 bc e8 a4 5b bc b6 71 7e bd 9d 9e bc bd
       -0.010100009 -0.013406016 -0.062120162 -0.092099406
000370 8e 9a 35 bc b0 dc 0e bd fb 4d 3b 3c 38 ba bf 3d
       -0.011084212 -0.034878433 0.011432166 0.0936169
000380 65 a5 b4 3c fe b9 2e bc 69 11 3e bd 3d ac 8e bc
       0.022051523 -0.010664461 -0.046403322 -0.017416114
000390 9f a6 6c 3d 22 3e ba bd a3 42 13 bd 47 d2 23 3d
       0.05777609 -0.09093882 -0.03595222 0.039995458
0003a0 1c 83 a9 bb d3 93 8c bd bb 21 1d 3d a7 db 0a 3d
       -0.0051731 -0.06864133 0.038362246 0.033900883
0003b0 2a 69 76 bd bf 34 cf bd ae df 21 3c cf a5 77 3c
       -0.060158886 -0.101174824 0.00987999 0.015115215
0003c0 e2 92 bc bd 34 68 b0 bb 98 49 2f bd 09 c2 c7 bc
       -0.09207703 -0.0053835157 -0.042794794 -0.024384515
0003d0 79 a3 57 3d 4f b3 60 bd e5 b9 ac 3c c5 f9 a5 3d
       0.052646134 -0.054858502 0.021084735 0.081042804
0003e0 31 83 7c 3d 16 17 da bb 87 28 d9 3c b9 7d 54 bd
       0.06164855 -0.006655584 0.026508583 -0.05187771
0003f0 eb 83 26 3c 9f e1 3a bd 81 c6 e6 3c 68 ff 6e 3d
       0.010163288 -0.045625325 0.028170826 0.058349043

actor_head2.bias f4 [26]
000000 58 6f 54 bd f0 0f 87 bc 20 28 c5 3d e6 76 b0 3d
       -0.051864 -0.016487092 0.09626794 0.08616428
000010 32 a3 d2 3d 95 5e a3 3d 92 56 0d bd 7e db 6a bd
       0.10285033 0.079770245 -0.034506388 -0.05733823
000020 25 70 45 bc 3c 8a a3 bd 4e 2f c7 3b 96 ab e3 b9
       -0.012050663 -0.079853505 0.006078637 -0.00043424655
000030 18 f4 c5 bb c8 c5 55 bd 05 a3 d7 b9 bf 3f fb bc
       -0.006041061 -0.052190572 -0.00041129455 -0.030670045
000040 1d cf 12 bd 8d 7a 82 bd 3e 47 6e 3d 0f 84 b5 bc
       -0.03584205 -0.06371031 0.05817341 -0.022157697
000050 e7 e5 f1 bc c9 77 f3 bb e9 bd c0 bd d5 f7 41 bd
       -0.029528571 -0.007430051 -0.094112225 -0.04735549
000060 88 05 8c 3d d3 da 26 3d
       0.068369925 0.04073603

critic_head.weight f4 [1, 128]
000000 32 a3 01 3d 05 31 77 bd 8e 3d 73 bd d7 15 c6 3d
       0.031649776 -0.060349483 -0.059384875 0.09672134
000010 a0 00 43 3d 40 2c 72 bd 01 3b 9a bd 4c 26 ca bd
       0.047608018 -0.05912423 -0.07530785 -0.09870586
000020 05 26 df 3d fb 39 82 3d 01 d3 e8 bd d1 5f 4e bd
       0.108959235 0.06358715 -0.11368371 -0.050384346
000030 8a 33 4d 3d 9d 61 c3 bd 27 27 51 3d 9b c1 87 3d
       0.05009798 -0.09540103 0.05106273 0.06628724
000040 c3 80 ad 3d 07 fd 8c bd df 95 53 3d e5 5a e4 3d
       0.08471825 -0.06884199 0.0516566 0.11150149
000050 c8 ea db 3d 98 a9 dc bd bd ef 49 bd ea f2 bb bd
       0.1073814 -0.10774535 -0.049300898 -0.091771916
000060 78 1d e8 bd d8 09 6f 3d 43 c9 c6 bd 38 d1 be 3d
       -0.11333746 0.058358997 -0.097063564 0.09317249
000070 ad b2 94 bd 14 fb f0 3c 72 33 6e bd 54 97 9c bd
       -0.07260642 0.029416598 -0.05815453 -0.07646051
000080 83 15 a0 bd ff 32 ed bd eb 0e 91 3d 83 c5 15 3d
       -0.07816603 -0.11581992 0.070829235 0.036565315
000090 8a ed da bd 82 4c be 3d 78 83 cc bd 13 45 96 3d
       -0.10689838 0.092919365 -0.09986013 0.073373936
0000a0 32 9d b2 bd 8b c1 3f 3d 7f 0a 85 bd a1 af e7 3c
       -0.08721389 0.046815436 -0.064961426 0.028281989
0000b0 8f af c5 bd 9e db c5 bd f1 97 a1 bd b4 48 7d 3d
       -0.09652626 -0.09661029 -0.07890309 0.061836913
0000c0 7d 0d ac 3d d0 a6 be bd 8b 61 c7 3d 58 24 7f bd
       0.0840101 -0.09309161 0.09735402 -0.06229052
0000d0 35 9a 9c 3d 9d c5 a6 3d d4 3d b8 bd 57 27 d9 bd
       0.076466 0.081431605 -0.08996168 -0.106032066
0000e0 fb 59 82 3d 74 a1 b4 3d 2e c1 bc bd c2 41 23 bd
       0.06364819 0.08819857 -0.092165336 -0.039857633
0000f0 d1 23 b5 bd 59 31 fd 3c f4 45 00 bd d7 7b 90 bd
       -0.08844722 0.03090732 -0.031316712 -0.070548706
000100 ed d2 93 3d a2 ce d0 3d 68 d9 ff bc 3e d8 75 3d
       0.07217965 0.10195662 -0.031231597 0.060020678
000110 81 05 44 3d 3c 60 40 bd 55 2d 59 bd ca 55 6c bd
       0.04785681 -0.046966776 -0.053021748 -0.057699002
000120 86 a0 75 3d e5 d3 60 bd ba 4d 8b bd 2c 51 14 3d
       0.05996754 -0.05488958 -0.068019345 0.036210224
000130 82 b6 24 3d 18 09 3a 3d c4 79 97 bd 7f 06 35 3d
       0.040213116 0.04541883 -0.07396272 0.04419565
000140 4f 8e ee bd 43 16 10 3d d0 75 99 3d e4 87 07 bd
       -0.11648237 0.03517748 0.07493174 -0.03308858
000150 ce 85 cb bd 47 7e 12 3d 82 5a 8e 3d 7d 5b 82 bd
       -0.099376306 0.03576496 0.06950857 -0.06365106
000160 81 88 ed 3d 40 6b a6 bd d5 72 ee 3d ad 68 03 bd
       0.11598302 -0.08125925 0.11642996 -0.03208225
000170 cc c4 1e 3d e9 45 82 3d 05 8d 75 bd 99 aa 64 3d
       0.0387619 0.063609906 -0.05994894 0.055826757
000180 58 64 12 bd fe 02 43 3d ec e7 df bd 8a 4b 56 bd
       -0.035740227 0.047610275 -0.109329075 -0.052318133
000190 13 87 5d bd d6 93 9d bd b4 76 b1 3d 59 4f c2 bd
       -0.054083895 -0.07694213 0.08665219 -0.094877906
0001a0 b3 9a ba 3d fb fe 68 bd 02 4e d9 3d da c5 63 3d
       0.09111538 -0.056883793 0.10610582 0.055608608
0001b0 de 2b b1 3d 9e 13 61 bd d7 9a d9 bd ed f0 ad bd
       0.08650945 -0.05495035 -0.106252365 -0.084932186
0001c0 9d 03 e8 bd 4f 7a 30 bd 1c 8f 87 3d 25 79 5d 3d
       -0.11328814 -0.043085393 0.06619093 0.05407061
0001d0 35 16 ee 3d 34 f1 82 bd fe e2 9d 3d b8 ae 02 3d
       0.116253294 -0.06393662 0.07709311 0.031904906
0001e0 ff b1 f1 3d cc b7 70 3d 7a a7 52 3d 29 c8 d8 bd
       0.11801528 0.058769032 0.05142925 -0.105850525
0001f0 4c 3d 3b 3d f0 98 6e 3d 72 37 0e bd 52 0d 17 3d
       0.045712754 0.05825132 -0.034720846 0.036877938
