models/ppo_gear_placer_best.pt (torch, 127406 bytes, 9 tensors)

shared_layers.0.weight f4 [128, 7]
00000000: 0ad3 803e 50da 3cbe fab2 8e3e fc79 88bd
00000010: 8ce8 773e 3eb5 9abe 30e6 603e 1205 323e
00000020: 7318 973e 1d54 adbe 7c7d 44be cccf 1cbe
00000030: 80f0 b2be 9ce7 61be c971 88be c726 7dbe
00000040: fe67 6ebe 519c 66be 36a3 2e3d d3bf b63e
00000050: 5164 a7bd af75 363d 57ad fc3d 87b6 06bd
00000060: 33ee 4cbe fa9f 87be 3cc3 9bbd 0030 33be
00000070: d744 4e3e ce84 a7be 8e85 bebe 2392 5bbe
00000080: f0f9 473e 08ce 493d b41b 0a3d 48c4 0f3e
00000090: 2264 90be 9e6c 9e3e 7a21 8fbe c105 6dbd
000000a0: e0bc 1bbd 7fdb babe 5721 873d 5241 a8bc
000000b0: 117f 883e 6b5b 723d d93c f33d 7c11 afbd
000000c0: 0779 423e 241c de3d 20ab 613c 1aec 99be
000000d0: eaa8 32be 80b4 f6bd ca12 253e 3a7a 95be
000000e0: b099 2dbe a239 2e3e f98a b03e 30e6 f9bd
000000f0: edca 8c3e 80bd 2cbc e4b1 fabd b469 55be
00000100: 826c 43be 8b57 ae3c c5b0 f2bc a78a a9bd
00000110: dfe8 a73e d2bb 903c cbb3 babd 7710 9b3e
00000120: 388b 72be 706b 913d 6bb2 583e b69a 233e
00000130: 3983 113e 4bf5 8f3e 2b9e 673e 0e0b 923e
00000140: 4fe8 d43c 1c43 58be 809c 3dbb 84cc 7c3e
00000150: 7e51 be3d 3d01 383e 4610 c1be f4ac b63e
00000160: 3108 753e 8743 60be bb78 b73e b0a4 1f3e
00000170: 71f9 913d 50bb 2b3e 3668 3ebe ce90 56be
00000180: f66d 09be 6193 8dbe b89b 373b ac84 35bd
00000190: 8bb9 3a3e a955 c2bc 81eb 8f3d 1837 b23d
000001a0: d546 44be 08f5 a1be 0941 40be 8d27 e83d
000001b0: 63ff a13e 8b25 1f3e 6c4a a3be e8ab cb3c
000001c0: 0da2 99bd 8c10 153d 7632 533c 9e88 a7be
000001d0: 5f21 24bd 493d ba3e f706 b03c 305b 733c
000001e0: 3d2b c03e 72dc 8ebd 57a9 afbe e09c 42bd
000001f0: 2899 2fbd 4158 a63e 2197 a13e 50d4 c1bd
00000200: 0016 773c 5033 b43c c65f 93be 1e6e 3f3e
00000210: 3bba 6fbe 2b9f 74be 5b49 bebe e286 233d
00000220: 960d 93be e3de e7bc 3614 49be 02d5 b0be
00000230: 32ec febd 0ecd 37be cfae 4b3e c811 dcbc
00000240: 1daa 23be 9313 ac3e 6949 afbe 9416 babe
00000250: c9b0 a13e df1e 5ebc b512 d1bd cf91 853d
00000260: b097 a83d f1f1 8abd 716e 35bd c1d3 90be
00000270: 6e2e 853c 9572 923e 9a24 273e 565e 143e
00000280: 17d8 643e 17fb b3be c55d 8f3e 2788 a23e
00000290: b8ed 99bd 63a7 8e3e e85c 58bd b0b2 ab3d
000002a0: 3351 a8be d3ad 843e 17d4 3ebe 1a19 33be
000002b0: ffec ebbd 1ec5 24be 9baf b93e 2d20 acbe
000002c0: 54a6 6fbe 5214 5ebe e8a5 5ebe 6710 c5bd
000002d0: 6020 edbd 457d a5bd 7969 dfbd ba7f 92be
000002e0: 2b09 b63d cdec 033e 237d 823e 20ea 9ebc
000002f0: 9613 bdbe ae9a 83be 830a 1dbe 7175 f5bd
00000300: 0ba0 483e b2a0 fcbc 5891 ef3d 32d9 d4bb
00000310: 5036 be3e 671d 143e a404 87be e9d4 ac3e
00000320: eb03 9abe f223 393e 723b 623e 19bf 773e
00000330: 92fe d83d 1402 783e e92c a33e 3393 85be
00000340: 6048 febd c486 92be a5c9 c83d 7212 833d
00000350: a2ea 39be 5f9d a2be e005 8cbe bc16 c6bd
00000360: b8e7 be3e 5eba 503e 9578 a23e 0110 f23d
00000370: 826a b93e 81d8 a7be bdc0 36be 8d51 8fbe
00000380: 74e3 9c3d 2cfb 69bd 7629 803d 7a22 a8be
00000390: 0902 a8bd 555d 873e 2b1b 97ba e0cb 233d
000003a0: 8769 f13d 4967 af3d 4f69 37be 566f 0f3e
000003b0: 00a1 b83c 3c0e f53d 85c2 a73d 9007 9bbe
000003c0: 6490 a9bd 9faa a23e 3c09 9d3e b53d 8f3e
000003d0: c11d 003e b1e5 883d f230 ebbd 672e c73d
000003e0: 5783 efbb b1a5 12bd 8a7a 7e3e 968c 82be
000003f0: 8f0a 8e3e be0f c1be b187 52be 200b 303c
0.2516101 -0.18442655 0.27870923 -0.06663892 0.24209803 -0.30216402 0.2196281 0.17384747
0.2951084 -0.33853236 -0.19188493 -0.15313643 -0.34949112 -0.22061008 -0.2664931 -0.24721824
-0.23281857 -0.22520567 0.04263612 0.35693225 -0.08173431 0.044545826 0.123377495 -0.032888915
-0.20012741 -0.2648924 -0.076055974 -0.1749878 0.20143448 -0.3271851 -0.3721127 -0.21442465
0.19528937 0.049268752 0.033717826 0.14039719 -0.28201395 0.30942243 -0.27955228 -0.057866815
-0.038021922 -0.36495587 0.06598156 -0.02053896 0.26659444 0.059169214 0.1187684 -0.08548257
0.18991481 0.10845211 0.01377371 -0.30062944 -0.17447248 -0.120461464 0.16120449 -0.29194814
-0.16953158 0.17014173 0.34481028 -0.12202108 0.2749857 -0.010543227 -0.12240961 -0.20841104
-0.19084361 0.021281978 -0.029625306 -0.08278399 0.32794854 0.017667685 -0.09116324 0.30286
-0.2368592 0.0710057 0.21161811 0.15976986 0.14210214 0.2811683 0.2261893 0.2852406
0.02598968 -0.2111935 -0.0028932393 0.24687392 0.09292887 0.17969222 -0.37707728 0.35678828
0.23928906 -0.2190076 0.35834298 0.15590167 0.07127655 0.16770673 -0.18594441 -0.20953676
-0.13420853 -0.27651504 0.00280164 -0.04431598 0.18234842 -0.023722487 0.07027341 0.087019145
-0.19167645 -0.31632257 -0.18774809 0.11335669 0.31640157 0.15541665 -0.31892717 0.024862245
-0.07501612 0.036392733 0.012890449 -0.32721418 -0.040070888 0.36374882 0.021487696 0.014853284
0.37532988 -0.0697564 -0.34308884 -0.04751289 -0.04287067 0.32489207 0.31560615 -0.094643235
0.015080929 0.021997124 -0.28784007 0.1869435 -0.23410885 -0.23888843 -0.3716534 0.039923556
-0.28721303 -0.028304523 -0.19636616 -0.34537512 -0.124473944 -0.17949316 0.19890903 -0.026863948
-0.15982862 0.33608684 -0.34235695 -0.3634535 0.3158019 -0.013557165 -0.10208646 0.065219514
0.08232057 -0.06784428 -0.04429478 -0.28286555 0.016257491 0.28603044 0.16322556 0.14489111
0.22348057 -0.35152504 0.28001228 0.317445 -0.075160444 0.2786208 -0.052822977 0.08383691
-0.3287445 0.25913867 -0.18635593 -0.17490044 -0.11519813 -0.16090819 0.3626679 -0.33618298
-0.23403293 -0.21687439 -0.21742976 -0.09622269 -0.11578441 -0.08080534 -0.10908789 -0.28613073
0.088884674 0.12883301 0.25486097 -0.019398749 -0.36929005 -0.2570395 -0.15336041 -0.11985291
0.19592302 -0.030838344 0.11697644 -0.0064956183 0.37150812 0.14464341 -0.26370728 0.33756188
-0.30081114 0.18080118 0.22092989 0.24193992 0.105954304 0.24219543 0.318702 -0.26088867
-0.12416148 -0.28618443 0.09804086 0.064000025 -0.18155912 -0.3176069 -0.27348232 -0.09672305
0.37286162 0.20383593 0.31732622 0.11819459 0.36214072 -0.32782367 -0.17846961 -0.27991906
0.07660571 -0.0571243 0.06257908 -0.32838804 -0.08203513 0.26438394 -0.0011528482 0.039989352
0.11787706 0.08564622 -0.17911266 0.14007315 0.022537708 0.119656056 0.081913985 -0.30279207
-0.082794935 0.317708 0.30671108 0.27976766 0.1251135 0.06684435 -0.11483945 0.097256474
-0.007309358 -0.035802547 0.24851432 -0.25497884 0.2774243 -0.37707323 -0.20559575 0.01074484

shared_layers.0.bias f4 [128]
00000000: 8ea6 6f3d ff85 873e 3146 913e 0ee2 8dbe
00000010: 4b14 b53d 878c 083e c5b4 60be 587c aabe
00000020: ec9a 85be 5ce3 803e 4951 a7be 4235 5fbe
00000030: dcb4 a83d e697 4abd 9b6e 15be a017 06be
00000040: dbd9 cbbd 7cd7 48be 7027 d4bd 21fb 33be
00000050: c00a 7e3e 21ff 1ebe 9952 bd3e d0e5 10be
00000060: 9d8e ae3b 181a 44be 5ee3 563e 29fa 9fbe
00000070: f153 4f3d 5a09 afbc 6926 28bd 6887 11bd
00000080: a5dc a93e 8fe2 873e ee1f 65be 5fdb 44be
00000090: c06c bd3d 3275 0c3e 90bb f73d 400a 8a3b
000000a0: 2892 8ebe 7e6e 55be f116 1c3e e8bd 953e
000000b0: 40bf a2be 0491 92be 868f 7ebe 8954 9cbe
000000c0: 3d75 afbc b2aa 8e3e a730 93be 06e6 cfbd
000000d0: 827c 433e c093 423c 725f 09be 27ff 963e
000000e0: edd0 ea3c 150f a43e e27a 5e39 70f4 4cbe
000000f0: c7fc 99be c890 50bd 7503 9bbc ac30 303e
00000100: 3a9a 51bd 0fd3 bd3e 5e51 983e 9354 37be
00000110: c20c 80be ad3e 98be 5c0e 96be fb79 d53d
00000120: 4285 363e 6abd b9be cfdd a0be 5764 6abe
00000130: a633 2e3e c89c 97bc e0d2 85bc f5b6 a4be
00000140: f1ac 0f3d 24b3 ffbd 2e26 bdbd b2c2 6c3e
00000150: 7545 6fbe 4f45 a93d 08da 493e 1f1a be3e
00000160: f849 8f3e cf31 4cbe e410 22bb f3ce 923e
00000170: 3b7a c03d d2d9 8dbe ce84 e53d 7125 2ebe
00000180: db1b 7fbe 7ad8 383e 6664 843e 2a51 5c3d
00000190: 8bfa db3d 96ec 11be 2128 fbbd e7c8 96be
000001a0: 32e7 b4bc fc86 9d3e 9981 873e 6827 afbe
000001b0: 2e5e 123e d46e 153e d2a7 a53e 6e96 ae3e
000001c0: 43c6 923e 78e1 cf3d eb79 bbbd f82d 3fbe
000001d0: 717e 8ebe 21fa 833e 006c d7b9 7501 b93e
000001e0: 5d49 acbe eeda dd3b d959 b8bd 8450 0d3e
000001f0: 04f4 a63e d01e 5c3d bda9 9dbe 5d46 5ebe
0.05850845 0.26469418 0.28373864 -0.2771153 0.08841761 0.13334857 -0.21943958 -0.33297992
-0.2609476 0.2517346 -0.32679203 -0.2179766 0.08237621 -0.049461268 -0.14592974 -0.1309495
-0.09953662 -0.19613451 -0.103590846 -0.17576267 0.24808788 -0.15527011 0.3697708 -0.14150167
0.0053270594 -0.19150579 0.20985171 -0.31245545 0.050617162 -0.021366764 -0.041052256 -0.035529524
0.3317615 0.26540038 -0.22375461 -0.19224308 0.09249258 0.13716581 0.120963216 0.0042126477
-0.27845883 -0.2084293 0.15243126 0.2924645 -0.31786537 -0.28626263 -0.24859437 -0.30533245
-0.021418208 0.27864605 -0.28748056 -0.10151295 0.19090465 0.011876047 -0.13415316 0.2949154
0.028664077 0.32042757 0.00021217347 -0.2001512 -0.30075666 -0.050919324 -0.018922547 0.17206067
-0.051172473 0.37075087 0.29749578 -0.17903356 -0.25009733 -0.29735318 -0.2930783 0.104236566
0.17824271 -0.36277324 -0.31419227 -0.22889839 0.1701189 -0.018507376 -0.016335905 -0.32170835
0.03507704 -0.1248534 -0.09235798 0.23121145 -0.2336634 0.08265173 0.19712079 0.37129304
0.2798612 -0.19940875 -0.0024729306 0.28673515 0.093983136 -0.27705246 0.11206971 -0.1700647
-0.2491297 0.1805133 0.25857848 0.05378834 0.10741147 -0.14250407 -0.12263513 -0.2945015
-0.022082899 0.30767047 0.26466063 -0.34209752 0.14293739 0.14593059 0.323546 0.34099144
0.28666887 0.101504266 -0.091541134 -0.1866988 -0.27830842 0.2577677 -0.00041088462 0.36133924
-0.33649722 0.006770483 -0.09001512 0.13800246 0.32608044 0.053740323 -0.30793563 -0.21706529

shared_layers.2.weight f4 [128, 128]
00000000: f768 c6bc b3ff 883d b9dc 2e3d 6c46 ed3c
00000010: be49 c0bb 9fc7 6f3c ee9d 003d bed0 1fbd
00000020: 6e35 643d c5d1 b83d f957 c33b 4796 653d
00000030: d5d5 5a3d d075 3d3d 5179 94bc e251 65b9
00000040: 46bd 5d3d db77 b83d 612b a83d a2c9 263c
00000050: 09a7 0b3b c6dd 783d 6e1e 98bc 0de5 a6bd
00000060: d056 9bbd a155 21bd 0e89 763d 1f1d 913d
00000070: 63f4 983d 9c4a 8c3d 0b4f c03d c8a4 32bd
00000080: acd2 953d cddf 9abd 0ee8 063d bb31 833d
00000090: 49dc b8bc e415 7f3c 30a6 b6bd 7556 da3c
000000a0: 639f a53d 7938 c53d 5eb4 163d 2061 1f3d
000000b0: 1018 38bd 343d 25ba 23a4 8abc 4b5c 15bd
000000c0: 1a94 0fbc bacb cb3d a4be edbc 114f a1bc
000000d0: 4a87 3fbd e368 5cbd bad4 40bd d04e babd
000000e0: ad3d 5ebc 996a 99bd 0a35 3f3d 60c1 90bd
000000f0: 6005 d0bc 6c57 48bb e973 a53d 1369 1f3d
00000100: 5687 83bd a9d0 6a3b 5380 bf3d 14ba ba3d
00000110: 2e04 46bd 91b3 aa3d 3a89 a3bd 7807 e93c
00000120: c1e8 61bd abe4 33bd 5e59 c4bc 372b 93bb
00000130: c421 7abd a419 e63b fb85 933d dfc0 27bd
00000140: 2bb1 3dbb 70fa 84bd 3e24 66bd 35c9 d9bb
00000150: 9a46 623d ddcc 44bc dcba c73c d3e9 2dbd
00000160: 84c1 783c b8d4 24bd 6519 c1bc aec4 1e3d
00000170: e34d 84bc c265 773d 5cee 9fbb b38c 463d
00000180: 380c d1bb cbcb 14bd de84 9a3d a29c 81bd
00000190: cdcf f83c 466c 4abd 6fa4 b23d 6273 7e3c
000001a0: 6165 69bd 7dbb 94bc bffd 763c cb3c 883d
000001b0: 6159 babd 5742 cc3d b00f a1bc 488a 16bd
000001c0: 2f05 903d cc8d 44bd c6e0 96bd 837c 97bc
000001d0: e03a 923d f06a a1bd 6cb9 8f3d ebf2 71bd
000001e0: 994d e7bc 08e6 793d 771f 8fbd 2533 9abc
000001f0: d36e 8abd 6a06 663d 4c70 50bd c66c 7a3b
00000200: c30d 91bc d3a9 8ebd 720c 2f3d 7fa4 51bd
00000210: 702f 673d 992d 86bd 3b49 97bd 689c 4f3d
00000220: 4491 88bd 40e4 883d 51b4 8e3d a2dc 7bbd
00000230: 5dea bc3d d80b 61bd fc94 d33c 5e28 87bd
00000240: 7048 40bd fff0 fe3c 723d c5bd c4ef b8bd
00000250: 8790 f8bc 87e2 35bd 41ce a5bc e764 40bd
00000260: 030d aebd 87e6 303d f733 643d c6f3 0a3d
00000270: 0a62 8a3d 00bd 943a 9029 413c 53e5 8c3d
00000280: e2e4 94bd 3eb9 2abd ce4d 2ebc 7c4e c2bd
00000290: e344 21bc cdb9 973d 9887 44bd 5304 08bd
000002a0: 74ae d43c 9c8c b03c 3b99 bd3d 8682 0d3d
000002b0: 5712 983d 4c58 9fbb 7b71 ca39 0a65 673d
000002c0: 3394 843d e973 a1bd 7947 b9b9 f46e 673d
000002d0: b166 b5bd 1dc7 8b3d b43f 31bd bd15 49bd
000002e0: e39d 91bd ea70 2c3b 6cdb 09bd 6a73 78bd
000002f0: ad1e 463d 999b 8cbd b2c5 bfbc f87c 893d
00000300: e7d0 763d faee 84bd 5c33 5ebd abcf a6bd
00000310: 82c6 28bd d564 843c 1701 833c 9a0b bebd
00000320: 8201 ca3c d626 c6bd 861b 97bd 52d5 9abc
00000330: e438 8b3d 4716 7b3d 7647 8b3d 5bbb 34bd
00000340: f809 873d 3e12 00bd 2d17 3ebb fa26 05bd
00000350: 3f03 84bd 25f9 a5bd 5dee ee3c 4d85 5cbd
00000360: aed4 fb3c 2777 243d a4f2 92bd f9dc ad3c
00000370: 0edb 4abd bf00 913d 6d5f 003b 3555 56bd
00000380: 2c49 34bc c511 b83c d932 ccbd 59ff e9bc
00000390: 9824 643d e72e 323d 5f9e ab3c 674e e1bc
000003a0: ee72 ae3c ad29 0cbd ad56 efbc f34c 3fbd
000003b0: 8841 c43d 0b1d 46bd 3abf 583c 68c6 b5bd
000003c0: 2340 713d e85b 41bc 008a 273c 4260 8fbc
000003d0: 1798 493d 2437 50bd 5fc8 3b3d ef74 223d
000003e0: 9c2b 2bbd 93a8 933d f8cf 2dbb b05d 183d
000003f0: cf04 1ebd 139c 0cbb ee89 5bbc 5b90 ec3c
-0.024219973 0.06689396 0.042690966 0.028964244 -0.0058681658 0.014634996 0.031400613 -0.03901743
0.055715017 0.09024385 0.005961415 0.05605152 0.053426582 0.046254933 -0.018124254 -0.00021869646
0.054135583 0.090072356 0.08211399 0.010179909 0.0021309278 0.060758375 -0.018569198 -0.08149157
-0.075849175 -0.039388303 0.0601893 0.070856325 0.07468488 0.06850168 0.09390076 -0.04361418
0.07315573 -0.07562218 0.03293615 0.0640597 -0.022565978 0.015569184 -0.089184165 0.026652554
0.08087041 0.09629912 0.036793105 0.038910985 -0.044944823 -0.00063033705 -0.01692397 -0.03646497
-0.0087633375 0.09950967 -0.029021569 -0.019691022 -0.04675988 -0.053810965 -0.04707787 -0.090970635
-0.013564509 -0.07491035 0.04668144 -0.07068133 -0.025393188 -0.0030569686 0.08078749 0.038918566
-0.06422298 0.0035829938 0.09350648 0.09117523 -0.04834383 0.08335031 -0.07985158 0.028445944
-0.055153612 -0.043919247 -0.023968395 -0.0044912356 -0.061067358 0.0070220996 0.07203289 -0.04095542
-0.0028944712 -0.0649308 -0.056186907 -0.0066463 0.055243112 -0.012011734 0.024381094 -0.04245932
0.0151828565 -0.040241927 -0.02357168 0.038761787 -0.01615042 0.06039978 -0.0048807096 0.048474025
-0.0063796304 -0.036327165 0.07544874 -0.063287035 0.030372525 -0.049419664 0.087227695 0.015530439
-0.056981448 -0.018155808 0.015075146 0.0665222 -0.09099079 0.09973591 -0.0196608 -0.03675297
0.07032239 -0.04798679 -0.07367091 -0.018491989 0.07140136 -0.07881725 0.07017788 -0.059069555
-0.028235244 0.06101039 -0.06988423 -0.018823216 -0.06759419 0.05615846 -0.050888345 0.0038211807
-0.017706757 -0.06965985 0.04273648 -0.051182266 0.056441724 -0.06551666 -0.073870145 0.05068627
-0.06668332 0.0668416 0.069679864 -0.06148971 0.09224389 -0.054942936 0.025827877 -0.06599496
-0.04694408 0.031120775 -0.096308604 -0.09030107 -0.030342354 -0.044405486 -0.020239951 -0.046971228
-0.084985755 0.043188598 0.05571362 0.033923887 0.06756981 0.001134783 0.011789694 0.068796776
-0.072702184 -0.041680567 -0.010638667 -0.09487626 -0.009843084 0.074084856 -0.047980875 -0.03320725
0.025962092 0.021551423 0.09257742 0.034548305 0.07425373 -0.0048628207 0.00038612992 0.056492843
0.06473579 -0.07883436 -0.000353392 0.056502298 -0.088574775 0.06825087 -0.043273643 -0.049092997
-0.071101926 0.002631242 -0.033656523 -0.060656942 0.0483691 -0.068656154 -0.023409698 0.06713289
0.06025782 -0.06490894 -0.0542482 -0.08145078 -0.041204937 0.016161362 0.01599173 -0.092795566
0.024658922 -0.09675376 -0.073782966 -0.018900547 0.067979604 0.061300542 0.068007395 -0.04412399
0.06593698 -0.031267397 -0.0029005513 -0.032507874 -0.06445932 -0.08104161 0.029166395 -0.053838063
0.030741062 0.040152695 -0.07175186 0.021223532 -0.049525313 0.070802204 0.0019588128 -0.052327354
-0.011003774 0.02246941 -0.09970636 -0.028564142 0.05569896 0.04350176 0.02094954 -0.027503205
0.021295037 -0.034219433 -0.029216135 -0.046704244 0.095828116 -0.04836754 0.013229186 -0.088757336
0.058899056 -0.011801697 0.010225773 -0.017501954 0.04921731 -0.050833836 0.045845386 0.039662298
-0.041789636 0.07209887 -0.0026521664 0.037198722 -0.038578805 -0.0021455332 -0.013399584 0.028877428

shared_layers.2.bias f4 [128]
00000000: 6606 80bd fa4c ac3b 0fee 8abc 01c3 b93c
00000010: 7d37 c83c b7a0 033d 826c 30bd a213 c8bd
00000020: aa23 1fbd d842 543c 3448 75bd 8dc5 8a3d
00000030: 158d 913d 54db 023d 20c6 ba3a d60a d6bc
00000040: 3466 073c 6e02 ce3c 0f61 a4bd eb94 803c
00000050: 5ee0 ccbc 512c 7f3d 4c33 ac3d 252c a43d
00000060: 3699 013d e932 cfbd c4dd 593b 7bc9 173b
00000070: 3f27 223d 0136 99bd 781e 453d ef6b 893d
00000080: c81d 873d cb47 293d 285a 7dbd 7b43 d3bc
00000090: bf72 923d 8d42 913d f0a9 98ba c65c 84bd
000000a0: 77d2 a6bc 8680 1dba 5271 83bd a352 38bc
000000b0: 8eac 803d 7de0 583b ad74 473b f005 1cbd
000000c0: dee1 213d 9256 983d 09c7 6f3d 4952 29bd
000000d0: 5393 48bd e2df 4b3c c135 33bd 5191 18bd
000000e0: 9bed 873d b8ab 6ebc d29d 8bbd e738 78bd
000000f0: 48a5 87bd 133d 9cbd 9a99 0b3d c18c 413c
00000100: 4746 663d 1afd 953d 31e7 ce3b 9c4b 9cbd
00000110: c93a 913d 58b2 643d fc90 cb3d 9627 353d
00000120: cfe2 863d 1a3a 063d b137 42bd 50a6 e83c
00000130: 2bf5 013d 061f 3a3d 4b3f 07bd 185a cb3b
00000140: 7042 723b 6b4c 753d 6366 78bd 4e8d ca3c
00000150: 7f42 9bbd f128 6a3d 677f 37bd e86d 953c
00000160: 58f6 9b3d c05f fbbc eb0a 91bd 3e9b 89ba
00000170: 0ad0 2fbd 46ff 3abd f60c a23b 8f03 88bd
00000180: 6c4e 99bd 970e 74bc def0 eb3c 91a6 bf3d
00000190: 0220 073d 2cc8 11bd cac1 eb3c d71d a7bd
000001a0: c6db e4bc 17f6 c0bc 5cd7 fbbb 4e4b 46bd
000001b0: b9e9 13bd 9c62 a8bd 108e 613d 13cc 93bd
000001c0: c904 40bd 8852 e93c 45f6 a8bc cebc ea3c
000001d0: 2584 203c 2f85 923d 7fd8 5abc 0b14 15bd
000001e0: 32f2 66bb 78a1 f6bc 4664 32bd 90c9 94bd
000001f0: 0136 a1bd 962e 00bd 9e12 c8bd be99 8ebc
-0.062512204 0.0052581998 -0.016959218 0.022675993 0.024440521 0.03213569 -0.04307223 -0.0976937
-0.03885237 0.01295539 -0.05988331 0.06775961 0.071069874 0.03194745 0.001424972 -0.026128214
0.008264113 0.025147643 -0.08026325 0.01569601 -0.02500933 0.062298123 0.084082216 0.080162324
0.031640254 -0.10117132 0.0033243755 0.0023160863 0.03958821 -0.074810036 0.04812476 0.0671004
0.06597477 0.041328233 -0.061853558 -0.025789013 0.07150792 0.07092772 -0.0011647325 -0.06463008
-0.02036403 -0.0006008226 -0.064180985 -0.011250171 0.06282912 0.003309279 0.0030434534 -0.0380916
0.039522044 0.07438387 0.058539424 -0.04133824 -0.048968624 0.012443515 -0.043752436 -0.03724796
0.066371165 -0.014567308 -0.06817211 -0.06060114 -0.06623322 -0.076288365 0.034082033 0.0118133435
0.056219365 0.07323666 0.0063141813 -0.07631609 0.070912905 0.055834144 0.09939763 0.044227205
0.06586229 0.032770254 -0.047416393 0.028399616 0.03172795 0.045439743 -0.033019345 0.0062058084
0.003696587 0.05988733 -0.06064452 0.024725582 -0.075810425 0.05716795 -0.044799235 0.018240884
0.07615346 -0.030685306 -0.070821606 -0.0010498536 -0.04292301 -0.045653604 0.0049453927 -0.06641304
-0.07485661 -0.014896057 0.028801378 0.09357942 0.03298951 -0.03559129 0.02877893 -0.081599884
-0.027936827 -0.023554845 -0.007685585 -0.04841166 -0.036111567 -0.08221933 0.055067122 -0.072166584
-0.046879563 0.028481737 -0.020625243 0.028654482 0.009797131 0.07154309 -0.013357281 -0.036396068
-0.0035239574 -0.030106291 -0.04355266 -0.072650075 -0.078716286 -0.031294428 -0.09769176 -0.017407294

actor_head1.weight f4 [51, 128]
00000000: ffea 8a3d 1c2c 97bd 79ab 33bc c73f 3ebc
00000010: 5f8d 42bc 54df 933d 43fb 403d e9e7 ae3d
00000020: 6363 7ebd b26c 8bbd a779 253a 5146 b53d
00000030: 4b35 b7bc 8cef 9e3d 3450 d8bb 0f76 8abd
00000040: 1401 9b3d 2bad 3a3c f826 5c3d 38cc 1c3d
00000050: 3f08 963c b25c 583d f3de 733d 5b15 0dbd
00000060: 2f11 6bbd b0ae c73c b829 a03d 6b55 a53b
00000070: 3237 55bd 2586 a0bd 52b8 c03c 218b b5bc
00000080: c838 473d 1f34 0ebd 5a21 3fbd 8988 d43c
00000090: 2e11 b1bc 9d64 543d 1533 163c ff6d 91bd
000000a0: 4ca7 ab3d cdef 993d bf6c 153d 9f84 9b3d
000000b0: 8629 a3bd ba21 893d 332c 173c d54c 98bc
000000c0: 2bf4 8a3c 19e5 a83d 3252 78bd 018e bbbd
000000d0: 7ca6 06bd c714 993c 0193 c7bc 4dab 8d3d
000000e0: 2991 9f3d 08f5 413d a84f 25bc be1a 0f3d
000000f0: fcaf e93c 6d55 f1bc d102 bb3c c18b 793d
00000100: bbcc bf3d ad4a a63d 28f4 e9bc 150c c33d
00000110: d03e 753d 13b3 9d3c 28ba 933d 84aa 9fbd
00000120: 4e89 563d 5b72 95bd 5650 97bd b8d5 1e3d
00000130: 0ac3 f73b 2768 313c d9f1 eebc 6f97 9ebc
00000140: f5dc c9bc ae95 e33c 23f4 98bd 6535 6abb
00000150: 2f1a 5e3d 92c4 fabc 059c 57bd d11a 51bd
00000160: e667 a43c 0b35 943c cf19 a7bd d5de cabd
00000170: 9cb8 f63c 2f0e c9bb a6cd 7bbd 49cc 873d
00000180: 3941 8fbd 3b7a ddbc 8a58 0b3c 00a0 8cbc
00000190: 6131 a63d a786 a1bc 6843 943d d029 c63c
000001a0: b9d5 8dbc 4316 37bd 53e2 9abd a066 ae3d
000001b0: 6e29 083d a112 c33b a778 cbbd 0292 db3b
000001c0: 21b3 153d f713 4bbd 381e 9d3d f1f0 8b3c
000001d0: 412c 91bd f396 26bd 1810 393d a628 8cbc
000001e0: 5026 a33c e21d 64bd c3b4 9dbd 67aa adbd
000001f0: 014a 8e3d 9906 c8bc 0b3e c63b 706d 44bd
00000200: 050a 863d b501 a63d 435b 68bd c8e0 3bbb
00000210: fd0a 2fbd 113e 803d c424 9ebd 5768 08bd
00000220: 39f5 c1bd fa41 3a3d e6c9 ad3c bbad b23d
00000230: ea34 e13c eba4 4e3d bebf 68bc 3859 3bbd
00000240: bf0f 9ebc 8e5a db3c d08d 383d 2d45 00bd
00000250: 49f0 9ebd 3211 3c3d 48aa a3bd 5790 9b3d
00000260: 9cb5 febb e3ab 34bb 95c6 313d e331 84bd
00000270: 98fc 253d 5632 94bd 62b9 d13b a89e f9bb
00000280: 5651 a7bc 2dd9 65bd 97d9 9f3d 5fd2 a23d
00000290: d1d5 3dbd 27a2 9f3c ead6 f1bc d878 c53c
000002a0: d427 c23d 80fb 493c 6f23 9e3d 5545 1cbd
000002b0: 50bb 533d 0e06 783d 1d7f 57bd 83ee 8e3d
000002c0: 4927 483c c798 a2bd eef5 1d3d 905d 7e3d
000002d0: 4279 b2bd 45d6 2fbd 8796 65bd 3a0f 82bc
000002e0: 2ef3 4a3d 0709 c73c cfe6 a83d 3e7f 9ebb
000002f0: 3657 09bc cca8 9cbd 6de8 e9bc f4a6 42bd
00000300: 7494 c4bc 5da7 523d 437c 223d 9981 6abd
00000310: b0be 4dbc 3b8e 8dbd 6850 cdbb 2972 833d
00000320: b81f 74bd 7662 89bd 1638 afbd 2d97 423c
00000330: b163 3bbb 784f 813d 5396 873d 093e 07bc
00000340: 3907 3dbd 7bbd 0f3d 3a2c 933d da89 8b3d
00000350: b6b3 babc d6fa 46bd df90 1e3d 87ac dabb
00000360: 76b3 7e3d d828 8ebc d910 a93d b1b1 02bd
00000370: 1de1 bebb b4df 9e3b 94aa b73d 4d75 a1bd
00000380: ef04 a13d 3f24 813d 0e93 86bd ee0c 51bb
00000390: 772e 88bd 1aa7 3fbc 0777 2fbd 6941 493d
000003a0: 88a4 7bbd f09a c9bc ce2d 0f3d d264 583d
000003b0: 9264 bcba feb4 143d 61b8 6dbd 53b8 a9bd
000003c0: 99f1 863d 556f a03d 2cf7 85bd 1574 a4bd
000003d0: 5193 d4bc cd85 9d3d 6c08 23ba 231c afbd
000003e0: bcc3 76bd 14e9 8e3d 9d5c a03d 0857 483d
000003f0: d061 153d 318d 9f3d 887b f9bc 8e75 073d
0.06783103 -0.0738146 -0.010966175 -0.011611885 -0.011874526 0.07220331 0.04711462 0.08540327
-0.0621065 -0.06807841 0.0006312378 0.088513024 -0.02236428 0.07760534 -0.006601358 -0.06760799
0.07568565 0.0113938255 0.0537481 0.038280696 0.018314479 0.052822776 0.059538793 -0.034444194
-0.057389434 0.02437529 0.07820457 0.005045583 -0.05205459 -0.07838086 0.02352539 -0.022161068
0.048638135 -0.034717675 -0.046662666 0.025944011 -0.021614637 0.051853765 0.009167452 -0.07101058
0.08381519 0.075164415 0.03648066 0.07593655 -0.07966904 0.06695886 0.0092268465 -0.018591324
0.016962131 0.08246822 -0.060625263 -0.091579445 -0.032873616 0.018686665 -0.02436209 0.06917439
0.07791359 0.04735282 -0.010089792 0.034937613 0.028526299 -0.02945968 0.022828491 0.060924295
0.09365221 0.08119712 -0.028558806 0.09523789 0.059874356 0.019250428 0.07213241 -0.07796195
0.052377038 -0.07297202 -0.0738837 0.038778037 0.0075610923 0.0108280545 -0.029168056 -0.019359319
-0.024641493 0.027781334 -0.074684404 -0.0035737392 0.05422419 -0.03061131 -0.052639026 -0.051050965
0.020069074 0.0180917 -0.081592195 -0.09905783 0.030117325 -0.006135724 -0.06147542 0.06630761
-0.06994862 -0.027035823 0.008504996 -0.017166138 0.08114887 -0.019717528 0.07239419 0.02418986
-0.017313825 -0.044698965 -0.07562699 0.08515668 0.033242635 0.0059531485 -0.09935122 0.006700755
0.036547784 -0.049579587 0.076717794 0.017082663 -0.07088519 -0.0406713 0.045181364 -0.017109226
0.01991573 -0.05569256 -0.07700493 -0.08479767 0.06947709 -0.024417209 0.0060498766 -0.04795593
0.0654488 0.08105794 -0.05672766 -0.0028667916 -0.04273509 0.06261838 -0.07721856 -0.03330263
-0.09470601 0.045473076 0.021214437 0.08724543 0.027491052 0.050450247 -0.014205871 -0.045739383
-0.019294618 0.026776578 0.045057118 -0.03131597 -0.077606745 0.045914836 -0.07991463 0.0759589
-0.0077731144 -0.0027568273 0.043402273 -0.06454828 0.040524095 -0.07236163 0.006400273 -0.0076177903
-0.020424526 -0.056115318 0.07805174 0.07950281 -0.04634649 0.0194865 -0.029521424 0.024105474
0.09480253 0.012328029 0.07721602 -0.038152058 0.051692307 0.06055265 -0.05261146 0.06979086
0.012216398 -0.07939296 0.038564615 0.062100947 -0.08714534 -0.042928953 -0.056051757 -0.015876401
0.04954832 0.024296297 0.08247148 -0.004836946 -0.008382609 -0.07649383 -0.028553212 -0.0475225
-0.02399657 0.05142914 0.039669286 -0.0572525 -0.0125576705 -0.06911894 -0.0062656887 0.06418259
-0.05960056 -0.06708233 -0.085556194 0.011876863 -0.0028593356 0.063139856 0.06620469 -0.008254536
-0.046149466 0.035092812 0.0718617 0.068134025 -0.022790771 -0.04857906 0.03871238 -0.006673399
0.062182866 -0.01735346 0.082551666 -0.03190774 -0.0058251754 0.004848445 0.08968082 -0.078837015
0.07862269 0.063057415 -0.06571017 -0.0031898576 -0.066494875 -0.011697555 -0.042838123 0.049134646
-0.061436206 -0.024610013 0.034955792 0.052830525 -0.0014373234 0.03630542 -0.058037166 -0.0828711
0.0658905 0.07833735 -0.06541285 -0.080299534 -0.025949152 0.07691536 -0.00062192115 -0.085502885
-0.06024526 0.0697805 0.078301646 0.048911124 0.036470234 0.07790602 -0.030454412 0.033071093

actor_head1.bias f4 [51]
00000000: eae5 85bd a1b2 b63d 22e8 12bd 3a33 90bb
00000010: 6b70 9fbc d7ba 543d a36c fcbc b73e a13d
00000020: 965c 7fbd c16a 71bd 3701 c23d 4753 c13d
00000030: 349f 16bd 004a 923d 93a7 9e3d d965 67bb
00000040: 53f4 823d 5ba2 fe3b a2e7 f8bc a14b b73c
00000050: 866e 2e3d 4293 6cbd efb3 003c a91e d73c
00000060: 9dfb b5bd e116 7fbd e106 09bd 4010 27bd
00000070: 4dd3 b7bd acb3 92bd 830c 993b 4452 5cbd
00000080: db2c b4bd 214d 553d 13f5 92bc b783 10bd
00000090: d009 74bd 1562 9dbd 5ff4 963c e9de 46bd
000000a0: 9076 86bd 645f ccbc a64e 983d 816e 653d
000000b0: 8357 62bc 60ae 463d 862e 61bc 9709 9bbd
000000c0: 99ea b9bd cc6c a3bd eff9 7f3d
-0.06537993 0.089207895 -0.03586591 -0.004400638 -0.019462785 0.051935997 -0.03081352 0.0787329
-0.062344156 -0.0589397 0.09472888 0.09439712 -0.03677292 0.07143021 0.07746806 -0.0035308509
0.063942574 0.007770819 -0.030383889 0.02237493 0.042585872 -0.057757623 0.0078553995 0.026259737
-0.08885882 -0.06227768 -0.033453826 -0.04078698 -0.08975849 -0.07163176 0.004670681 -0.053789392
-0.08797618 0.05207551 -0.017939126 -0.035281863 -0.05957967 -0.07684723 0.018427072 -0.048552427
-0.06565583 -0.02494783 0.07436876 0.056013588 -0.01381481 0.04850614 -0.013744002 -0.075701885
-0.09077949 -0.07979736 0.062494215

actor_head2.weight f4 [51, 128]
00000000: 0877 d9ba 168e 3ebc ea47 b13d eb18 813d
00000010: 8f9d 80bd ded8 87bc 98d9 0c3d c81a 0d3d
00000020: 220a 373d 4245 f73c 6e76 933d ddf2 a43b
00000030: 3e5f f6bc 7fae 55bd a470 1abd 1000 7c3d
00000040: ad0a 21bd 02c5 57bc 644d b9bd ab7d 8a3c
00000050: aecf efbb 7a6c a03d c2f4 d9bc 794c 163d
00000060: f97d e3b9 61c0 25bc da91 c93c 7339 af3d
00000070: 6140 7c3d 696d 90bc 453f 61bd 09f2 863d
00000080: 7f20 6d3d 044e 473c 9c82 3dbc aaf7 3abc
00000090: 1a37 993d 3569 a7bd db8b b33d ace4 4dbd
000000a0: cea1 733d 88c9 913c 0605 4cbd 4d8a 4dbd
000000b0: 38e0 c13c 9222 9abc 3498 58bd dee0 82bd
000000c0: f152 babc 045a 8f3d f495 833d e185 db3c
000000d0: d3eb f1bb db9a ee3c 4f68 af3c 02a9 04bd
000000e0: 09d4 cd3c 9594 363d 1237 c93d e086 8abd
000000f0: 8b64 c13c 385a 9abd 2ae8 bf3d 4fab bd3d
00000100: 7909 89bd 17e1 a23a 95a8 3bbd e3a4 d9bc
00000110: d48b b8bd fb88 a0bd e90e 12bd 8ee6 afbd
00000120: e9e6 c2bd adb6 2d3d 4c4c feb9 2561 54bc
00000130: 5bc5 0f3d 9c9b 7bbd d92e 043d aa71 20bd
00000140: a37b 8d3d cf53 97bd 1dfc a5bd 1589 c53b
00000150: 87c4 0b3d f4fc 83bd 11b2 013d 6ffa 913d
00000160: b959 713d 25ac 9a3d d676 09bd eef5 973c
00000170: 09f4 b2bd badc 0d3d 95c2 873d a332 37bd
00000180: 6921 993d 9878 063d fc94 853d 2318 a53c
00000190: c44c 153d 08f0 263a 9331 34bd e8f6 2e3d
000001a0: 933c aebb 5b1f 973d 2407 abbd d7d3 4abd
000001b0: b5e0 e1bc 3022 583d 1b01 833d 4acd 543c
000001c0: 442e 483d 83ae 913c e0ff 3bbb 1c04 ffbb
000001d0: 9258 0a3b c112 29bd 3fd2 c33d b769 bdbd
000001e0: 038c 96bd c3ab a6bc 743d 523c 5d1e 89bd
000001f0: 5297 543b cb58 0e3d 6b6f 04bd acf0 94bd
00000200: dd5c dfbc 21ff 4f3d 2e36 713d bf5a bebc
00000210: 5761 eabc d978 58bd 156c 5e3d cfa4 7ebd
00000220: 7b20 80bd 6f04 ee3b 176a 803d f26e 48bd
00000230: 16da 01bd a5c8 bb3c 76cb 40bd caf5 b33d
00000240: 361e 5e3d f4ae 96bb d965 133d cb66 1f3d
00000250: 4f7d 89bc ee21 9dbd ccb2 923c 93b2 aa3c
00000260: f636 5abd ac22 4b3d 345f 11bd 79ee 533c
00000270: 98f4 03bd 3e35 1a3d fe04 8a3b 3ffd 383d
00000280: 5d82 0cbd d1ee fe3c cd33 62bd b85f 853d
00000290: 22d8 a5bd b361 9b3d 7dd4 893d 1d35 01bc
000002a0: 5ca7 ae3d 1b28 89bd f38c 733c a68e 87bc
000002b0: b9b4 823d 4de9 043a 2df3 8ebd 03ff 013d
000002c0: df1c 86bd 19ed ae3d 600d cf3a df81 27bd
000002d0: 2830 a6bc 7eb4 13bd 0c9f e83c f9b0 e3bb
000002e0: bf21 21bd 62b1 953d 4224 a0bc 5b06 06bd
000002f0: 1019 583c 5412 a1bd b0a4 253d 8598 c9bb
00000300: c328 af3d 80dc 7ebc ed6d 4f3d c6b4 a13d
00000310: 2deb 233c 7d53 64bd 9f32 c53d 4092 3b3d
00000320: dc11 1d3d 8ec8 24bd 3afc 1ebd 4f61 3bbd
00000330: 0b05 26bc a0ca 8bbc ad1d 473d 40af 9b3d
00000340: 3ae6 6abd e496 a6bb a623 c4bc 087a 53bd
00000350: e598 99bd 3fcc 783d 8f3c 90bd 4200 623d
00000360: 53ef 78bb 6b86 1f3d 2adf e23c 6e62 a9bd
00000370: 5a57 0dbd 863e 90bd ca94 4d3d 47da 893d
00000380: cc22 36bd c529 2f3d 3a85 b23d f53c e93c
00000390: fed4 e8ba 18e0 923d 02ac c43c 9abc e43c
000003a0: 5192 8e3d 68aa 3dbd f12d 3fbd 5a3d 143d
000003b0: d3d5 8cbd f628 0f3d e73d 6b3d 0501 623d
000003c0: c963 aabd 3b23 8abc 428b 943d 4b86 603d
000003d0: 4a2a 57bd 4ca9 dfbc b7cc 9a3c 82d5 443d
000003e0: cbb4 923d 00e9 12bc c1a4 b2bd cbdc 103c
000003f0: 1de0 70bd b2f1 843c 4e18 b3bd 0e73 953d
-0.001659126 -0.011630556 0.08656295 0.06303581 -0.06280052 -0.016582903 0.0343872 0.03444937
0.044687398 0.030184392 0.07200323 0.0050338344 -0.030074712 -0.052168366 -0.03770508 0.061523497
-0.03931682 -0.013169529 -0.09047964 0.016905626 -0.0073184585 0.0783319 -0.026605967 0.036694024
-0.0004339067 -0.0101166675 0.02460568 0.085558794 0.061584834 -0.017630296 -0.05499198 0.06589133
0.05789232 0.0121645965 -0.011566784 -0.011411587 0.07481213 -0.081743635 0.0876691 -0.050266907
0.05948048 0.017796293 -0.04980948 -0.050180722 0.023666486 -0.018815313 -0.052879527 -0.06390546
-0.022744628 0.06999591 0.06425086 0.026797237 -0.0073828488 0.029126575 0.021412043 -0.03238774
0.02512552 0.044575293 0.09824957 -0.067640066 0.023607513 -0.07536739 0.09370454 0.0926119
-0.0669126 0.0012426701 -0.04581507 -0.026567882 -0.09011045 -0.07838627 -0.03565875 -0.08588897
-0.09516699 0.04241054 -0.000485035 -0.012962614 0.035100322 -0.061427698 0.03227124 -0.0391709
0.069083475 -0.07389032 -0.081047274 0.0060283043 0.03412297 -0.06444731 0.031663958 0.071278445
0.058923457 0.07552365 -0.033560596 0.018549886 -0.08737952 0.03463433 0.066289105 -0.044726025
0.074770756 0.03282985 0.06522557 0.02015311 0.036450163 0.0006368165 -0.04399259 0.042715937
-0.0053172796 0.073790275 -0.08350971 -0.049518432 -0.027572969 0.05276698 0.06396695 0.012988398
0.048872247 0.017783409 -0.002868645 -0.0077824723 0.002110992 -0.04127765 0.09561586 -0.09248679
-0.07350924 -0.020345574 0.012832034 -0.066952445 0.0032438827 0.03475265 -0.03233282 -0.07272467
-0.02726596 0.05078042 0.05888956 -0.02323663 -0.028610868 -0.052849624 0.054302294 -0.062168892
-0.06256195 0.007263712 0.06270235 -0.04893393 -0.031702124 0.022922823 -0.047069035 0.08787115
0.05422803 -0.0045984928 0.0359858 0.03891639 -0.016783385 -0.07672487 0.017907523 0.020837104
-0.05327507 0.049593613 -0.035491183 0.012935274 -0.032215685 0.037648432 0.004212021 0.04516339
-0.03430401 0.031119736 -0.055225182 0.065123975 -0.08097865 0.07586994 0.06729982 -0.007886198
0.08528015 -0.06697103 0.014865148 -0.016547512 0.06382126 0.0005070165 -0.06979976 0.03173734
-0.065484755 0.085413165 0.0015796833 -0.04089534 -0.020286635 -0.036060803 0.028396152 -0.006948587
-0.039338823 0.07309224 -0.01954854 -0.032720905 0.013189569 -0.07864824 0.04044026 -0.006152215
0.085526966 -0.015555501 0.050641943 0.07895808 0.010004801 -0.055743683 0.09628796 0.04579377
0.03834711 -0.040230326 -0.03881476 -0.045747098 -0.010133038 -0.017064393 0.048612285 0.07601786
-0.057348467 -0.0050839055 -0.02394278 -0.05163005 -0.074998654 0.06074166 -0.07042801 0.055176027
-0.0037984445 0.03894655 0.027694304 -0.08270727 -0.034507133 -0.070431754 0.050190724 0.06731086
-0.04446678 0.042764444 0.08716817 0.02847145 -0.0017763672 0.07171649 0.024007801 0.027921963
0.069615014 -0.04630509 -0.046674673 0.036191322 -0.06876721 0.034951173 0.05743208 0.055176754
-0.08319814 -0.016862502 0.07253124 0.05481557 -0.052530564 -0.027302407 0.018896444 0.04805518
0.0716339 -0.008966684 -0.087228306 0.008841704 -0.05880748 0.01622853 -0.0874487 0.072973356

actor_head2.bias f4 [51]
00000000: 2ff7 8cbd afae 5d3c 8641 83bb 588a 96bd
00000010: 2215 91bd aeae 88bd 92a2 913d 9b22 2fbd
00000020: 3e7f 5e3d b97b 393c 34e5 093c 3a88 8d3d
00000030: c2d8 653d f09a 983c eb7c 22bd 1ae2 bb3d
00000040: 0f99 b2bd 162d 333d f805 babc a46d 6ebd
00000050: dcd0 b53b b6a9 7a3c a56c 5d3d e60e 273d
00000060: 39d4 4a3c 4d41 c5bd 048e 813d 7013 573d
00000070: a28e 08bb 3ebd 093d b747 02bd 9f00 7bbd
00000080: 3ce7 973d 0ef7 543d a429 66bd d3eb 243d
00000090: 873f 25bc 3a6b 68bd be26 c8bc 9cac 23bd
000000a0: e1a1 7fbd 5a08 0b3d 4570 40ba 0f63 973d
000000b0: 9f28 d5bc 5476 95bd b099 c13c fc0c 6dbd
000000c0: 9aa1 09bd 8fdd 943d 0a4b 24bd
-0.06883084 0.013530417 -0.0040056137 -0.07350606 -0.07084109 -0.066739425 0.07111086 -0.04275761
0.054320566 0.011321002 0.008416463 0.06910749 0.05611492 0.018628567 -0.039669912 0.09173985
-0.087206 0.04374417 -0.022707924 -0.05821003 0.0055485796 0.015299251 0.05405869 0.040785693
0.012379699 -0.09631596 0.063259155 0.05250877 -0.002083697 0.03362774 -0.031806674 -0.06127989
0.07417151 0.051993422 -0.056192055 0.040263962 -0.010085947 -0.056742884 -0.024432536 -0.039959535
-0.06241024 0.03394351 -0.0007340948 0.07391941 -0.026020346 -0.0729796 0.023632854 -0.05787371
-0.03360138 0.072688214 -0.040110625

critic_head.weight f4 [1, 128]
00000000: 4366 c1bd 1111 4d3c 144e 31bc cea3 2b3d
00000010: 6c44 babc f255 9a3d d5d8 723d f50c b0bd
00000020: 05ee 19bd cc85 573d 0c1e cdbd 46ff 573d
00000030: 8e16 9e3d 5800 a43d a2a3 993d bdfc a43c
00000040: 8b74 cabd 9a3d 8a3d 42db 41bd 2248 293c
00000050: 9921 a33d 9b01 323d d9ca b53b b088 103d
00000060: 6e95 783d 07e7 2ebd 5efb 853d ad0b ab3d
00000070: 8608 57bd b257 68bd 647f a2bd 5256 773c
00000080: 8c54 a53d 28d2 a13d 87d1 8a3d 813b 47bd
00000090: 1491 7cbd 584b 29bd a150 ba3d 7ed6 9d3c
000000a0: d3b0 3d3d 9876 a1bd 1b12 4e3c 9b8c bbbd
000000b0: 7b5d 02bd dcdb 41bd be5c 98bd 32a6 8bbd
000000c0: 1714 87bd 51a2 07bd 9196 6b3d 233f aabd
000000d0: 5fc1 57bd 3e2b 4abd b2d3 393c 10ce f0bc
000000e0: 9c3a 81bc 67c7 273d ceab 653c 5716 65bd
000000f0: 31e4 a5bd 4b1b 5abd 87e0 4a3d a3b8 983d
00000100: a4b8 c03c a891 983c 3f0f 6fbc 6860 5e3d
00000110: 5847 d7bc 0d83 10bd bce4 813c b6a5 153c
00000120: 1685 16bd aa50 b3bd 3b3e cebd ff8e 443c
00000130: 8b3f aabd ff6d c03d b4bc 883d 5c54 afbd
00000140: c5a8 eebc 87f0 aebd 9437 02bd 0be9 b83c
00000150: d84e 85bd a2d9 84bc 315d 763d 5787 c13d
00000160: 023a 94bd fb99 a6bd 6647 93bd f407 50bc
00000170: d48e 993d f047 9cbd b8e0 c93d c9fd 9abd
00000180: 3ba7 053d d521 ca3d 9780 f33c 2cdd 683d
00000190: 19cd a73d d3f9 b9bd 48df 5bbc 3bd0 45bc
000001a0: 773f 7fbc c6db 0ebd f329 86bd 5eed 3e3d
000001b0: e0da 893c 08b4 84bd 8ba3 c0bd 0872 763d
000001c0: 63f9 7dbc 81fb 503d 5eb0 863d 60d3 303d
000001d0: 5823 a63d de9e 563d 2634 0f3d 022b f2bc
000001e0: 4374 97bd 94e9 983d bdf7 a4bd 3e63 393d
000001f0: 0f68 903a 93ea 6dbc d86a c5bd e480 dabc
-0.09443333 0.012516276 -0.010821838 0.041904263 -0.022737704 0.07535924 0.05928882 -0.08596221
-0.03758051 0.052617833 -0.100154966 0.052733682 0.07719146 0.08007878 0.075019136 0.020140046
-0.0988551 0.06750031 -0.04732824 0.010332139 0.079653926 0.043458562 0.005547863 0.035286605
0.060689382 -0.042700794 0.06542085 0.08351836 -0.052498363 -0.056724258 -0.07934454 0.015096264
0.08072767 0.07901412 0.067782454 -0.04864073 -0.061661795 -0.04133162 0.0909741 0.019267317
0.04631121 -0.07883948 0.012577559 -0.09157678 -0.03182743 -0.047328815 -0.07439564 -0.068188086
-0.06595629 -0.03311378 0.05751664 -0.083128236 -0.052674647 -0.049357645 0.011341976 -0.029395133
-0.015775017 0.04096165 0.014018012 -0.055929508 -0.08100165 -0.053248685 0.049530532 0.07457092
0.023525544 0.018624142 -0.014591037 0.05429116 -0.026279137 -0.03528123 0.01585614 0.009133747
-0.036748014 -0.0875562 -0.10070463 0.011996984 -0.08312901 0.0939598 0.06676617 -0.08561012
-0.02913321 -0.08541971 -0.031791285 0.022572061 -0.06509179 -0.016217057 0.060147468 0.09449642
-0.072376266 -0.08134838 -0.071913525 -0.012697209 0.074979454 -0.076309085 0.09857315 -0.07567937
0.032630187 0.09869734 0.029724402 0.05685155 0.08193416 -0.09080853 -0.013419934 -0.012073572
-0.015579096 -0.03487756 -0.0655097 0.04661309 0.016828 -0.06479651 -0.09406193 0.060167342
-0.015501353 0.051021103 0.06576608 0.043170333 0.0811221 0.0523976 0.034961842 -0.029561523
-0.07395222 0.074664265 -0.08055065 0.04526066 0.001101734 -0.014521259 -0.096395195 -0.026672788
