models/ppo_gear_placer_best.pt (torch, 101038 bytes, 9 tensors)

shared_layers.0.weight f4 [128, 6]
0.13380396 0.22323126 0.2524796 0.35742694 0.25802058 -0.12774536 0.07688927 0.17378968
0.084390245 -0.16788161 -0.25680244 0.031933576 -0.24447264 0.08532116 0.321666 -0.3224982
0.3487267 -0.32086107 0.15956692 0.25889727 -0.043102987 -0.14582503 0.011507934 -0.17398244
-0.26059446 -0.14302766 -0.27830753 0.07751929 0.15904628 0.3057052 0.3339648 -0.11912742
0.3659073 0.00015896268 -0.12232388 -0.16780928 -0.3579344 -0.021118471 0.11368554 0.29062396
-0.20586313 0.39815402 0.15434413 0.0801677 0.3066551 0.31105217 0.07037058 -0.05129671
-0.066673905 0.05178528 0.20208465 0.15981956 0.03136226 0.0015575886 -0.1655627 0.26368392
0.2842783 -0.15301006 -0.24935637 -0.056868196 0.31203493 -0.20232412 -0.19082786 0.21074796
0.048159786 -0.37042886 0.32570598 0.19152455 0.016533704 -0.21381935 0.11061639 -0.114527166
0.030696958 0.26666218 -0.2453595 -0.16536182 -0.30658057 -0.34195986 0.053845856 -0.40400612
-0.10222228 0.16810307 0.28302687 0.23875576 0.13709615 -0.26509887 0.19388917 -0.18507808
-0.017809266 0.0041115284 0.39627466 -0.23747163 0.38573876 -0.19867614 0.3252528 0.3317058
-0.41847587 -0.0323283 -0.14917007 -0.28725985 0.20625758 0.4000517 -0.20068395 0.30361444
0.36956537 0.3563066 -0.34386033 0.40446633 0.35814747 0.2052971 -0.08791445 -0.37954587
-0.20899962 -0.035589576 -0.20669426 0.03788747 -0.109063394 -0.21325487 -0.25329813 0.07654208
-0.22881575 -0.2142517 -0.113904074 0.1301368 0.2711826 -0.29809058 -0.16379881 0.04658265
0.2011423 0.087325074 -0.05356566 -0.19121528 -0.27390844 0.3174593 0.12308131 0.08755198
-0.12599517 0.339939 -0.22866327 0.07665533 0.25054532 0.32587254 0.28711522 -0.0141913295
-0.09766065 0.24962108 -0.096626535 0.17718561 -0.37060437 0.07539573 -0.09203161 0.20911297
0.36176977 0.06837055 -0.27325928 -0.39886302 -0.40282792 0.36784446 -0.043837488 -0.23693396
-0.2976367 0.07048455 -0.02187018 -0.25938508 -0.18980582 -0.064234294 -0.21260358 0.14229375
0.39255774 0.2998166 0.031489793 0.15700349 0.25943118 0.2047568 0.26853335 -0.22319275
-0.37284088 -0.35407123 -0.23483998 -0.13292679 -0.26901332 0.019123238 0.3697069 -0.16354863
-0.017817242 -0.16694652 0.07538711 0.19022688 0.11312948 -0.25502473 0.02030471 0.31008548
0.38256037 0.051750265 0.30687365 0.03812476 -0.105249636 0.25701755 -0.2965229 0.037052464
0.22032376 -0.36306986 -0.10982301 0.16027308 -0.22721778 -0.16549954 -0.08669504 -0.17135435
-0.08316953 0.3536514 0.22356966 0.13928159 0.114373654 0.24038555 -0.1635652 0.039589137
-0.08621164 0.030268362 -0.06921017 -0.20342061 -0.30516207 0.087058425 0.3149266 -0.33358163
-0.17282486 -0.23533152 -0.008275362 -0.27230912 0.009554064 0.13998812 0.06629363 -0.23005176
0.11435863 -0.34238717 -0.030982597 0.1102262 -0.19188066 -0.14726101 0.27917653 -0.1438567
-0.32803702 0.008294153 0.2361744 -0.20498067 0.17655359 -0.37834308 0.35481134 -0.078514785
0.31573972 -0.26578754 0.37774003 0.015232861 -0.21225388 -0.016937196 0.18407822 0.1315046
00000000: e803 093e bc96 643e 0245 813e aa00 b73e
00000010: 461b 843e aecf 02be 1f78 9d3d ecf5 313e
00000020: cbd4 ac3d 28e9 2bbe 9c7b 83be c8cc 023d
00000030: 0957 7abe dcbc ae3d 68b1 a43e 7c1e a5be
00000040: 4e8c b23e e747 a4be 8365 233e 2f8e 843e
00000050: c28c 30bd 2853 15be c68b 3c3c 7428 32be
00000060: a36c 85be d875 12be 537e 8ebe 6fc2 9e3d
00000070: 07dd 223e 6485 9c3e 6ffd aa3e 14f9 f3bd
00000080: 3458 bb3e 38af 2639 f184 fabd 32d6 2bbe
00000090: 2d43 b7be a500 adbc f7d3 e83d aacc 943e
000000a0: c9cd 52be d8da cb3e 630c 1e3e f72e a43d
000000b0: e601 9d3e 3b42 9f3e 731e 903d 801c 52bd
000000c0: 548c 88bd cd1c 543d 47ef 4e3e bda7 233e
000000d0: b775 003d 0028 cc3a 4589 29be 9401 873e
000000e0: ed8c 913e abae 1cbe 4757 7fbe a0ee 68bd
000000f0: 0bc3 9f3e 0e2e 4fbe 6168 43be 50ce 573e
00000100: 3243 453d daa8 bdbe efc2 a63e 031f 443e
00000110: b171 873c 76f3 5abe d98a e23d 388d eabd
00000120: 3078 fb3c f287 883e 853f 7bbe 9c54 29be
00000130: 21f8 9cbe 5d15 afbe 798d 5c3d e4d9 cebe
00000140: ea59 d1bd 3623 2c3e e6e8 903e 647c 743e
00000150: ef62 0c3e 0abb 87be e28a 463e 1c85 3dbe
00000160: bde4 91bc 00ba 863b 83e4 ca3e c32b 73be
00000170: 8d7f c53e c271 4bbe 8987 a63e 58d5 a93e
00000180: 7842 d6be ae6a 04bd 0ac0 18be b913 93be
00000190: 3035 533e 94d3 cc3e 1880 4dbe 5a73 9b3e
000001a0: ac37 bd3e d26d b63e 760e b0be 3616 cf3e
000001b0: 1b5f b73e 6739 523e 7e0c b4bd d653 c2be
000001c0: ff03 56be 60c6 11bd a9a7 53be e42f 1b3d
000001d0: a15c dfbd 7c5f 5abe 4bb0 81be 18c2 9c3d
000001e0: ad4e 6abe cc64 5bbe 8a46 e9bd 9542 053e
000001f0: 72d8 8a3e 549f 98be e0ba 27be 73cd 3e3d
00000200: 3ff8 4d3e 7dd7 b23d aa67 5bbd f0cd 43be
00000210: ba3d 8cbe 068a a23e 0e12 fc3d 744e b33d
00000220: e104 01be 7c0c ae3e b426 6abe 78fd 9c3d
00000230: 7a47 803e c4d8 a63e c400 933e c082 68bc
00000240: 4f02 c8bd ab9c 7f3e 22e4 c5bd 2570 353e
00000250: dbbf bdbe 1469 9a3d 127b bcbd b621 563e
00000260: e339 b93e dc05 8c3d a4e8 8bbe c637 ccbe
00000270: 763f cebe 1c56 bc3e f08e 33bd d19e 72be
00000280: d663 98be 345a 903d 1729 b3bc 1fce 84be
00000290: 755c 42be 458d 83bd c1b4 59be 74b5 113e
000002a0: 54fd c83e 9081 993e 71fb 003d 86c5 203e
000002b0: 2ad4 843e c4ab 513e 347d 893e a48c 64be
000002c0: 00e5 bebe d348 b5be e479 70be f61d 08be
000002d0: 1dbc 89be 56a8 9c3c 394a bd3e 4b79 27be
000002e0: 77f5 91bc 07f4 2abe 8f64 9a3d d6ca 423e
000002f0: 6eb0 e73d 9a92 82be 1056 a63c 86c3 9e3e
00000300: f4de c33e 16f8 533d 8b1e 9d3e b528 1c3d
00000310: 1f8d d7bd ce97 833e d9d1 97be 53c4 173d
00000320: 8d9c 613e 4be4 b9be e3ea e0bd a01e 243e
00000330: c7ab 68be b678 29be 2b8d b1bd 8477 2fbe
00000340: c954 aabd cc11 b53e 72ef 643e d59f 0e3e
00000350: bc3c ea3d a127 763e a37d 27be 3828 223d
00000360: ba8f b0bd 5bf5 f73c 10be 8dbd 7e4d 50be
00000370: 343e 9cbe b04b b23d 0f3e a13e 36cb aabe
00000380: 00f9 30be bffa 70be 6295 07bc 1a6c 8bbe
00000390: a688 1c3c 0c59 0f3e f4c4 873d b092 6bbe
000003a0: db34 ea3d 5f4d afbe 37cf fdbc 46be e13d
000003b0: 5d7c 44be 97cb 16be 3af0 8e3e 2c4f 13be
000003c0: 78f4 a7be 33e4 073c b4d7 713e 74e6 51be
000003d0: 77ca 343e 2fb6 c1be d5a9 b53e 5ccc a0bd
000003e0: a3a8 a13e 4e15 88be 2467 c13e 4093 793c
000003f0: 1559 59be e0bf 8abc 007f 3c3e 24a9 063e

shared_layers.0.bias f4 [128]
-0.010404855 -0.16005133 -0.0899345 0.12140613 0.16134667 -0.12660748 0.13137583 0.16081804
-0.11677578 0.049440373 -0.17341205 0.2999234 -0.0848065 0.08905282 -0.23598756 -0.24193546
-0.12020284 0.13317291 0.06826509 0.15043435 0.06054975 0.37221053 -0.018672166 -0.22579207
0.36494336 -0.18489295 0.046948988 -0.38309267 0.2759322 -0.20772035 -0.39897442 0.22470935
0.1816854 0.06092512 0.041575123 -0.20453411 0.35330245 0.13053085 -0.19751923 -0.39244512
0.40825745 -0.14292894 0.09664738 -0.3370992 0.21684285 0.08822644 0.32536957 0.32869157
0.28252262 0.21610335 -0.11668282 -0.3128986 -0.06606981 -0.20575006 -0.06406437 0.36008188
-0.29473177 0.0085465005 0.36731663 0.29423562 0.38105327 0.09609707 -0.2653111 -0.30633935
-0.33409178 -0.34456018 0.1988237 0.2784558 0.31886557 0.37937126 0.046678826 0.38894758
-0.3751839 -0.117608465 -0.3376852 0.29837042 -0.20854877 0.23714861 0.03212224 -0.40468955
0.31950033 -0.120760806 -0.1876202 -0.061173268 0.34004176 0.22338189 0.32354197 0.22669126
-0.27300346 0.010377118 0.025709394 -0.035025656 0.234184 -0.2860704 -0.34363645 -0.20138867
-0.26732844 0.3623584 0.04631409 0.4005519 -0.24570704 -0.08403009 0.13467336 -0.0029353541
0.077393755 -0.14666504 -0.11201446 0.09625936 0.3243593 -0.13779847 0.13109656 0.124985695
-0.28649268 -0.3887622 0.016429257 -0.28819138 -0.31972978 0.20704381 0.1200334 -0.35015574
0.3784182 -0.26218668 0.42686933 -0.20516217 -0.04079193 0.23289321 -0.30340225 0.30480734
00000000: 2079 2abc 7fe4 23be 942f b8bd c7a3 f83d
00000010: 1038 253e 64a5 01be 6387 063e 7cad 243e
00000020: 2428 efbd fd81 4a3d ee92 31be 8f8f 993e
00000030: 08af adbd 5361 b63d b9a6 71be eebd 77be
00000040: e82c f6bd 7b5e 083e 91ce 8b3d 760b 1a3e
00000050: 0403 783d 6192 be3e 5ff6 98bc 0936 67be
00000060: dbd9 ba3e 9454 3dbe 954d 403d b924 c4be
00000070: fc46 8d3e a5b4 54be 6046 ccbe 351a 663e
00000080: bd0b 3a3e 9e8c 793d ad4a 2a3d 6471 51be
00000090: 0fe4 b43e e1a9 053e 7b42 4abe 91ee c8be
000000a0: 1f07 d13e f75b 12be 10ef c53d 4498 acbe
000000b0: 0d0c 5e3e 10b0 b43d d796 a63e 434a a83e
000000c0: cea6 903e 324a 5d3e 67f7 eebd 3f34 a0be
000000d0: 9c4f 87bd 25b0 52be 2e34 83bd a75c b83e
000000e0: 15e7 96be 9f06 0c3c ed10 bc3e 0da6 963e
000000f0: 6a19 c33e 8ace c43d dbd6 87be 83d8 9cbe
00000100: 140e abbe 316a b0be 7198 4b3e c291 8e3e
00000110: 5942 a33e f33c c23e 4c32 3f3d 2324 c73e
00000120: 1b18 c0be b5dc f0bd 13e5 acbe 02c4 983e
00000130: cf8d 55be 16d7 723e 9c92 033d 7833 cfbe
00000140: 8c95 a33e 7151 f7bd 821f 40be d290 7abd
00000150: f419 ae3e 39be 643e 4ba7 a53e c121 683e
00000160: 1cc7 8bbe ca04 2a3c 829c d23c 1077 0fbd
00000170: eecd 6f3e d277 92be 1ef1 afbe d538 4ebe
00000180: 46df 88be 0a87 b93e d8b3 3d3d 2315 cd3e
00000190: a09a 7bbe f817 acbd d0e7 093e 125f 40bb
000001a0: 9e80 9e3d 5c2f 16be d667 e5bd a123 c53d
000001b0: 6c12 a63e 0b1b 0dbe 2d3e 063e 80f8 ff3d
000001c0: 2baf 92be d70b c7be a696 863c d28d 93be
000001d0: 9fb3 a3be 4b03 543e 12d4 f53d 9d47 b3be
000001e0: 08c0 c13e 553d 86be 9e8e da3e 0816 52be
000001f0: 7015 27bd 8f7b 6e3e 8a57 9bbe b50f 9c3e

shared_layers.2.weight f4 [128, 128]
-0.027183417 -0.033445776 0.06311536 -0.003838131 -0.08844083 0.05088298 -0.00041001875 0.019781165
0.04140223 -0.08151301 0.062597305 0.07675396 0.0061351373 0.082977995 0.074642755 0.08154227
0.02914541 -0.051437095 0.049397897 0.04632282 -0.053630967 0.048033282 -0.008708256 0.031231066
-0.05048685 0.05926031 0.05459982 0.04271695 -0.0044503245 -0.058267597 -0.07969164 0.07523642
-0.0044569736 -0.07889024 -0.09650577 0.09307976 -0.041544747 0.008768419 -0.024617344 -0.05900748
-0.00026751184 -0.07288909 0.056129113 -0.05965157 0.104505844 0.046655476 0.076948166 -0.03244543
-0.08992089 -0.061837167 0.021810308 -0.0043094684 0.02712401 0.073921025 -0.10325309 -0.030233428
0.08720508 -0.06866805 0.0068401485 -0.07294497 -0.0207029 0.03093793 -0.09341488 0.06091375
-0.021145897 0.051046573 0.015381999 0.037354026 -0.054119293 0.014988308 -0.015293528 0.037792657
0.058179013 -0.0068900064 0.012869693 -0.04018854 -0.079325356 -0.072817475 0.049523104 0.08284476
-0.081060514 0.0788472 -0.085458376 0.09135662 0.097944796 -0.05454004 0.06488777 -0.077713855
-0.020524455 -0.024190234 -0.04246735 0.017162304 -0.06889558 -0.027979158 0.05901035 -0.005070183
0.057702433 -0.0076217805 -0.05627891 -0.016607087 0.017953783 0.05463281 -0.05623104 -0.09175901
0.0026683446 -0.0035385662 -0.06807932 -0.013539053 0.05484772 -0.06587889 0.043762725 -0.10149061
0.105346225 0.09067354 -0.019199222 0.01318748 -0.03806444 -0.030947678 -0.09234347 0.08344122
-0.06479664 0.07221762 -0.0075215404 0.0052484414 0.060622703 0.08612051 -0.092262626 0.038770106
-0.10291276 0.08710449 -0.07128589 -0.079201594 -0.060750965 0.04798685 0.10203883 0.02614521
-0.054471042 0.08722404 0.021763414 -0.042080358 0.058992803 0.061963517 0.0034322157 0.013927057
0.033052567 -0.0022978396 -0.060672224 -0.05155923 -0.075946406 0.02805256 -0.019670984 -0.00087180786
-0.066165 -0.00843668 -0.0012850444 -0.025380567 -0.009761334 0.0150277605 -0.03590427 -0.06522246
0.045368448 -0.010797902 0.05177654 -0.056048084 0.046724036 0.04427419 -0.0053831884 -0.045805942
-0.037339937 0.016285297 0.013285971 -0.003940565 -0.070465215 -0.05430265 -0.03174216 -0.02650565
0.09129688 -0.07539102 -0.0011218208 -0.020327888 0.07887362 -0.046960328 0.06820591 0.09454354
0.008342085 -0.019026801 -0.05290425 0.026749756 0.036910728 0.08678907 0.079992555 -0.04080731
0.029677166 -0.061873417 0.0037011828 0.06318144 -0.04689569 -0.045950186 -0.065650664 0.036987327
-0.052701995 -0.06599723 0.023779888 -0.02882873 -0.0023634238 -0.003299637 0.069189884 0.066005886
-0.027412383 -0.02848707 0.041118037 -0.0398028 -0.08429029 -0.024679603 0.060897045 0.059052598
0.023952965 -0.021351455 -0.033599615 -0.009802687 0.06385989 -0.052132733 -0.009502368 -0.011700522
-0.021414377 -0.05666524 -0.022969013 -0.024757989 -0.008943617 -0.045140617 -0.07169129 0.08960294
-0.057882544 -0.0038895311 -0.03594868 0.06296224 -0.028631926 -0.010573766 -0.00793197 -0.014816612
0.0001167663 -0.06837503 -0.009399483 -0.040132146 0.08345538 0.03931714 0.058449782 -0.07305657
0.032093447 -0.036781527 0.08880152 0.028215917 -0.049281828 -0.09414837 0.06116934 -0.046507936
00000000: c2af debc 70fe 08bd a042 813d 2789 7bbb
00000010: 7720 b5bd ac6a 503d c9f7 d6b9 1c0c a23c
00000020: 6295 293d 4bf0 a6bd 0433 803d 2e31 9d3d
00000030: 4309 c93b 5ef0 a93d 4dde 983d a2ff a63d
00000040: 5bc2 ee3c b4af 52bd 7355 4a3d ffbc 3d3d
00000050: 25ac 5bbd 8cbe 443d 13ad 0ebc 4bd8 ff3c
00000060: 4dcb 4ebd f0ba 723d 10a4 5f3d f8f7 2e3d
00000070: 07d4 91bb 01aa 6ebd 5f35 a3bd 8d15 9a3d
00000080: ce0b 92bb 3591 a1bd d1a4 c5bd 9aa0 be3d
00000090: d32a 2abd 6aa9 0f3c 50aa c9bc d4b1 71bd
000000a0: d540 8cb9 e046 95bd a4e7 653d 3455 74bd
000000b0: 2907 d63d d019 3f3d 0097 9d3d 80e5 04bd
000000c0: 7228 b8bd f848 7dbd 88ab b23c 7136 8dbb
000000d0: 2c33 de3c e863 973d 5b76 d3bd 18ac f7bc
000000e0: 9498 b23d d6a1 8cbd 5323 e03b 2c64 95bd
000000f0: 2199 a9bc 8b71 fd3c 4d50 bfbd b280 793d
00000100: 293a adbc 3616 513d c804 7c3c 8900 193d
00000110: 31ac 5dbd 8591 753c b591 7abc 79cc 1a3d
00000120: 1e4d 6e3d 90c5 e1bb 68db 523c bd9c 24bd
00000130: 5575 a2bd 5421 95bd bdd8 4a3d 83aa a93d
00000140: 0e03 a6bd a47a a13d cd04 afbd 2e19 bb3d
00000150: 4897 c83d 6165 5fbd e1e3 843d 7128 9fbd
00000160: e722 a8bc 992a c6bc 3ef2 2dbd f697 8c3c
00000170: 2019 8dbd 8c34 e5bc d6b4 713d c723 a6bb
00000180: 6359 6c3d 21c0 f9bb b784 66bd 960b 88bc
00000190: d013 933c a7c6 5f3d 8552 66bd 26ec bbbd
000001a0: 65df 2e3b 4ae7 67bb 2c6d 8bbd e7d2 5dbc
000001b0: 01a8 603d 83eb 86bd 8b40 333d 4fda cfbd
000001c0: c3bf d73d 0db3 b93d b047 9dbc 4d10 583c
000001d0: 75e9 1bbd fc85 fdbc 931e bdbd 3be3 aa3d
000001e0: 1ab4 84bd d5e6 933d 4177 f6bb 1efb ab3b
000001f0: 834f 783d f35f b03d 30f4 bcbd 67cd 1e3d
00000200: edc3 d2bd d763 b23d 56fe 91bd 7234 a2bd
00000210: 01d6 78bd dc8d 443d bcf9 d03d 7b2e d63c
00000220: 071d 5fbd 84a2 b23d 3049 b23c 745c 2cbd
00000230: 70a2 713d 75cd 7d3d 06ef 603b 502e 643c
00000240: 2162 073d 5a97 16bb 7083 78bd c52f 53bd
00000250: ca89 9bbd 7bce e53c 0b25 a1bc 098a 64ba
00000260: 8481 87bd 003a 0abc ef6e a8ba e8ea cfbc
00000270: 01ee 1fbc ff36 763c 5b10 13bd 5a93 85bd
00000280: 44d4 393d afe9 30bc a313 543d ad92 65bd
00000290: b461 3f3d da58 353d 7565 b0bb 039f 3bbd
000002a0: c3f1 18bd be68 853c 67ad 593c db1f 81bb
000002b0: 1150 90bd 756c 5ebd 1104 02bd 6022 d9bc
000002c0: dcf9 ba3d 9b66 9abd 0f0a 93ba ac86 a6bc
000002d0: 7e88 a13d 7959 40bd 8aaf 8b3d 0ba0 c13d
000002e0: 3ead 083c 18de 9bbc 20b2 58bd 4e22 db3c
000002f0: b42f 173d 78be b13d 23d3 a33d 9125 27bd
00000300: 871d f33c fb6e 7dbd 8b8f 723b 4565 813d
00000310: b215 40bd 4336 3cbd db73 86bd 0680 173d
00000320: 0cde 57bd 8e29 87bd 0ace c23c 3b2a ecbc
00000330: ace3 1abb b93e 58bb 6db3 8d3d 182e 873d
00000340: ef8f e0bc b75d e9bc 636b 283d 4308 23bd
00000350: 63a0 acbd e12c cabc 2e6f 793d 23e1 713d
00000360: 0239 c43c 3fe9 aebc c09f 09bd 739b 20bc
00000370: f9c8 823d 2289 55bd d2af 1bbc 8cb3 3fbc
00000380: 346d afbc d019 68bd 8329 bcbc 44d1 cabc
00000390: 4088 12bc 5ee5 38bd e2d2 92bd bf81 b73d
000003a0: 3f16 6dbd 81e7 7ebb ec3e 13bd 59f2 803d
000003b0: 808d eabc 973d 2dbc 18f5 01bc 60c1 72bc
000003c0: 6ee0 f438 3508 8cbd 4a00 1abc 9b61 24bd
000003d0: a7ea aa3d 020b 213d 0a69 6f3d af9e 95bd
000003e0: 6b74 033d 3aa8 16bd 92dd b53d 1125 e73c
000003f0: bedb 49bd dcd0 c0bd b48c 7a3d 1b7f 3ebd

shared_layers.2.bias f4 [128]
-0.03558292 0.015919315 -0.056041833 -0.024590267 -0.037075024 -0.065453514 -0.042919103 0.06372488
0.0637154 0.029568145 -0.036407974 0.027053714 -0.033853512 0.02955357 -0.0504382 -0.040629424
-0.04581476 -0.053924832 0.0065746764 0.05529338 0.0042970753 -0.019718086 0.06464498 -0.08816659
0.0131464675 0.020584801 -0.020753227 0.007872003 -0.020663429 0.010293859 0.009478384 -0.082766935
-0.053100646 -0.049371693 0.038382176 -0.027888894 -0.051613327 0.060331874 -0.101275444 0.09068388
-0.03106639 0.05730492 -0.07621912 0.10665461 -0.028564695 -0.041794986 -0.018079868 -0.019675566
0.024062468 -0.05744413 -0.010620599 0.05127386 0.05717334 0.020819094 -0.10297643 -0.09949627
0.06267363 0.040225916 -0.0410583 0.07001519 0.037547737 0.09173082 0.035615258 -0.011175036
-0.020122144 -0.05635907 -0.10287522 0.02875232 -0.040955987 -0.061627228 -0.032387227 0.04931407
-0.057729505 -0.0505202 -0.100162834 -0.06791658 0.09715114 -0.026730418 0.014757502 0.049633127
-0.033341106 0.08567194 0.014644557 -0.066613935 -0.06716362 0.092364565 -0.06728684 -0.07875541
-0.06480584 -0.020479102 -0.001912583 -0.10580788 -0.0036727027 -0.0617387 -0.074867256 -0.021852192
0.043607455 -0.05224508 0.029295916 -0.06749881 -0.07633639 -0.022117369 0.013041314 -0.04137954
0.04162867 0.015331304 0.043039415 -0.05274485 0.09062846 0.035781607 -0.05666796 -0.0070498697
-0.08976913 0.0025994803 0.016499959 0.05245187 0.030330367 -0.007514105 0.0805544 0.09899641
-0.027573643 0.058263827 -0.025474863 -0.02189065 0.06668343 -0.004116048 -0.0701834 0.06727928
00000000: 65bf 11bd 3969 823c 1f8c 65bd 8771 c9bc
00000010: fbdb 17bd 7e0c 86bd f1cb 2fbd 3182 823d
00000020: 387d 823d e538 f23c 8720 15bd c09f dd3c
00000030: fba9 0abd 541a f23c 4998 4ebd 0a6b 26bd
00000040: 42a8 3bbd 49e0 5cbd 6270 d73b 507b 623d
00000050: 7bce 8c3b d387 a1bc 9664 843d af90 b4bd
00000060: 4864 573c 75a1 a83c ac02 aabc 93f9 003c
00000070: 5a46 a9bc 93a7 283c 394b 1b3c b681 a9bd
00000080: 1080 59bd f939 4abd a136 1d3d 4077 e4bc
00000090: 7f68 53bd 8e1e 773d 8069 cfbd 78b8 b93d
000000a0: f17e febc 90b8 6a3d c518 9cbd bb6d da3d
000000b0: 8200 eabc 3831 2bbd 3b1c 94bc a72e a1bc
000000c0: a71e c53c 894a 6bbd 0502 2ebc 8a04 523d
000000d0: 982e 6a3d ce8c aa3c 4ee5 d2bd b3c4 cbbd
000000e0: 085b 803d eec3 243d bf2c 28bd 2064 8f3d
000000f0: a8cb 193d 5edd bb3d 4ee1 113d 8017 37bc
00000100: 32d7 a4bc c5d8 66bd 3eb0 d2bd fc89 eb3c
00000110: 77c1 27bd d56c 7cbd 78a8 04bd 8dfd 493d
00000120: c675 6cbd 45ee 4ebd 2c22 cdbd d917 8bbd
00000130: 2df7 c63d c0f9 dabc 73c9 713c 1b4c 4b3d
00000140: af90 08bd c574 af3d b9ef 6f3c e36c 88bd
00000150: 148d 89bd a229 bd3d afcd 89bd 844a a1bd
00000160: edb8 84bd cac3 a7bc a3af faba cdb1 d8bd
00000170: bab1 70bb b8e1 7cbd 0154 99bd 5e03 b3bc
00000180: bb9d 323d f0fe 55bd fdfd ef3c d13c 8abd
00000190: 4156 9cbd 7c2f b5bc 3cab 553c 987d 29bd
000001a0: d382 2a3d 2630 7b3c 194a 303d fc0a 58bd
000001b0: 6a9b b93d bc8f 123d aa1c 68bd 9802 e7bb
000001c0: e1d8 b7bd 0b5c 2a3b ec2a 873c c6d7 563d
000001d0: 6477 f83c e238 f6bb b5f9 a43d a1be ca3d
000001e0: 1fe2 e1bc 0da6 6e3d a9b0 d0bc 0554 b3bc
000001f0: 5291 883d eadf 86bb 50bc 8fbd b8c9 893d

actor_head1.weight f4 [26, 128]
0.1027794 -0.051705897 -0.06514552 0.08498531 -0.0374506 -0.092987314 -0.045233697 0.04820253
0.011206924 0.061469838 -0.0024005955 0.004125516 -0.05470543 0.053819787 0.0552683 -0.007897097
-0.042174924 0.042255454 0.02286809 0.010943316 -0.0014390434 -0.08499045 -0.028087273 0.029834429
-0.061893947 0.03158894 -0.018005617 -0.043699965 0.064697765 0.076500945 0.06721172 0.022715831
0.07815321 -0.049076803 -0.07610806 0.046211615 -0.06156328 0.091805875 0.060650364 0.0012407366
0.053082716 -0.08216685 0.054217394 0.07009669 -0.010288025 0.03987943 -0.0757409 0.06235049
0.041796587 -0.04329628 0.026910128 0.049430765 -0.038752895 0.0042233723 0.032383557 -0.013571272
-0.04920624 -0.055960502 -0.08890433 0.026395356 -0.079969704 0.059106663 -0.047169115 -0.007144205
-0.031251848 -0.04293944 -0.041229773 -0.027973156 -0.043225195 -0.08637533 0.03194036 0.065390565
0.016389886 0.009802236 -0.030453147 0.09287002 0.012661914 -0.055019423 0.02987027 0.030914549
-0.033001028 0.07732952 0.07511911 -0.064525895 0.05679871 0.08588808 0.009991821 -0.019396514
0.05998032 -0.07641208 -0.001658106 -0.0019372754 0.050589163 -0.043975268 0.028746562 0.02280714
-0.08672673 0.06635698 0.02850517 0.04095957 -0.060801715 -0.024337834 -0.08380896 -0.0742778
-0.05529379 -0.012482194 -0.029500123 -0.037855815 0.025138466 0.053541973 -0.069304116 -0.024844818
-0.056495734 0.00019963557 0.0897142 -0.0010504897 0.047634356 -0.052961368 0.014996266 -0.05113787
-0.04685352 -0.040589128 -0.06475919 -0.047862064 0.0739946 -0.016080216 -0.0010126871 -0.06590488
0.09450632 -0.08674613 0.035052754 0.020441355 -0.015423628 -0.06572142 -0.046376564 -0.028736556
0.007761027 0.008978549 -0.09228955 0.06960087 -0.0006177158 0.060834005 0.055193536 0.07584923
0.007314176 0.07128817 0.04200581 -0.026068818 0.08999194 0.017766943 -0.007803966 0.005889284
0.0644697 0.06371594 -0.013976226 0.101973616 -0.026854848 -0.055286523 0.03428926 -0.030789569
0.06411187 -0.095225096 0.07277195 0.09339488 -0.046182405 -0.032836363 -0.004432139 -0.042432465
-0.08445976 -0.020526063 -0.067995876 -0.07313945 -0.07645691 0.043084987 -0.07557253 0.09267833
-0.04949704 0.041973498 -0.05765849 -0.043482248 0.07310484 0.08329998 0.055038065 0.047948383
0.04006985 -0.04892986 -0.07191782 -0.025319474 0.0011791496 0.0007736815 -0.03865252 -0.053077485
-0.01934275 -0.0019985726 -0.035871707 0.014182633 -0.027264725 -0.066027075 0.060509697 -0.056269974
0.07156409 -0.08611888 0.0095182685 -0.027471306 0.08782236 -0.04851622 0.030681 0.045084685
0.07030528 0.0043511055 -0.058592156 -0.07898145 0.0013743882 0.0044189873 0.0012054283 -0.054767083
-0.039538927 -0.0741762 -0.0056368806 -0.03930539 0.020123774 -0.017540772 0.0050027748 -0.04862186
-0.013699579 -0.005200712 0.07225969 -0.040016767 -0.07183652 -0.020981805 0.048257045 0.044524875
0.054411456 -0.007742883 -0.074120186 -0.008050575 -0.03423427 -0.035105027 0.058377743 -0.05644743
0.030026933 -0.010248154 -0.041826084 -0.043630663 -0.019147353 0.023235578 -0.028674116 0.06806507
-0.056661543 0.07019188 -0.022830294 -0.07422766 -0.035442907 -0.066796966 0.060330324 -0.056915335
00000000: 027e d23d 90c9 53bd 046b 85bd c70c ae3d
00000010: cd65 19bd 2270 bebd f846 39bd 0470 453d
00000020: 3f9d 373c ccc7 7b3d 4f53 1dbb 562f 873b
00000030: cd12 60bd 2372 5c3d 0361 623d d362 01bc
00000040: 9dbf 2cbd 0e14 2d3d dc55 bb3c 984b 333c
00000050: 499e bcba 790f aebd 4817 e6bc 5567 f43c
00000060: 8284 7dbd 6863 013d 8480 93bc bcfe 32bd
00000070: 4380 843d 87ac 9c3d 4ca6 893d 8d16 ba3c
00000080: ca0e a03d c204 49bd 8bde 9bbd 6448 3d3d
00000090: c729 7cbd b804 bc3d 846c 783d 36a0 a23a
000000a0: 436d 593d 1847 a8bd 0f13 5e3d da8e 8f3d
000000b0: 1b8f 28bc 9d58 233d 0c1e 9bbd 3a63 7f3d
000000c0: e632 2b3d 7157 31bd a172 dc3c ea77 4a3d
000000d0: 5bbb 1ebd 3764 8a3b 9fa4 043d 0a5a 5ebc
000000e0: 7b8c 49bd d736 65bd 7913 b6bd 133b d83c
000000f0: 28c7 a3bd d419 723d 6734 41bd ef19 eabb
00000100: f001 00bd 44e1 2fbd 8de0 28bd f627 e5bc
00000110: e70c 31bd 8de5 b0bd e5d3 023d 7deb 853d
00000120: 1544 863c 8f99 203c e178 f9bc a332 be3d
00000130: eb73 4f3c 0c5c 61bd 7fb2 f43c 8240 fd3c
00000140: 162c 07bd f05e 9e3d 0cd8 993d 2726 84bd
00000150: c4a5 683d 17e6 af3d bcb4 233c 70e5 9ebc
00000160: edad 753d f07d 9cbd ce54 d9ba 2dec fdba
00000170: 9536 4f3d 691f 34bd e97d eb3c 0ad6 ba3c
00000180: c99d b1bd 2be6 873d ad83 e93c 39c5 273d
00000190: 380b 79bd 2360 c7bc 08a4 abbd f61e 98bd
000001a0: be7b 62bd 1e82 4cbc 3eaa f1bc b30e 1bbd
000001b0: 2fef cd3c d44e 5b3d 51ef 8dbd 5c87 cbbc
000001c0: 1268 67bd 4455 5139 14bc b73d 96b0 89ba
000001d0: 3e1c 433d 05ee 58bd e6b2 753c f175 51bd
000001e0: 7ae9 3fbd c940 26bd 77a0 84bd 030b 44bd
000001f0: 7b8a 973d a8ba 83bc 24bc 84ba 23f9 86bd
00000200: 888c c13d f4a7 b1bd 7a93 0f3d a174 a73c
00000210: 62b3 7cbc f498 86bd 5af5 3dbd ed68 ebbc
00000220: 3750 fe3b c41a 133c 4e02 bdbd e78a 8e3d
00000230: 35ee 21ba 142d 793d 9e12 623d d756 9b3d
00000240: c1ab ef3b 88ff 913d 490e 2c3d 468e d5bc
00000250: b24d b83d fb8b 913c 69b8 ffbb e5fa c03b
00000260: b108 843d 817d 823d 8afc 64bc 8bd7 d03d
00000270: b3fe dbbc 1f74 62bd e572 0c3d 683a fcbc
00000280: 164d 833d 6005 c3bd 7609 953d d145 bf3d
00000290: c329 3dbd 6c7f 06bd 7a3b 91bb aacd 2dbd
000002a0: 3df9 acbd 4626 a8bc 6c41 8bbd 23ca 95bd
000002b0: 7195 9cbd e279 303d c5c5 9abd 23ce bd3d
000002c0: 69bd 4abd 67ec 2b3d 4f2b 6cbd 711a 32bd
000002d0: feb7 953d 2e99 aa3d 986f 613d 8665 443d
000002e0: 4820 243d ad6a 48bd a649 93bd c96a cfbc
000002f0: b28d 9a3a e3d0 4a3a 1b52 1ebd c767 59bd
00000300: b074 9ebc 7cfa 02bb 36ee 12bd 465e 683c
00000310: 465a dfbc 3439 87bd 04d9 773d 587b 66bd
00000320: 3290 923d 185f b0bd 83f2 1b3c 810b e1bc
00000330: 36dc b33d f2b8 46bd b856 fb3c b8aa 383d
00000340: 37fc 8f3d b893 8e3b 54fe 6fbd 07c1 a1bd
00000350: d124 b43a 27cd 903b 76ff 9d3a 7353 60bd
00000360: 92f3 21bd b1e9 97bd 95b5 b8bb b0fe 20bd
00000370: 9dda a43c aab1 8fbc 51ee a33b b727 47bd
00000380: 3374 60bc bc6a aabb e3fc 933d 9fe8 23bd
00000390: 071f 93bd 09e2 abbc 2ea9 453d b75f 363d
000003a0: 8cde 5e3d 03b8 fdbb 53cc 97bd 8fe6 03bc
000003b0: 3c39 0cbd 4aca 0fbd 801d 6f3d 6c35 67bd
000003c0: 0bfb f53c e0e7 27bc d451 2bbd 11b6 32bd
000003d0: e9da 9cbc 8a58 be3c fbe5 eabc b365 8b3d
000003e0: ef15 68bd c3c0 8f3d 9906 bbbc ac04 98bd
000003f0: 952c 11bd d9cc 88bd ee1c 773d 0e20 69bd

actor_head1.bias f4 [26]
0.10137435 0.06447571 0.012784958 0.040644027 0.008349012 0.07271625 -0.00075240294 0.02055587
0.007813985 0.020865135 0.08201267 0.040151473 -0.04699726 -0.059169214 0.042131063 -0.0840056
-0.039064188 0.016466234 0.06083766 0.039842624 -0.034971926 -0.0036115383 -0.07987411 -0.08951827
0.061973162 -0.06337883
00000000: 5b9d cf3d d70b 843d 0078 513c 5a7a 263d
00000010: 4bca 083c 42ec 943d e83c 45ba c964 a83c
00000020: 3b06 003c 5ced aa3c 42f6 a73d df75 243d
00000030: 3380 40bd 6b5b 72bd 9f91 2c3d 210b acbd
00000040: c501 20bd 32e4 863c e930 793d 0532 233d
00000050: b93e 0fbd 8faf 6cbb 0a95 a3bd 5b55 b7bd
00000060: 92d7 7d3d c3cc 81bd

actor_head2.weight f4 [26, 128]
0.034930713 -0.087442786 -0.07113165 0.058525763 -0.0035843959 0.050967764 -0.03417267 -0.056094613
0.034929078 0.029627357 0.06816016 0.067910396 -0.026082568 0.028223397 0.018694509 -0.024049405
0.06573582 -0.10100527 -0.044348877 0.0039507765 0.059346333 0.07010216 -0.007149006 0.013613614
0.016312348 -0.06475488 -0.00056387845 0.060237434 -0.0563051 -0.051194213 0.03421719 -0.009916091
0.043487404 0.019628158 -0.07489598 -0.035724033 0.022899045 0.060171526 -0.048059873 0.019915894
-0.052318707 0.057433955 -0.003801255 -0.042810783 0.029855298 0.040556923 0.062551185 -0.01974273
-0.017322205 0.05898404 0.019131064 -0.011092481 0.009518704 -0.061554763 0.063114256 -0.02761084
-0.0025679322 -0.01785024 -0.05103271 -0.05615188 -0.0065573533 0.030772775 0.015686754 -0.04277325
0.032140087 0.06247923 -0.027961094 -0.06527979 0.093016766 -0.086818926 -0.0059743416 0.040575385
0.031309165 0.038648833 -0.03501643 -0.048183862 -0.05812872 -0.024286842 0.070264414 0.009621676
0.0005537263 0.07173342 -0.034864664 -0.042799424 0.06938341 -0.019403338 -0.029828593 0.0358805
0.0706195 0.042768806 0.0617356 0.030689009 0.017061237 0.04838279 0.04636614 0.0029570002
-0.022616375 0.034320604 0.04775311 0.04489752 -0.050006498 -0.052696977 0.08529863 0.02864999
0.05004542 -0.083426476 -0.030357553 0.031250462 0.074758135 0.005853209 -0.08723829 -0.045032427
0.06767901 0.07546568 -0.052774664 0.020883257 0.06621302 0.032925297 0.09754909 0.0954911
0.07783792 -0.039542425 0.048477497 -0.050343152 -0.0010217065 0.06386014 0.007146158 0.059628855
-0.05691628 -0.096459225 0.07051894 0.07953377 -0.06051702 -0.070718184 -0.088068515 0.0038618045
-0.050991256 -0.0643774 0.022541214 -0.031617176 -0.05806772 0.041880522 0.0216834 -0.06295027
0.058426976 0.009880269 0.05713069 0.06487862 0.02328023 -0.09778079 -0.05929512 -0.031834155
-0.003476816 0.09546286 -0.09696561 0.09220625 0.027149403 -0.008498917 -0.0745735 -0.0018259133
-0.02796484 -0.08305726 0.015502421 -0.021209963 -0.0994521 0.07553115 0.0077107116 -0.049422856
0.06843486 0.048168242 0.024878852 0.040521603 -0.0073553543 0.06266492 -0.06913837 0.08260465
-0.04434096 0.008553918 -0.04482364 0.054766923 0.051208667 -0.06588222 -0.00058238034 0.023732914
0.009651356 0.058503665 -0.08263052 0.0083063245 -0.04898408 -0.041206185 0.034008037 -0.009469922
-0.0007315 -0.056569256 0.071723364 -0.06189802 -0.039891742 -0.002423825 -0.013704976 0.005573077
-0.07909832 0.03923087 -0.07930737 0.091439255 -0.033656202 0.0011212837 -0.07306799 -0.049515862
-0.05311643 -0.011776025 -0.0031224883 -0.05108629 0.05094919 -0.010195129 0.011770318 0.05844261
-0.014533673 -0.008733976 -0.06633006 -0.087345295 -0.015505082 -0.039553653 0.015080753 0.08888277
0.026919551 -0.015336336 -0.041660022 -0.012891168 0.062044233 -0.08606989 -0.04062127 0.044748757
-0.008797455 -0.06424765 0.03357322 0.0295146 -0.06490094 -0.09710491 0.014823128 0.01888155
-0.08829788 -0.0004708173 -0.047402576 -0.027937878 0.048622746 -0.0512471 0.017157516 0.076206274
0.05721794 -0.01116308 0.02228119 -0.047264874 0.0053163227 -0.050143655 0.032897227 0.053853285
00000000: 8213 0f3d 3415 b3bd 78ad 91bd b6b8 6f3d
00000010: 2fe8 6abb 93c3 503d a4f8 0bbd 77c3 65bd
00000020: cb11 0f3d 12b5 f23c 8e97 8b3d 9b14 8b3d
00000030: 1cab d5bc c134 e73c 3a25 993c 4203 c5bc
00000040: 80a0 863d dadb cebd 2ba7 35bd 8475 813b
00000050: 2415 733d b991 8f3d 3542 eabb a30b 5f3c
00000060: 79a1 853c 359e 84bd 3ed1 13ba 87bb 763d
00000070: 2da0 66bd 06b1 51bd 5327 0c3d 1a77 22bc
00000080: d91f 323d 3bcb a03c 1063 99bd 5d53 12bd
00000090: c796 bb3c 6b76 763d 6eda 44bd a826 a33c
000000a0: 244c 56bd de3f 6b3d 7a1e 79bb 5c5a 2fbd
000000b0: 1993 f43c 041f 263d d61a 803d 81bb a1bc
000000c0: 4ce7 8dbc 4099 713d c0b8 9c3c 3dbd 35bc
000000d0: 57f4 1b3c d920 7cbd 0c42 813d 2130 e2bc
000000e0: c14a 28bb ab3a 92bc ad07 51bd 84ff 65bd
000000f0: 11df d6bb 3017 fc3c 8281 803c 0133 2fbd
00000100: 53a5 033d 39ea 7f3d aa0e e5bc 69b1 85bd
00000110: 937f be3d 1fce b1bd 69c4 c3bb 6032 263d
00000120: 0a3e 003d 3d4e 1e3d 636d 0fbd 715c 45bd
00000130: 6118 6ebd 33f5 c6bc cae6 8f3d 3ca4 1d3c
00000140: f127 113a f9e8 923d 40ce 0ebd 734e 2fbd
00000150: e418 8e3d c0f3 9ebc 185b f4bc 6ef7 123d
00000160: f5a0 903d 582e 2f3d 78de 7c3d 8467 fb3c
00000170: 02c4 8b3c 082d 463d 6cea 3d3d 3bca 413b
00000180: fa45 b9bc c393 0c3d c498 433d 76e6 373d
00000190: 9dd3 4cbd c9d8 57bd 0cb1 ae3d 62b3 ea3c
000001a0: 6dfc 4c3d 80db aabd 67b0 f8bc 7c00 003d
000001b0: cb1a 993d 47cc bf3b fda9 b2bd ec73 38bd
000001c0: 4b9b 8a3d c08d 9a3d 3f2a 58bd 5d13 ab3c
000001d0: b19a 873d addc 063d d1c7 c73d d690 c33d
000001e0: 7d69 9f3d 3df7 21bd 5790 463d 9f34 4ebd
000001f0: c8ea 85ba 1bc9 823d 512a ea3b 633d 743d
00000200: 0c21 69bd 6a8c c5bd 3c6c 903d 9ae2 a23d
00000210: b2e0 77bd b2d4 90bd 445d b4bd 5416 7d3b
00000220: 35dc 50bd 4cd8 83bd 5aa8 b83c 0381 01bd
00000230: 6bd8 6dbd e98a 2b3d 63a1 b13c 12ec 80bd
00000240: 2051 6f3d dae0 213c df01 6a3d 15df 843d
00000250: 2eb6 be3c 4b41 c8bd 71df 72bd 8864 02bd
00000260: 4bdb 63bb 0882 c33d e895 c6bd a1d6 bc3d
00000270: 6d68 de3c 0b3f 0bbc feb9 98bd 7c53 efba
00000280: 8516 e5bc ed19 aabd defd 7d3c 84c0 adbc
00000290: 8bad cbbd 13b0 9a3d 23aa fc3b 9f6f 4abd
000002a0: 9327 8c3d 104c 453d bcce cb3c fbf9 253d
000002b0: 2f05 f1bb 7756 803d 6b98 8dbd a02c a93d
000002c0: de9e 35bd bc25 0c3c fe98 37bd 4853 603d
000002d0: 2ec0 513d 42ed 86bd e2aa 18ba 876b c23c
000002e0: b920 1e3c 8aa1 6f3d 313a a9bd 4017 083c
000002f0: 88a3 48bd d1c7 28bd 034c 0b3d bb27 1bbc
00000300: 22c2 3fba 2ab5 67bd b3e3 923d c788 7dbd
00000310: 8665 23bd 09d9 1ebb d68a 60bc 5c9e b63b
00000320: 4dfe a1bd 8cb0 203d e76b a2bd 8144 bb3d
00000330: 16db 09bd 0af8 923a aca4 95bd 25d1 4abd
00000340: 9d90 59bd 3bf0 40bc a9a2 4cbb dc3f 51bd
00000350: 19b0 503d 7809 27bc 4bd8 403c 8561 6f3d
00000360: a51e 6ebc f318 0fbc 0ed8 87bd 17e2 b2bd
00000370: 0709 7ebc 0303 22bd 4315 773c 2b08 b63d
00000380: 6486 dc3c 4145 7bbc b3a3 2abd 7a35 53bc
00000390: 1822 7e3d 6945 b0bd 7d62 26bd 794a 373d
000003a0: 3323 10bc 4694 83bd 1384 093d 9ac8 f13c
000003b0: c9ea 84bd f0de c6bd b4dc 723c 7bad 9a3c
000003c0: 85d5 b4bd 07d8 f6b9 3429 42bd fadd e4bc
000003d0: a528 473d 7be8 51bd eb8d 8c3c 0912 9c3d
000003e0: 5c5d 6a3d 5ae5 36bc 0b87 b63c d098 41bd
000003f0: 8c34 ae3b 6f63 4dbd 3ebf 063d 4395 5c3d

actor_head2.bias f4 [26]
-0.056107886 -0.019838747 0.09332437 0.08265962 0.10001158 0.07742027 -0.033666912 -0.05597665
-0.009447399 -0.07623801 0.008358479 0.0025571703 -0.0040362435 -0.05018757 0.0011108136 -0.029321725
-0.03381757 -0.0623419 0.05966146 -0.02054867 -0.028223012 -0.0059988894 -0.092264 -0.04450228
0.07056144 0.04235992
00000000: 62d1 65bd de84 a2bc d920 bf3d 7249 a93d
00000010: dfd2 cc3d 858e 9e3d 51e6 09bd c647 65bd
00000020: 43c9 1abc ac22 9cbd 00f2 083c 3396 273b
00000030: 7742 84bb 7b91 4dbd b898 913a 1d34 f0bc
00000040: 4b84 0abd 385a 7fbd 935f 743d af55 a8bc
00000050: f233 e7bc 5592 c4bb e8f4 bcbd 0648 36bd
00000060: 8482 903d 9881 2d3d

critic_head.weight f4 [1, 128]
0.023523478 -0.051508497 -0.05076904 0.08838962 0.038819246 -0.050669488 -0.066147044 -0.09031507
0.1005958 0.054520987 -0.105610006 -0.041084144 0.041706793 -0.08735657 0.042277604 0.05700183
0.07625373 -0.060468897 0.042950325 0.10349136 0.098581515 -0.09954023 -0.040681016 -0.083475955
-0.1048113 0.049773436 -0.08862174 0.085012 -0.06464811 0.020885456 -0.04900886 -0.06808005
-0.0693126 -0.10779566 0.061521035 0.028037935 -0.09857948 0.08404621 -0.090903305 0.06492127
-0.07884368 0.037910596 -0.056566507 0.019031594 -0.08846865 -0.087398134 -0.070802495 0.053186137
0.075428635 -0.08420951 0.08882072 -0.053895775 0.0675436 0.07309802 -0.08125551 -0.09754596
0.054386687 0.07964366 -0.083840966 -0.031512234 -0.08000726 0.022354407 -0.022075433 -0.062024575
0.06295692 0.09331766 -0.022601409 0.051538724 0.03950402 -0.03820671 -0.044792593 -0.04858794
0.051124223 -0.046546854 -0.05956465 0.02747688 0.03164723 0.037371807 -0.06557069 0.034839995
-0.10838886 0.026470643 0.06639492 -0.023736931 -0.09093924 0.027204014 0.060703736 -0.055517696
0.1074438 -0.07238066 0.1080148 -0.023407336 0.030287527 0.05451173 -0.05173087 0.046642363
-0.026957525 0.03878228 -0.10062397 -0.043747265 -0.045653876 -0.0679867 0.077491246 -0.08611656
0.08303757 -0.048392646 0.09717636 0.047149204 0.077572286 -0.046481613 -0.0972711 -0.07679516
-0.10516255 -0.034180757 0.05721773 0.045894567 0.10793315 -0.055819824 0.06882341 0.02314084
0.10949191 0.04985842 0.043064684 -0.09720768 0.03656278 0.04969715 -0.025962675 0.02769928
00000000: 4fb4 c03c 93fa 52bd 32f3 4fbd 9e05 b53d
00000010: ee00 1f3d cf8a 4fbd 1a78 87bd 1bf7 b8bd
00000020: 2c05 ce3d 6651 5f3d 0f4a d8bd d947 28bd
00000030: bed4 2a3d 00e8 b2bd 482b 2d3d c07a 693d
00000040: ea2a 9c3d 3cae 77bd aeec 2f3d 47f3 d33d
00000050: 1be5 c93d c0db cbbd 23a1 26bd 71f5 aabd
00000060: 4fa7 d6bd 3bdf 4b3d 517f b5bd c51a ae3d
00000070: 3a66 84bd fa17 ab3c 84bd 48bd 8e6d 8bbd
00000080: c4f3 8dbd f9c3 dcbd 7bfd 7b3d d0af e53c
00000090: 0ae4 c9bd 6b20 ac3d 832b babd 71f5 843d
000000a0: cc78 a1bd 2448 1b3d 48b2 67bd 25e8 9b3c
000000b0: 0d2f b5bd cbfd b2bd e600 91bd b5d9 593d
000000c0: 547a 9a3d 0976 acbd a3e7 b53d d1c1 5cbd
000000d0: 4d54 8a3d 6ab4 953d 4a69 a6bd 2dc6 c7bd
000000e0: 93c4 5e3d 371c a33d d0b4 abbd f912 01bd
000000f0: d9da a3bd 9720 b73c 8ad7 b4bc 7b0d 7ebd
00000100: 8fef 803d 541d bf3d 9726 b9bc 451a 533d
00000110: f8ce 213d a47e 1cbd 7078 37bd 2604 47bd
00000120: a267 513d eaa7 3ebd 10fa 73bd 3217 e13c
00000130: 87a0 013d 2e13 193d ed49 86bd 62b4 0e3d
00000140: fbfa ddbd f6d8 d83c 0ffa 873d f473 c2bc
00000150: 5a3e babd f4da de3c 7ba4 783d 8666 63bd
00000160: 7f0b dc3d 503c 94bd dd36 dd3d bec0 bfbc
00000170: 8c1d f83c b147 5f3d c0e3 53bd 100c 3f3d
00000180: 07d6 dcbc 2bda 1e3d f113 cebd 5530 33bd
00000190: 8fff 3abd 9c3c 8bbd bbb3 9e3d e15d b0bd
000001a0: 9a0f aa3d 5e37 46bd 6604 c73d 861f 413d
000001b0: 38de 9e3d 8163 3ebd 1236 c7bd c846 9dbd
000001c0: 775f d7bd 1f01 0cbd 235d 6a3d f1fb 3b3d
000001d0: 0e0c dd3d 54a3 64bd 4af3 8c3d dc91 bd3c
000001e0: 4b3d e03d 5838 4c3d 9864 303d d214 c7bd
000001f0: dbc2 153d 3d8f 4b3d adaf d4bc 9ae9 e23c
