models/ppo_gear_placer_final.pt (torch, 127420 bytes, 9 tensors)

shared_layers.0.weight f4 [128, 7]
000000 99 ca 92 be dd 83 75 be 24 5a ce 3d 31 44 b7 3e
       -0.28670195 -0.23976083 0.10075787 0.35794213
000010 1d a7 91 3e 44 94 91 3d 40 ad 8c 3b 58 a7 2e 3e
       0.2844781 0.071083575 0.004293114 0.17056024
000020 01 a4 86 3e 97 8c a5 bb e5 6d 98 bd e7 82 d6 bd
       0.26297 -0.00505216 -0.07442836 -0.104741864
000030 fe d8 69 3e 85 00 a7 3e c6 0b a2 be 4c 48 b0 3d
       0.22836682 0.32617584 -0.31649607 0.086075395
000040 08 e8 6b be 25 bd c6 bc 1c ed aa 3e 70 8b 89 3c
       -0.23037732 -0.024260113 0.33384025 0.016790122
000050 b2 5f 16 be 06 8e 90 be 70 f7 8c be f8 c5 96 3e
       -0.14684942 -0.28233355 -0.2753253 0.29447913
000060 f4 a7 2a be 1c 8c 11 be b2 52 19 3e d1 7d 88 3c
       -0.16665632 -0.14213604 0.14972952 0.016661556
000070 7a 06 82 3e 37 1d c6 be 63 fe 0d bd 74 38 19 be
       0.25395566 -0.38694164 -0.03466643 -0.14962941
000080 6e 21 7b 3e cc 2d b4 bd b1 01 8e 3e 49 6f 2d 3e
       0.24524471 -0.087977976 0.27735665 0.16936983
000090 d9 a7 5d be 3a c0 93 bb 85 ce 13 3e 26 b9 e1 3c
       -0.2164606 -0.004508999 0.1443425 0.027554106
0000a0 88 e7 79 3d 4f 89 92 3b 1e 5e 63 3e 30 31 5f 3d
       0.06101182 0.004471935 0.22203872 0.05449027
0000b0 ce de 02 3e 34 52 0f be b8 0c 96 be 3a 80 87 be
       0.12780306 -0.13996202 -0.2930658 -0.26465017
0000c0 99 2c b6 be 2d a8 1e 3e 41 81 45 bc 1d ff b3 3e
       -0.355809 0.15493841 -0.012054742 0.35155573
0000d0 bf 61 51 be 2a 92 80 be 00 f6 86 bc b9 19 bf 3d
       -0.20447443 -0.25111514 -0.016474724 0.09331078
0000e0 59 6b ac bb dd 51 e8 bd ea 03 a2 be 58 16 bf 3e
       -0.0052618203 -0.11343739 -0.3164361 0.37321734
0000f0 9d c6 9b be b9 36 a8 3e c4 50 08 bd ad 33 1e be
       -0.30424967 0.3285425 -0.03328015 -0.154494
000100 bb 42 34 3e 3f b9 94 be ca 13 09 3d b5 ab 77 3e
       0.1760358 -0.29047582 0.033466138 0.24186595
000110 44 d9 8e be 47 2f ca bd 84 aa 69 3e bd e4 2d be
       -0.27900136 -0.09872299 0.22818953 -0.16981788
000120 77 63 b5 3d ce ed 15 be aa d5 a4 3e 26 29 0b be
       0.08856862 -0.14641497 0.32194263 -0.13589916
000130 1b c7 a0 be df e3 b0 be ca d4 66 3e a0 12 2e 3d
       -0.31401905 -0.34548852 0.2254211 0.04249823
000140 93 ba 83 3e a3 49 89 3e 6f bc 82 3e ad 91 b4 3e
       0.25728282 0.26813993 0.25534388 0.35267392
000150 29 e7 52 be 34 4a b7 be 6b 36 87 3e fe 36 47 be
       -0.20595993 -0.357988 0.26408705 -0.19454572
000160 19 d6 bb 3e f9 cb ad 3e 4e 3c 5a 3e fe 0c bc 3e
       0.3668678 0.3394468 0.21312067 0.36728662
000170 b0 d3 82 3c 10 ce 62 3e 3d e3 b9 3e ad a9 ca 3c
       0.015970081 0.22148919 0.36306182 0.02473911
000180 38 eb 4b bd 5d a8 87 3e a6 48 b5 3e 47 3f 81 be
       -0.04978487 0.26495638 0.3540699 -0.2524359
000190 ea da a8 bd 77 a2 01 be af 82 54 3e d1 0d 9f 3e
       -0.082448795 -0.12659632 0.20752977 0.3106523
0001a0 87 fc ab 3d 15 be a4 3e 8a d1 bf be 12 6c 41 3e
       0.08397775 0.3217627 -0.37464553 0.18888882
0001b0 ab a6 93 be 88 b6 98 3d 83 c8 b9 3e 95 66 54 bd
       -0.28838095 0.0745669 0.3628579 -0.051855642
0001c0 02 a0 92 be 0c b5 2f 3e ad b6 57 3d e1 df a2 3e
       -0.286377 0.17158908 0.052664448 0.3181143
0001d0 e7 b5 1f be 11 bb 31 be 01 d3 6f be b4 f8 a6 be
       -0.15596734 -0.17356516 -0.23420335 -0.3261162
0001e0 50 3f 4f 3c be dc ae 3e b0 09 63 3d f6 a0 90 be
       0.012649372 0.34152788 0.05542916 -0.28247803
0001f0 10 6d 02 3d 25 d9 c6 3d 23 d2 c6 3e 82 ef e0 bc
       0.03184229 0.09709386 0.38832197 -0.027457956
000200 83 31 d3 bd 21 a8 be 3e 43 b6 1b be ae 83 31 3e
       -0.10312178 0.37237647 -0.15206246 0.17335388
000210 4c 36 85 bd 4b d6 8c bc 23 17 80 be 35 ac 04 be
       -0.06504497 -0.017192027 -0.25017652 -0.12956317
000220 e6 5e 78 be b6 d8 db 3d d7 da b1 3e f2 2a a7 be
       -0.24254951 0.10734694 0.34737274 -0.32649952
000230 c5 a3 8c be db f2 82 3e 12 39 65 be a0 28 a8 3e
       -0.27468696 0.2557591 -0.22385052 0.32843494
000240 99 6a 51 3c 02 85 80 be e9 ff 60 be 3a d0 57 be
       0.0127817625 -0.25101477 -0.21972622 -0.21075526
000250 e5 c3 b5 3e 90 85 d5 bd b5 48 42 3e 83 a9 2d be
       0.35501018 -0.10425866 0.18973048 -0.16959195
000260 b6 ae 2f be 5b eb 99 3e 59 c0 5c be 53 08 b4 be
       -0.1715649 0.30062374 -0.2155775 -0.351626
000270 fe af a3 be ed e2 9e 3e 72 18 6b bd 90 be 12 bd
       -0.3197021 0.31032506 -0.05739636 -0.035826266
000280 ec 91 20 3e ae de f0 3d 79 02 ca bc 4c 19 09 3e
       0.15680665 0.11761223 -0.024659382 0.13388556
000290 da 62 1e 3d 67 fd 40 be 98 40 22 3d 3b 80 7b be
       0.03866849 -0.18846665 0.039612383 -0.24560635
0002a0 36 cc 5f be 5b 4b 8f 3e 91 35 a9 3c 79 84 b1 be
       -0.21855244 0.2798718 0.020655425 -0.3467138
0002b0 34 91 86 3d 22 d6 43 3e b7 dc 83 bd aa 0d eb 3d
       0.06570664 0.19124654 -0.064385824 0.114772156
0002c0 e4 a4 96 3e 6c 91 be be ba 1c 1a be 7e d5 eb bd
       0.29422677 -0.37220323 -0.15050021 -0.1151533
0002d0 db ae b2 3e 93 df 9e 3e e1 e7 61 3e de f2 7f 3e
       0.3489903 0.3102995 0.22061111 0.2499499
0002e0 0b 16 56 3e 4a 19 2e bd f5 45 a5 be 9d ba 90 3e
       0.20906846 -0.042504586 -0.32279935 0.28267375
0002f0 18 ec 20 be 8c a8 64 3e 2b 77 70 be 29 af 4f bc
       -0.15715063 0.2232992 -0.23482959 -0.012676039
000300 51 44 2e 3e 5b 54 5f be 70 78 ed 3c 74 bc 83 3e
       0.17018248 -0.21809523 0.028988093 0.25729716
000310 3d b6 c0 be 7b b1 43 3e 53 02 a2 be 06 2c a2 be
       -0.37639037 0.19110672 -0.31642398 -0.31674212
000320 15 f9 d7 3c ec 0a ac bd f9 a8 7c 3e ab 2b 2c be
       0.026363889 -0.08400521 0.24673833 -0.16813533
000330 a8 2c bd 3e 4e 81 4b be 9c 9f f4 3d 46 8d 13 3e
       0.36948133 -0.19873545 0.119445056 0.1440936
000340 10 5e 4a bd 2b 5d 9e 3e ee f9 68 bd 75 23 83 be
       -0.04940611 0.30930457 -0.056878977 -0.2561299
000350 00 06 1c be bf 5f ae be ac e8 ed 3d 1e 28 04 be
       -0.15236664 -0.34057423 0.11616644 -0.12905928
000360 c5 db 90 3e 8e 0f bc be 51 3f c4 bd 11 e5 12 bc
       0.2829267 -0.36730617 -0.09582389 -0.0089657465
000370 c0 30 9e be fe 7b 58 bd c0 fc 19 3d 58 97 90 3e
       -0.30896568 -0.052852623 0.037594557 0.28240466
000380 e9 76 c1 3e 78 27 1d 3e 43 c2 95 3e c9 ae e9 bc
       0.37786034 0.15347087 0.29249772 -0.028525727
000390 b8 6d f8 3d b7 03 97 3e cd 1b 87 3c 04 03 2a be
       0.12130302 0.29495022 0.016492749 -0.16602713
0003a0 a4 a5 72 be 3f 7f 16 3d 5b a6 29 be cd 2a b0 be
       -0.23696 0.036742445 -0.16567366 -0.34407654
0003b0 0a 09 82 be 2b 6d b5 3a 3e 19 ba be b2 5a 8b 3e
       -0.2539752 0.0013841739 -0.36347383 0.27217633
0003c0 01 b7 a2 3e 90 54 80 be 10 08 2d 3d fb c5 87 3e
       0.31780246 -0.25064516 0.042244017 0.26518235
0003d0 b2 32 9c bd 73 8f 32 3e 4d cc b0 3c 12 be a0 be
       -0.07626857 0.17437534 0.021581793 -0.31395012
0003e0 6c 9b 3a 3e 0d 85 3e 3e 9f ea 45 be 09 d8 68 3e
       0.18223351 0.18605442 -0.19327782 0.22738661
0003f0 09 ee 48 be ec 25 92 3d 8e f3 43 3e 56 cd 68 3e
       -0.19622053 0.07136139 0.19135877 0.2273458

shared_layers.0.bias f4 [128]
000000 70 6d e2 3d 66 30 88 3d 85 02 78 be 96 8a a9 be
       0.1105603 0.06649856 -0.24219711 -0.33113545
000010 ff e0 b1 3e c2 9f 86 3e 00 8c ab ba 82 ef 0f be
       0.3474197 0.2629376 -0.0013087988 -0.14056209
000020 90 08 4e be 39 5e 5c 3e 0b 3d 04 be 00 6c 44 3d
       -0.20120454 0.21520318 -0.12913911 0.04795456
000030 00 60 a1 39 1e bf 24 3e 1a 76 f0 bd d3 34 b6 3e
       0.0003077984 0.1608853 -0.11741276 0.35587177
000040 19 18 50 bd 7f 13 25 bc 5f 29 96 bd 03 95 48 be
       -0.05080423 -0.010075449 -0.0733211 -0.19588093
000050 b0 bc be 3e cb f8 73 bb e6 e8 0e 3e 7a f1 a5 3e
       0.37253332 -0.003722715 0.13956031 0.32410794
000060 1a 20 49 3e 1f b6 71 bc de c7 97 bd 1c 33 a0 3e
       0.19641152 -0.014752894 -0.074111685 0.31288993
000070 0b 79 13 bd 3c 52 e9 bd 2b 82 88 3e 35 29 58 be
       -0.036004107 -0.11392638 0.2666181 -0.21109469
000080 32 8a 24 3e b9 75 8e be 63 e1 54 be 1d a6 08 3e
       0.16068342 -0.2782419 -0.20789103 0.13344617
000090 0b 5a b9 3e 51 98 83 be 30 9f 12 3d 86 c3 bf 3d
       0.3620151 -0.25702146 0.035796344 0.09363465
0000a0 9c 56 ec bd 84 e5 34 be 36 62 16 be 93 a3 27 be
       -0.11539957 -0.17665678 -0.14685902 -0.16370992
0000b0 52 4d c2 3d 45 64 c4 3d 56 f4 92 3e ef 33 b0 3c
       0.09487404 0.095894374 0.2870204 0.021509139
0000c0 8e 5d 58 3e e8 7c 36 be 3d fc 1c be d3 52 59 bd
       0.21129438 -0.17821085 -0.15330596 -0.053057503
0000d0 5c 9f b3 3e 10 f4 9a 3e 8f 5a 49 3d db 9e 66 3e
       0.3508252 0.3026433 0.04915863 0.22521536
0000e0 22 74 13 3e 3b e5 2e 3e a8 7e 92 be 88 25 4c 3d
       0.1439977 0.17079632 -0.28612256 0.04984048
0000f0 08 49 3b 3d d0 b1 50 3e 95 db d9 bd e4 31 52 be
       0.045723945 0.2038033 -0.10637585 -0.20526844
000100 70 54 8f bd 97 6f 04 3d 52 23 98 3b 9c e9 c3 3d
       -0.06998527 0.032332983 0.0046428824 0.09566042
000110 15 3a de 3b 1a c4 8d be ce b1 6e 3e 77 da af be
       0.0067818263 -0.27688676 0.23310015 -0.34346363
000120 90 09 a0 be b6 b5 ba 3d 41 7c 1e be d8 92 6f be
       -0.31257296 0.0911669 -0.15477087 -0.2339586
000130 80 e7 c6 3c d7 aa a0 3e b4 d8 4a 3d 09 5d 90 3d
       0.02428031 0.3138034 0.04952307 0.07048995
000140 94 31 9a bc 7f 92 ad bd 5e a5 5f be 00 18 a5 3e
       -0.018822469 -0.084752075 -0.21840426 0.32244873
000150 23 75 09 3d d0 9d 6a be 3d cc 4f 3e 8a 67 c3 3e
       0.033558976 -0.22911763 0.20292754 0.38164932
000160 30 49 8c 3d 2d 33 79 be 0b a6 a6 3e 02 75 c1 bc
       0.06849897 -0.24335928 0.32548556 -0.023615364
000170 d4 53 8c bd 85 5a 82 be 47 fa 02 be c1 6d c4 3e
       -0.068519264 -0.25459686 -0.12790786 0.38364986
000180 67 ed 83 3e f0 4a 2c bd 91 8d 8a be a3 6d a5 be
       0.2576706 -0.042063653 -0.27061132 -0.3231021
000190 cf 73 83 3d 23 5f a0 3e 85 ac 6a 3d ab 69 b2 bd
       0.06418573 0.31322584 0.057293434 -0.08711561
0001a0 67 fc 3d be c3 3f 1a be b4 08 ac bd 5f c1 73 be
       -0.18553315 -0.15063386 -0.084000975 -0.23804234
0001b0 ae 5e f5 bd 5b 0b d7 bc 0b fe b9 3d ee 70 8c be
       -0.11980949 -0.026250532 0.09081658 -0.2742991
0001c0 cf e2 b6 bd 8a 28 77 3d f4 ec 23 bd a1 51 5b be
       -0.08929979 0.060341395 -0.040020898 -0.21417858
0001d0 3f b8 96 3e e0 db f6 3d f7 88 80 be 23 18 92 be
       0.29437444 0.120536566 -0.25104496 -0.2853404
0001e0 d0 13 75 3d e7 88 d3 3d 57 70 8c 3d 8b 3a 9b 3e
       0.059833348 0.103288464 0.068573646 0.30318102
0001f0 de 50 4a 3e 6d b1 2d bd 41 bf 34 be 29 55 17 3d
       0.19757411 -0.042405535 -0.17651083 0.03694645

shared_layers.2.weight f4 [128, 128]
000000 e6 06 be bd b1 74 6e 3d 77 6c ba bd 5c 7a b2 3d
       -0.092786595 0.058216754 -0.09102719 0.087147444
000010 37 74 fa 3b dd 55 3e bc 31 df e0 bc d2 35 87 3d
       0.0076432484 -0.011617151 -0.027450176 0.06602062
000020 d9 c2 ca bb d8 0f eb bc 35 b1 a7 bd 5f 90 b9 3b
       -0.0061877784 -0.028694078 -0.081880964 0.0056629623
000030 3e d3 84 bd 14 78 8a 3d 3e 61 4d 3d a0 f1 a0 bd
       -0.06485604 0.06761184 0.050141566 -0.07858586
000040 15 c7 b2 3d 1d 59 0e 3c 33 df c2 bd a5 ea 23 bd
       0.08729378 0.008688238 -0.09515228 -0.040018696
000050 bb 55 03 bd d3 e8 e0 3b 5a 02 50 bd 52 c3 83 3d
       -0.03206418 0.0068636923 -0.050783493 0.06433739
000060 2c 0c 81 3d c3 2c 90 3d 1d 17 c1 3d b6 db 6d bc
       0.0630115 0.070397876 0.09428237 -0.014517715
000070 be 86 b0 3c f8 76 0c bd c7 93 22 bd a8 b6 0d 3d
       0.021548625 -0.034293145 -0.039691713 0.034598023
000080 36 ff 5f bd 8e 69 88 3d e7 e3 94 3c d6 b1 79 bc
       -0.054686747 0.06660758 0.018175079 -0.015240153
000090 fb 02 4c bc 57 98 e9 3c 44 b3 2d bd 44 f6 d0 bc
       -0.0124518825 0.028515024 -0.04240729 -0.025508054
0000a0 4a 28 77 bc 5e 1d 51 bd 0d de dd 3c 7e 31 c8 39
       -0.015085289 -0.051053397 0.027083421 0.00038183847
0000b0 43 90 83 3d 3f a6 cb bd 70 37 8e bb 61 e8 36 bd
       0.06424 -0.09943818 -0.0043401048 -0.044655208
0000c0 b5 6d 38 bd c7 7f 8f bd cd f2 db bc c3 85 b7 3d
       -0.0450265 -0.070067935 -0.026849175 0.0896106
0000d0 da 12 63 bd 7d 8b cd 3c ce 00 4c bd 6e eb 56 3d
       -0.0554379 0.025090927 -0.049805455 0.052470617
0000e0 e0 a7 29 3d 35 1b 8d bd bc ed 3b 3d d7 e2 88 3d
       0.041419864 -0.06889955 0.045881018 0.06683891
0000f0 bd 4d 8a 3d db 61 66 bc a1 59 d0 3c 9e b6 73 bb
       0.06753109 -0.0140614165 0.025433363 -0.0037187706
000100 71 97 c9 bd c6 b8 84 3d 5f 4e 90 3d c6 e8 05 3d
       -0.09843338 0.06480555 0.07046198 0.032692693
000110 bc ba c4 3d a1 6d 43 3d 22 6e 9d bd 76 f8 a9 3d
       0.09605929 0.047711972 -0.07687022 0.08299343
000120 56 29 6b bc 60 a2 1a 3d fd b0 88 bd 7f 66 95 bd
       -0.014353117 0.03775251 -0.06674383 -0.0729494
000130 0e b4 a2 3b 17 80 19 bd 46 ba ed bb fb 00 84 bd
       0.004965312 -0.03747567 -0.0072548715 -0.064454995
000140 04 09 7c 3d 9a 60 d5 3d 70 67 0f bd 81 d6 9b 3d
       0.061532035 0.10418816 -0.035010755 0.07609273
000150 69 ee be bd 9c 32 a9 bc 37 7e 57 bd d8 69 c6 bd
       -0.09322817 -0.020654015 -0.052610602 -0.09688157
000160 46 e5 2b bc 5c 0f 45 3d a7 9f 06 3d b6 cb 4e 3d
       -0.010491675 0.04811035 0.0328671 0.050487243
000170 03 65 ac bd 12 96 aa 3d de 82 a7 bd 6f 08 68 3d
       -0.08417704 0.08329405 -0.08179258 0.056648668
000180 14 e1 05 3d b5 e9 7d 3d 4c 78 c5 bd 1a 8b 1e bd
       0.032685354 0.06199046 -0.096420854 -0.038706876
000190 63 ec b7 3d b7 37 7c 3d 88 24 1d 3d a9 ec 94 3c
       0.08980634 0.06157657 0.038364917 0.018179255
0001a0 53 6e 89 3c 1d 1b 8b 3d 4e 1f 6c bd 59 c1 0f bc
       0.01677624 0.06792281 -0.057647042 -0.008774125
0001b0 af 46 4a 3d b6 ef ad bd 9b d6 83 bd cf 44 28 3d
       0.049383815 -0.08492987 -0.06437417 0.041081246
0001c0 a2 86 72 3b 75 53 7c bd a0 87 8b bd 99 bd 9c 3d
       0.0037006517 -0.06160303 -0.06812978 0.076533504
0001d0 9d c7 62 bd ce 58 d0 bc 0a 5e 9f 3d d6 90 84 bd
       -0.055366147 -0.02543297 0.077816084 -0.06472938
0001e0 64 05 15 3d 05 cd 8e bd 58 7a 88 3b da 2d 97 bd
       0.036382094 -0.06972698 0.004164975 -0.07381792
0001f0 39 3e fc 3c 4d 62 d5 bc f6 88 bc 3b e7 14 88 3c
       0.030791389 -0.02604785 0.0057536317 0.01661153
000200 96 2f af bc 04 59 c3 bc e3 96 c7 bd 76 b0 8d 3d
       -0.021384995 -0.023846157 -0.09745576 0.06918423
000210 ea 93 68 bd d1 a1 c1 3b 9e f7 87 3b 78 39 c6 3a
       -0.056781687 0.0059091826 0.0041493913 0.0015123328
000220 dc 21 28 3b 00 36 b9 bc 60 09 b0 bd 3f 03 fc 3c
       0.0025654947 -0.022608757 -0.08595538 0.030763267
000230 b4 04 36 3d 7c b8 f2 bb 6d d1 1e 3d 5d a9 19 bd
       0.04443808 -0.007407246 0.038773943 -0.037515033
000240 3a 36 67 bd 01 4b 8c bd 07 ce 54 3c 86 21 bb bc
       -0.0564482 -0.06850243 0.012988574 -0.022843134
000250 1f b2 8f 3d 87 02 c6 bc b3 e4 82 bd 29 71 c2 3d
       0.07016396 -0.024171127 -0.06391277 0.0949424
000260 23 15 dc 3c 11 5f 82 bc 37 7d 68 3c 98 71 ae 3d
       0.026865548 -0.015914472 0.01419001 0.0851776
000270 a8 b3 9c 3b 2a ad 3b bd 86 64 44 3d ad b0 c5 3d
       0.004782159 -0.04581944 0.04794743 0.09652839
000280 95 9b d0 3c 83 64 c3 3c 22 11 84 3c a1 39 89 bd
       0.025464812 0.023851639 0.01612145 -0.06700445
000290 26 df a4 bd cf a1 2b 3d 68 dc ac bd dc 0d 8c bd
       -0.08050375 0.04190236 -0.08440477 -0.06838581
0002a0 8f 3a 67 3d 5c ad 30 3d 4f 10 6c 3d a8 8e 63 3c
       0.05645233 0.04313408 0.05763274 0.013888992
0002b0 91 13 4e bd 27 58 01 bd a4 fa 9d 3d 31 26 98 3c
       -0.05031163 -0.03157821 0.077138215 0.018572899
0002c0 b2 41 98 bd 61 70 8d bb 3a 94 f9 3c da 9b 90 bd
       -0.074344054 -0.004316375 0.030466188 -0.07060976
0002d0 d7 1d 0a 3d 17 98 6f 3d 4d c4 e4 bc b9 f4 89 bd
       0.033719864 0.058494654 -0.027925635 -0.0673613
0002e0 00 fc a0 bd 14 d4 fe bb 33 36 53 3d 82 6b 24 3d
       -0.07860565 -0.0077767465 0.05156536 0.04014159
0002f0 f0 09 82 bc 8b a7 fc bc 7b 08 cc 3d 33 58 7d bc
       -0.01587388 -0.03084161 0.09962555 -0.015462923
000300 e2 6d b0 bc e3 75 93 3b 93 51 6d bc 3a 9a b4 3c
       -0.021536771 0.004500137 -0.014484781 0.022046197
000310 51 de 13 3d 67 19 95 bd d1 40 c5 3b 3e c4 16 3d
       0.03610069 -0.07280236 0.0060196896 0.036808245
000320 4b 9c 8e bd c1 63 29 3d 2d 27 85 bd e9 54 5b 3c
       -0.06963404 0.0413549 -0.06501613 0.013386943
000330 7f ef 3a bd de 2b 83 3d 71 1c f2 bc c4 91 56 bc
       -0.045638558 0.064048514 -0.029554578 -0.013096277
000340 4b 77 e6 3c 4a a8 92 3d 54 99 d6 3d 9d 8c b4 3c
       0.028133055 0.07161005 0.10478464 0.022039706
000350 76 10 6e 3d d1 3d 82 3c 2f e5 14 3b d7 df dd 3b
       0.058121167 0.015898617 0.0022719612 0.0067710686
000360 c1 53 89 3d 3d e1 8b bd ae e3 32 bd f5 43 a0 3d
       0.06705428 -0.0683007 -0.043674164 0.07825462
000370 11 f7 4e 3d 37 58 05 bd 23 70 b0 bc 83 2a 38 ba
       0.05052859 -0.03255483 -0.021537846 -0.00070253777
000380 02 7a a3 bd f6 a4 94 bd 76 51 f2 ba 11 32 8b 3b
       -0.079822555 -0.07258026 -0.0018487412 0.0042479117
000390 93 9c d3 3d c8 a8 bf bd 2b 74 1f bd fa 0e 89 bd
       0.103325985 -0.09358364 -0.038929146 -0.0669231
0003a0 d4 b6 01 bd db d6 b4 3c 88 45 62 3d 80 b1 2b 3d
       -0.0316685 0.022075107 0.05524209 0.041917324
0003b0 93 26 8a bc df 6b 87 bd ce cd af 3c 97 ab e5 3b
       -0.016864097 -0.06612372 0.02146044 0.0070089805
0003c0 fa f6 c3 bc f1 76 9e bc a6 8d ff bc 15 24 45 bc
       -0.023921479 -0.019343825 -0.031195473 -0.012032528
0003d0 20 39 3b bd 50 0b 04 3d 36 71 c9 3d 45 dd 89 3b
       -0.045708776 0.03223735 0.098360464 0.0042072856
0003e0 3c 2f 01 3d 67 35 cf 3d 45 c1 fc 3c 64 3d dd bc
       0.031539187 0.101176076 0.030853877 -0.027006812
0003f0 ba 37 b1 bd 8f 3d a3 bd 17 da 9f 3c 00 c4 55 3c
       -0.08653207 -0.07970726 0.019513173 0.013047218

shared_layers.2.bias f4 [128]
000000 e4 92 a5 3a 66 46 9a bd a0 d2 85 bc 33 ce f9 bc
       0.0012632278 -0.07532959 -0.016335785 -0.030493831
000010 12 09 98 3c 96 91 99 3c 5a 3a 63 bd 63 4b 14 3d
       0.018559013 0.018746179 -0.05547557 0.036204707
000020 ef d2 8e bd 5c d7 4c 3d 9b 06 32 3d 5c e6 4b 3d
       -0.06973826 0.05001007 0.04346333 0.049780235
000030 bd 97 5b 3d f4 c4 4d bd 13 d4 84 3d 45 b7 68 bc
       0.053611506 -0.050236657 0.064857624 -0.014203851
000040 58 fe ec 3c b8 19 44 bc 80 b3 82 bd ea 41 9a bd
       0.028929874 -0.011969022 -0.06381893 -0.07532103
000050 a4 7d b2 bb ce d1 5f bd df 0f 55 bd 80 49 19 3d
       -0.0054471064 -0.054643445 -0.05201709 0.03742361
000060 b2 98 04 bd 91 f3 ba bd 34 08 83 bd 7b a0 5b bd
       -0.032372184 -0.09128488 -0.06398049 -0.053619843
000070 74 2b 8d bd f7 2f 96 bc 44 82 9f 3d 33 f0 7e bd
       -0.06893054 -0.018333418 0.07788518 -0.06224079
000080 22 60 d2 bd 6e 81 c6 bc 44 49 53 3d a8 e6 d5 3a
       -0.10272242 -0.024231639 0.051583543 0.0016319351
000090 f6 27 81 3d 32 ad d6 3d e0 a1 2a 3d 37 8d b0 3d
       0.0630645 0.10482253 0.041658282 0.086206846
0000a0 3f 8a 19 3d 3a 1f b0 3a 0c 52 81 3c f7 7f 08 bd
       0.037485357 0.0013437041 0.015786193 -0.03332516
0000b0 5f 91 fd bc ee bf 99 bd 8d d9 cc 3d 37 29 75 bd
       -0.030953107 -0.07507311 0.10002432 -0.05985376
0000c0 7f 5d a9 3c 68 10 ef 3c 89 dd 38 bd b3 b1 07 bd
       0.020674465 0.029182628 -0.045133147 -0.03312845
0000d0 90 c9 b8 3c 1f 57 a1 bd 0b d4 46 bd 50 54 7a 3c
       0.02255705 -0.07877945 -0.048542064 0.015278891
0000e0 f5 93 25 bd 01 9b c6 bc 5c 17 9a 3d 15 59 c7 bd
       -0.040424306 -0.024243833 0.07523987 -0.09733788
0000f0 0d 9b 6d bd ac d8 1d 3d 4f 86 a1 3c b7 e0 ae 3d
       -0.058009196 0.038536713 0.019717364 0.08538955
000100 1b fe 66 bd 13 69 be 3d 9b 1e 98 bc d4 10 ba bc
       -0.056394678 0.09297385 -0.018569281 -0.022713102
000110 57 48 0b 3c aa 83 44 3d e7 c3 a7 3d 35 7c 0e bd
       0.008501134 0.047977127 0.08191662 -0.03478642
000120 55 8c 88 3d b4 a8 4d bc 61 8d 23 3d e6 c1 43 bc
       0.06667391 -0.012552429 0.03992975 -0.011948084
000130 ca bb a5 3d 51 b3 ac bd 19 da 61 bd 5f 0e 26 bd
       0.080924585 -0.084326394 -0.055139635 -0.04054105
000140 ce c3 e0 bc 22 04 67 bd 85 83 36 bd 52 8a 6f bd
       -0.027437117 -0.056400426 -0.04455902 -0.058481522
000150 d0 04 d3 bd fc 48 30 3b 7b d4 69 bd 1b ea c6 bd
       -0.10303652 0.002689897 -0.057087403 -0.09712621
000160 32 8e 19 bd cd 27 da bc 1d 77 39 bc 78 4f 1b 3d
       -0.037489124 -0.026630307 -0.011319903 0.037917584
000170 dd 8c 2a 3d 8f 46 00 3d 44 63 46 3c a9 ab be bc
       0.041638244 0.03131729 0.012108628 -0.023275213
000180 ae eb b6 bc 75 63 9a 3c 03 e4 1e bd ee b8 b1 bb
       -0.022329178 0.018846253 -0.038791668 -0.0054236567
000190 a1 50 36 bc 7f 0c 35 bd 52 39 2e bd 8b 2e 8a bc
       -0.011127622 -0.04420137 -0.042535134 -0.016867897
0001a0 5b e7 d5 3d 61 85 6b 3d 2a 7f b0 3b b3 00 fa ba
       0.10444518 0.057500247 0.005386253 -0.0019073695
0001b0 ab 83 86 bb 59 ef 45 3d 11 21 3c bd 40 e4 ca 3c
       -0.0041050515 0.048323963 -0.045929972 0.024767041
0001c0 e5 44 ab 3b dd dd b7 3d ac 7f 76 3c 86 c2 a7 3b
       0.0052267187 0.08977864 0.015045088 0.0051196245
0001d0 40 de 01 bd 5c 4d 45 bd 33 f8 87 bd d1 bd 75 3d
       -0.031706095 -0.04816948 -0.06639137 0.059995476
0001e0 8c 50 79 3d 2c 52 1d bd 53 6c 31 bd c3 87 a1 bd
       0.06086783 -0.038408443 -0.043316197 -0.078872226
0001f0 39 7e 87 3d ee ff a8 3d ef f3 28 bd 4f d7 de 3b
       0.06615872 0.0825194 -0.04124826 0.006800569

actor_head1.weight f4 [51, 128]
000000 5d d8 16 bd 50 9b 54 3c 8e bd 4b bd f8 30 5a bd
       -0.036827434 0.0129764825 -0.04974132 -0.053269356
000010 c8 1a 26 3d b9 2a 4a 3b 6a 50 18 bd 10 9c 72 3d
       0.040552884 0.0030848219 -0.037186064 0.059230864
000020 d8 62 9b 3d f3 1e 76 3d ec db 95 39 a3 3f d3 3c
       0.07587212 0.06008811 0.0002858335 0.02578718
000030 d2 54 83 bb 35 a6 99 3d f7 02 31 bc fe 8c ba 3d
       -0.004007914 0.075024046 -0.0108039295 0.091089234
000040 e5 f5 2f 3d 6d e0 e9 3b 9b 7b 8a bc 0e 7a ac 3d
       0.042959113 0.0071373493 -0.016904643 0.084217176
000050 35 c2 23 3d cd e6 20 3d 96 d5 2b bc 39 5c 6a bd
       0.039980132 0.03928261 -0.010487935 -0.057216857
000060 82 0b 22 3c e7 12 b6 bd 77 a0 4b bd ec 61 78 3d
       0.009890439 -0.08890324 -0.049713578 0.06064026
000070 bd 0b ea bc 27 7d 0b 3d 21 a3 29 3c 67 fe 66 bd
       -0.02857005 0.0340549 0.010353834 -0.05639496
000080 74 31 2e 3d 42 ba 9c bc 5a 39 e5 bc 6d 3c 44 3d
       0.04252763 -0.019131783 -0.027981449 0.04790919
000090 d4 9d 21 3d 87 13 7f 3d 2c 5f fa bc 65 5e 11 bd
       0.039457157 0.062274482 -0.03056296 -0.035490412
0000a0 2c c6 74 3b c2 7a a3 bc 08 da b9 bd 84 68 c6 bb
       0.0037349565 -0.019955996 -0.09074789 -0.0060549397
0000b0 fb 80 e5 3c 12 77 b9 bd f8 01 41 bc e4 8c c0 bd
       0.028015604 -0.09055914 -0.011780255 -0.09401873
0000c0 a2 9a a0 bc 00 dc f0 bb 85 01 c0 bc 40 58 cb 3d
       -0.019604985 -0.007350445 -0.023438225 0.09928942
0000d0 08 b9 69 bd 9d c6 ae bd de 6e 1c 3d 41 81 9a bc
       -0.057061225 -0.08533976 0.03819167 -0.018860461
0000e0 e8 08 c4 bc cb aa 16 bd 2a 9d 64 bd 4e 6d 8f bd
       -0.023930028 -0.036783975 -0.055813946 -0.0700327
0000f0 00 c8 06 3c a1 c3 80 3c c0 3f 90 3d da 68 c6 3d
       0.008226395 0.015718283 0.07043409 0.096879676
000100 9e ac 57 bd 2c 9b 7e bd 41 e9 79 bd 23 58 82 3d
       -0.052654855 -0.062159702 -0.061013464 0.06364467
000110 5a ae a0 3d a9 e9 79 bc c9 f2 5f 3a 57 7c d3 3c
       0.07845755 -0.015253463 0.0008542953 0.025816126
000120 11 6a 0e bc 56 7b 5a 3c d1 d9 6a ba 9b b2 77 3d
       -0.00869228 0.01333507 -0.0008958849 0.060473066
000130 f8 3d 5d bd 51 94 7c bc bb 11 b6 3d d9 a4 55 3c
       -0.054014176 -0.015416221 0.088901006 0.013039791
000140 9a 98 36 3d 93 d9 2c 3d 6d 79 ab 3c b6 ff bc 3c
       0.044579126 0.042199682 0.020931924 0.023071151
000150 99 77 9b 3d 9d c5 e0 3c ad dc c0 bd 29 b1 6e 3d
       0.07591171 0.02743798 -0.094170906 0.05827442
000160 5b dd d1 3c d2 0e 5b bd b8 a9 a4 bb 7e 11 12 3d
       0.025618246 -0.05348093 -0.005025115 0.035661213
000170 1d 0d 97 bd 45 5c f1 bc c5 63 2c 3d 80 0e f9 3b
       -0.07375548 -0.029462943 0.042087335 0.0076006055
000180 9c a5 19 bc e9 b2 0f 3d c1 5c f7 bc 75 87 53 3d
       -0.009377863 0.03508273 -0.030195596 0.051642854
000190 19 44 8b 3d c0 bd 16 bd 30 eb 23 bd fa bb 75 bd
       0.06800098 -0.036802053 -0.040019214 -0.05999372
0001a0 14 bf 2d bc 36 5a e0 3b 42 00 ab 3c f0 fd b9 bd
       -0.010604639 0.0068466915 0.020874146 -0.09081638
0001b0 9e a3 85 bd aa 18 a4 bc 11 59 83 bc be 3e 64 bd
       -0.06525348 -0.020031292 -0.016033681 -0.055723898
0001c0 53 76 b2 3b 66 97 bc 3d 9c 64 01 3d 89 15 85 3d
       0.0054462343 0.092085645 0.03159009 0.06498248
0001d0 0c 04 83 3b a8 e5 b1 bc d9 82 fa 3c fe 0e 8c bc
       0.003998285 -0.021715954 0.030579971 -0.017096993
0001e0 8d 71 b9 3d 97 95 b0 bc 61 e5 54 3d 5e 83 9f bc
       0.09054861 -0.021555705 0.051976565 -0.01947182
0001f0 5c 9b 5b bc c7 a1 68 3d ff 3c 87 3d 9e 49 cd 3d
       -0.01340374 0.056794908 0.06603431 0.10023807
000200 f8 e7 ed 3c 01 2d 36 bd 63 dc 1f bd 37 65 a2 3d
       0.029041275 -0.044476513 -0.039028537 0.079294614
000210 6d 6b 5b 3c 6a 4c 2c bd bf a5 82 bd 7d 7c be 3c
       0.0133923115 -0.04206506 -0.0637927 0.02325272
000220 6d be 2e 3d 70 d0 83 3d fa 90 8b 3d 4c e3 75 3d
       0.042662073 0.06436241 0.068147615 0.06003122
000230 8c 75 99 bd d9 22 1f bd 8b 87 a3 bc 7d d1 f1 bb
       -0.074931234 -0.038851593 -0.019962093 -0.0073797093
000240 6f 1f 8c bd cb 2f b4 3d c0 87 6a bd ff 12 47 3d
       -0.06841933 0.08798178 -0.057258368 0.0486021
000250 aa 79 c6 bc 87 da af 3d c2 0d c3 bd 6b ae 5f 3d
       -0.024227936 0.08586603 -0.095241085 0.054609697
000260 05 9b 8e bc 7b 42 56 bb 25 0d 2a bb 94 76 e7 3c
       -0.017407903 -0.0032693434 -0.0025947776 0.028254785
000270 8a 8b c5 bd b7 71 b7 b9 57 f3 63 3d 0a 16 1d bd
       -0.096457556 -0.00034989204 0.05565199 -0.038351096
000280 8f 44 bc bd ab 7c cc ba 6d 8e 8e 3d 8f d6 61 3d
       -0.09192764 -0.0015601119 0.06960759 0.05513626
000290 78 34 4e bd 6e c5 0b 3d b6 37 82 bd e3 70 0f bd
       -0.050343007 0.03412383 -0.06358282 -0.035019767
0002a0 59 73 ba bd 67 96 45 3c e8 8d ce bc 24 d0 4d bd
       -0.09104032 0.0120597845 -0.02521415 -0.050247326
0002b0 9f 55 24 bc c9 c9 03 bb f6 28 71 bd 1b 99 2f bc
       -0.010030179 -0.0020109287 -0.058876954 -0.0107176555
0002c0 f9 b5 b8 3d d7 0b 91 bd c2 c0 23 3d 2e 28 84 3c
       0.090190835 -0.070823364 0.03997875 0.01613244
0002d0 e3 43 a2 bd f9 a7 98 bd 1c 7a 2a bd bf 3d a5 3d
       -0.079231046 -0.07453913 -0.04162036 0.08068418
0002e0 ee 0b 92 3d bc 38 b2 bd 7b 9c ab 3d 2b 94 34 3c
       0.07131182 -0.087022275 0.08379456 0.011021654
0002f0 f1 63 b8 3d a6 d6 af 3d bd 08 e3 39 ef 38 4f 3d
       0.09003437 0.08585863 0.00043303324 0.050591405
000300 9e 02 3d bc e3 f3 9e bc 73 0d bf 3d d2 87 b4 bd
       -0.0115362685 -0.019403404 0.09328737 -0.08814968
000310 4c e4 05 bd 64 bc d1 ba e4 cc c5 3d 88 c0 14 ba
       -0.032688424 -0.0016001579 0.096582204 -0.00056744413
000320 5f f9 5f bc bc b7 a5 3d bf 9a b6 bd 7d 30 47 3c
       -0.013670295 0.08091685 -0.08916234 0.012157557
000330 ae 07 ae bc d7 8d 5a bd ed c0 ca bc 4c c7 6f 3d
       -0.021243896 -0.053357925 -0.024750197 0.058539674
000340 97 c2 ae 3b 7a 18 64 3c 5b 16 40 3c ff b2 74 3d
       0.0053332555 0.013921851 0.01172408 0.059741016
000350 01 75 35 3d 91 06 21 bd 2d 3b 09 bd cf bb cd bd
       0.044301037 -0.039312903 -0.0335037 -0.10045587
000360 17 ff 2f 3d 65 9e 67 3d c8 8a d9 3c f0 3b e4 bc
       0.042967882 0.05654754 0.026555434 -0.027860612
000370 15 26 a8 3d 83 0d 22 3d 33 f5 5d 3d 0e b7 84 3d
       0.082103886 0.039563667 0.05418892 0.064802274
000380 07 f7 2f 3d 13 07 92 3c 6b a1 fd bc 4c 7c ea bc
       0.042960193 0.017825639 -0.03096076 -0.028623722
000390 96 d9 5e bc 8c a2 b0 bd 19 d8 03 3d 43 ba 43 bd
       -0.013601681 -0.08624753 0.03218851 -0.047785055
0003a0 59 a5 ba 3c d4 9c 98 3c 44 18 ad 3d 6c 83 aa bd
       0.022783922 0.018629469 0.08451894 -0.08325848
0003b0 b5 03 5d bb 07 71 41 bd 6f 17 18 3d d9 97 5f bd
       -0.0033724133 -0.047226932 0.037131723 -0.054588173
0003c0 c8 79 6b bd 8d 24 9f 3d e4 64 a3 bd 74 ab 78 3d
       -0.057489187 0.077706434 -0.07978228 0.060710385
0003d0 dd fb fa 3c 16 00 c9 3c 2e 2a 88 bc d5 43 56 bd
       0.030637676 0.024536174 -0.016621675 -0.052310783
0003e0 28 dd a8 3d 6f ac 00 3d 1f 9f 7d 3d 8a 55 fc 3c
       0.08245307 0.031414445 0.061919328 0.030802507
0003f0 85 cc 80 3d 9c 00 03 3d 23 cb 3c 3d 61 4a 19 3d
       0.06289009 0.031983003 0.046092164 0.03742445

actor_head1.bias f4 [51]
000000 21 ce ac 3c 7b 55 2a bd 8a 57 ad 3c 01 73 c6 3d
       0.021094384 -0.041585427 0.021159906 0.09689904
000010 8d bf 85 3d 99 28 04 bd e8 23 ed bc e1 be 84 bd
       0.06530676 -0.03226528 -0.028947785 -0.0648172
000020 31 39 bd 3d 17 22 31 bc 51 f6 bc bc f2 a8 91 3d
       0.09239424 -0.01081135 -0.023066672 0.07112302
000030 4a 60 f7 bc e1 c9 9a bc 8a 60 87 3d 79 ab 41 bd
       -0.030197281 -0.018895091 0.0661021 -0.04728267
000040 65 6a 93 bd 96 86 7b 3d 89 6c 0b bd 60 3b 0f bd
       -0.071980275 0.061407648 -0.034039054 -0.034968734
000050 c6 6c b2 bd 4d 5c 7e bd 9e a5 45 bd 4c 88 57 bc
       -0.08712153 -0.062099744 -0.048253648 -0.013155054
000060 78 f9 48 3c 0b ef 1c bb ce 20 33 bd 2a 94 a8 bd
       0.012266509 -0.0023946192 -0.043732457 -0.08231385
000070 ed f4 74 3d 52 68 94 bc 3c d2 64 bd ec 36 fd bc
       0.059803892 -0.01811615 -0.055864558 -0.030909978
000080 57 e8 42 bc ff 28 84 bd 58 13 82 bd c7 0f 14 3d
       -0.011896214 -0.06453132 -0.06351346 0.03614786
000090 a5 b8 93 3d 4c c4 79 3d 23 90 8d 3d 5c f5 5b 3d
       0.072129525 0.06097822 0.069122575 0.05370079
0000a0 9a e1 2f bd b2 43 91 3b 48 e7 3f bc 39 8f 44 3d
       -0.04293976 0.0044331187 -0.011712857 0.04798815
0000b0 38 36 ad bb 1b de b2 bd f9 4d 4f bd ad 06 a7 bd
       -0.0052860044 -0.087337695 -0.05061147 -0.0815557
0000c0 72 c4 4a bd 22 ef 07 3d fd 95 f1 3c
       -0.04950375 0.03318704 0.029490465

actor_head2.weight f4 [51, 128]
000000 bb 9b 6e 3d 34 5f 6d bd 5f 5c 2f 3d b3 50 4d bd
       0.058253985 -0.05795212 0.0428127 -0.05012579
000010 4c 01 6a 3d 82 24 48 bd 32 c4 ad 3d 09 25 9d bd
       0.057130143 -0.04886294 0.08484687 -0.076730795
000020 c2 a7 1c bd a0 51 36 bd 22 71 92 bc 60 63 6f 3d
       -0.038245924 -0.044511437 -0.017876212 0.05844438
000030 ad b8 56 3d 27 c7 84 bd b6 fb 1e 3d 41 df e5 bc
       0.052422214 -0.06483298 0.03881427 -0.028060557
000040 25 29 d3 bc d8 18 a5 ba 06 10 b2 3c 1f f0 80 3d
       -0.025776455 -0.0012595905 0.021736156 0.062957995
000050 03 95 d0 ba fe e2 98 3d 73 91 bf bd f6 48 10 3d
       -0.001591355 0.0746517 -0.09353914 0.03522583
000060 d0 c7 8d bd a3 bb 45 bd c8 b7 54 3d b8 ec af bd
       -0.06922877 -0.048274647 0.05193308 -0.085900724
000070 4b ae 97 bc 67 bf 64 bd d6 1a 3c 3d 58 1f 2a bd
       -0.018515727 -0.055846598 0.04592403 -0.041533798
000080 95 e5 33 bc 1e 07 63 3b e6 83 69 3d 5a 67 70 bd
       -0.01098003 0.0034641693 0.057010554 -0.058692314
000090 c6 ab 22 bc 50 37 6a bd bd 6d 1c bd 85 da 6d bd
       -0.009928649 -0.057181656 -0.038190592 -0.058069725
0000a0 9a a1 b1 bc b0 06 ad bd 75 26 8b 3d 6d 71 9d bc
       -0.021683503 -0.08448541 0.067944445 -0.019219125
0000b0 ce 89 3c bd 88 8f 13 3d 4a 25 3b 3d e5 fd 11 3d
       -0.04602986 0.036025554 0.04568986 0.035642523
0000c0 34 7f 41 3d 2c 1f 53 bc 82 89 f6 3c 48 c0 1b 3c
       0.04724045 -0.01288585 0.030094866 0.009506293
0000d0 82 29 c0 bd 64 93 aa bb c2 db c9 ba 89 f5 8c bb
       -0.09382917 -0.0052055586 -0.0015400576 -0.004301731
0000e0 4c 10 ce 3c 6f 40 15 bc 44 b3 45 bd a6 81 22 3d
       0.025154255 -0.0091096 -0.048266664 0.039674424
0000f0 00 89 4f bc 04 78 1d bb b9 45 fe ba cc bc 25 bc
       -0.012666941 -0.0024027834 -0.0019399441 -0.010115813
000100 2c 41 2d bd 5f 3d 42 3c c7 0e 43 3c 5a bd 52 3d
       -0.04229848 0.011855452 0.011905379 0.05145011
000110 a5 f0 80 bd bb 3e 2b 3d f2 dd b5 3c 7a cd ce bd
       -0.06295899 0.04180787 0.022200558 -0.10097785
000120 3d b0 97 bd 89 11 4d bd 69 31 f7 3c 10 4c 89 bc
       -0.07406662 -0.05006555 0.030174928 -0.016759902
000130 26 19 cf 3d b2 63 da bc 73 fe 94 3d d1 09 18 3d
       0.101122186 -0.026658867 0.07275095 0.037118737
000140 c2 28 b4 bd cd 77 5e bd ba d0 85 bd aa 40 31 bd
       -0.087968364 -0.05431347 -0.06533952 -0.04327456
000150 fb 31 a9 bd 96 a5 78 bd 54 b4 31 bd 39 64 c5 bd
       -0.08261486 -0.06070479 -0.043384865 -0.096382566
000160 2b 9e b4 bd b1 94 87 3b 83 ac 18 3c 65 8e 70 3c
       -0.08819231 0.0041375984 0.009318474 0.014682387
000170 cc e9 b4 bd db 0c 8a 3d 75 71 d0 3d 6b c7 77 3d
       -0.08833656 0.06740733 0.1017789 0.060492914
000180 71 47 b0 bd d5 07 1e 3d f2 54 8e 3c c3 c1 92 3d
       -0.08607376 0.038581688 0.01737449 0.07165863
000190 e8 2a 8a bd 84 a5 ab bd c3 fa 23 bd d8 ee 8e bd
       -0.06746465 -0.08381179 -0.040034067 -0.069791496
0001a0 ab 7d 38 bd 9b ed 85 3d ed 54 89 bb a3 41 ab bd
       -0.04504172 0.0653946 -0.004191032 -0.083621286
0001b0 b0 6f 99 bc 6d 34 a4 bb 31 c4 a0 bc 8a 7d a0 3c
       -0.018730015 -0.0050111325 -0.019624801 0.019591112
0001c0 88 47 8d bd 2c 6e 7f bd 6a 4e dd bb 98 63 09 bd
       -0.06898409 -0.062360927 -0.0067537325 -0.033542246
0001d0 71 da 3c bc 45 28 93 bd 63 17 94 3d fe c7 c2 bc
       -0.01152669 -0.07185415 0.07231023 -0.023777004
0001e0 d6 88 46 bc 2c de 69 bc 51 fe 06 bc 6b 72 d4 3c
       -0.012117585 -0.014274161 -0.008239345 0.025933465
0001f0 68 a9 85 3d c5 7e 5c 3d f3 11 81 bd 77 28 5e 3c
       0.06526452 0.053831834 -0.06302252 0.013559452
000200 f0 f1 82 3c 4e 9d 8f bd 93 cf c7 3d a4 7e 4e 3d
       0.015984505 -0.07012425 0.097563885 0.050413743
000210 85 24 d7 3d 0e 77 8b 3d 7d 61 8e 3d 2d 74 b9 bd
       0.105050124 0.06809817 0.06952188 -0.09055362
000220 e1 b5 57 bd 6e 72 46 3c 94 ab e1 bc bc db 81 3d
       -0.052663688 0.012112243 -0.027547635 0.06340739
000230 8a df 89 3d 34 05 42 3d 5d b6 c2 3b 8f 7a 84 bd
       0.0673209 0.047368243 0.0059421496 -0.06468689
000240 82 f6 bc bc 23 6b a0 bc 0e cb 5a bd 62 74 4a bc
       -0.023066763 -0.019582337 -0.053416304 -0.012356849
000250 5a c5 a3 3c 30 74 54 3d 6e fb 4e bd 09 37 35 3d
       0.019991565 0.051868618 -0.05053275 0.04424194
000260 d2 24 8b bd 52 33 d1 bc e6 c5 96 bd bb 6c 09 3d
       -0.06794132 -0.025537167 -0.07361965 0.03355096
000270 9a fc 9e 3c f2 3f 09 3d 2a e8 7b bc af ff 1d bd
       0.01940756 0.03350825 -0.015375176 -0.038573917
000280 27 bd 66 3d 02 c2 23 3c 81 83 57 3d b2 f9 67 3c
       0.056332733 0.009994986 0.052615646 0.014158653
000290 ac 84 59 3d 58 0c 66 3d 39 e4 d5 bc 78 d8 b6 3b
       0.05310504 0.056164116 -0.026109802 0.0055800043
0002a0 28 50 94 3d 84 57 0f 3d bb d8 a5 3d 80 3d b0 3c
       0.07241851 0.03499557 0.08097979 0.0215137
0002b0 58 56 b3 bd 43 1f 9d 3d c1 af 12 bd c5 c7 14 bc
       -0.08756703 0.07671978 -0.035812143 -0.009080832
0002c0 6b 91 b3 3d 8a 42 a1 3c 3d c4 99 3b ef 08 c9 3d
       0.08767971 0.019685049 0.004692583 0.09816157
0002d0 06 c5 45 3d 2e da 0c bd a0 7a db bb ff 5c f3 3c
       0.0482836 -0.03438776 -0.0066979676 0.02970743
0002e0 f4 19 94 bd b7 2d 86 bd 77 9a 8a 3d 90 2a 00 3d
       -0.07231513 -0.06551688 0.06767743 0.03129059
0002f0 66 86 3a 3d 5c c0 b7 bc 06 8e af 3d e7 b1 3f 3d
       0.04553833 -0.022430591 0.08572011 0.04680052
000300 dd d8 4a 3a 27 93 a8 3d 1e d1 8b 3d a7 5a 60 3d
       0.00077380036 0.08231192 0.06826995 0.054773953
000310 36 a6 77 3d 3b 94 70 bd 94 3a a4 3c 77 85 b4 ba
       0.060461245 -0.058735114 0.020047463 -0.0013772686
000320 a2 cf b1 bd 60 1d 93 bc bb ef 02 3d fe 5a 87 3b
       -0.08682181 -0.017958343 0.031966906 0.00413072
000330 37 ef c8 3d 1a f9 a9 bd 03 e0 16 3d f8 6d 59 bc
       0.098112516 -0.082994655 0.036834728 -0.0132708475
000340 4a 3e d2 bc 73 68 16 3d 4a fc 8e bd ef aa 3c 3d
       -0.025664467 0.036720704 -0.06981714 0.046061452
000350 75 ec 43 bc b7 66 e7 3b eb 30 61 bd aa 08 ce bd
       -0.011958231 0.007061805 -0.054978292 -0.10060246
000360 89 1b 4d 3d 0f 82 09 38 9f 7b 57 3d af ba 69 bd
       0.050075088 3.2784472e-05 0.05260813 -0.0570628
000370 9c 37 3b 3d c2 23 bd bd dc 43 96 3d d7 05 ad bc
       0.04570733 -0.09235336 0.07337162 -0.021120949
000380 1f ef 3e 3d 54 72 5e bd 01 32 56 bd ea 8d b2 bd
       0.046614762 -0.05430825 -0.05229378 -0.08718474
000390 e0 1b c4 3d 7e fd 3e 3d 7d 55 8b bd ef 92 94 3d
       0.09575629 0.046628468 -0.06803415 0.07254588
0003a0 10 ae 6b 3d ae f2 ba 3d 86 6e 96 3d 33 95 4c 3d
       0.057539046 0.09128319 0.073452994 0.049946975
0003b0 01 bc f0 bc bd 23 06 bd 02 9a ec bc 4f 8f 52 bd
       -0.029386522 -0.032748926 -0.02888203 -0.0514062
0003c0 c6 63 bb bd 77 51 68 bd 34 f7 04 bd c5 60 6e 3c
       -0.0914989 -0.056718316 -0.032462314 0.014549439
0003d0 6a 30 61 bd 15 9a 62 bd f4 4a 17 bd bc ea 6f 3c
       -0.054977812 -0.055322725 -0.036936715 0.014643367
0003e0 ff 69 8e bd ae 21 b8 bd 0a bc 75 3d 3d 12 a3 3c
       -0.06953811 -0.08990799 0.05999378 0.019906158
0003f0 af 73 c5 3c 2a 9b 95 bd 2e 17 21 bb 88 ee c8 3d
       0.024103014 -0.07304986 -0.0024580467 0.09811121

actor_head2.bias f4 [51]
000000 81 1a 20 bd 66 ab 93 bc ff 3e 11 bc b9 3b 20 bd
       -0.039087776 -0.018026065 -0.008865117 -0.039119456
000010 e1 ed 53 bd 5b 45 c5 bb 64 6a 60 3c 94 a3 03 bd
       -0.05174053 -0.0060202307 0.0136972405 -0.032138422
000020 aa 96 72 bc 8d 76 11 3d 9f 42 e0 bb 84 24 d7 bc
       -0.014806429 0.03551345 -0.0068438794 -0.02626253
000030 f4 4d c4 bb ab b7 4b 3d bd 4f 33 3d f2 82 cb 3c
       -0.005990738 0.049735706 0.043777216 0.024842713
000040 4a 23 da bc 96 8b 22 3d 74 02 04 bd 6f 9c 7c bd
       -0.026628155 0.0396839 -0.032228902 -0.061672624
000050 18 7e db bc 56 65 0f 3d 12 74 32 bd 60 8c 9c bd
       -0.026793525 0.03500875 -0.043567725 -0.07643962
000060 44 6b 56 3d 97 3c 4b bd ac df 74 3d 23 c7 9f bc
       0.05234839 -0.04961833 0.059783623 -0.019504135
000070 19 67 79 3d fc b7 8b 3d e9 cc 33 bc ff 12 04 3d
       0.060889337 0.068222016 -0.010974147 0.03224468
000080 50 ea 41 3d f3 b1 a1 3c 1b b8 98 3d 24 79 62 bd
       0.0473426 0.019738173 0.0745699 -0.05529131
000090 4c ad ae 3c 44 0a 02 3d e7 4c 9a bd ed 53 5f bc
       0.021322869 0.03174807 -0.07534199 -0.013630849
0000a0 fa 0d 04 3d 96 e6 27 bc 1b 9a 10 3d 4e 36 c0 bc
       0.03223989 -0.010247847 0.035303216 -0.023463394
0000b0 69 46 1a 3d e6 e2 91 3d fb 9c 8a 3d 63 80 b0 bd
       0.037664805 0.071233556 0.06768223 -0.08618238
0000c0 76 b2 fb 3b ea a4 39 bd 31 e8 29 bd
       0.0076811863 -0.04532329 -0.0414812

critic_head.weight f4 [1, 128]
000000 36 9c a9 bd 06 48 c3 bd 2f e1 c5 3d 01 5c 5f 3d
       -0.08281748 -0.09535222 0.09662091 0.0545311
000010 f4 f8 53 3d b6 34 b5 bc ac fc 43 3d 85 70 37 bd
       0.051751092 -0.022119861 0.04784839 -0.04478504
000020 1f 9d e2 3d 8b 75 bf 3c d1 97 70 3d 5e a6 ac 3d
       0.11065125 0.023371479 0.058738533 0.084301695
000030 e3 87 1c bd c1 58 75 bd 84 e5 b1 3d 5e e5 5e 3d
       -0.03821553 -0.059899095 0.08686355 0.05441796
000040 f9 f7 1b 3d 78 c6 69 3d 7e 89 2a 3d 41 13 78 bd
       0.038078282 0.05707404 0.04163503 -0.060565237
000050 82 6d bb bd 06 1d a8 3d 9e 88 b6 bd 38 3d 6f 3d
       -0.09151746 0.08208661 -0.089127764 0.058407992
000060 fb 19 5b 3d 61 8e be bd 98 03 10 bd 1e 06 e1 3c
       0.053491574 -0.093045 -0.035159677 0.027468737
000070 b0 4d 9b bd 86 78 10 bd e0 0a bb 3d 7e 69 f3 3c
       -0.07583177 -0.03527119 0.091329336 0.029713389
000080 2d 7e c7 bd f3 3c c9 3d 86 6e 7d 3d c7 16 54 bd
       -0.09740863 0.09826078 0.06187298 -0.051779535
000090 9d 46 a7 3d 77 2b 03 3d 19 f3 17 3d a9 75 93 3c
       0.08167765 0.032023873 0.03709707 0.01800044
0000a0 15 72 c9 bd af 32 c8 bd 9c 36 56 bd 0a a5 fa 3c
       -0.098362125 -0.09775292 -0.052298173 0.030596275
0000b0 94 68 7e 3c 94 1c 7b bd e7 56 95 3d 2a fb cd bc
       0.015527863 -0.06130655 0.07291966 -0.025144178
0000c0 c0 d4 ae 3d 78 e0 32 bd f5 05 9b bd 19 73 c7 3d
       0.085366726 -0.0436711 -0.075694956 0.0973875
0000d0 88 84 dc bd 2d 9e 0a bd 19 a6 67 3d 1d f1 7e 3d
       -0.10767466 -0.033842254 0.056554887 0.062241662
0000e0 18 18 a5 bd d7 e2 b3 bd 95 31 8b 3c 83 c0 7e bd
       -0.08061236 -0.08783501 0.016991416 -0.062195312
0000f0 4b fb 82 3d 79 8e f5 bc 71 b8 8b 3d 7d 35 95 3d
       0.063955866 -0.029975163 0.06822289 0.07285593
000100 48 0d b6 3d 2b e4 56 3d 45 b2 9d 3c 43 61 35 bd
       0.08889252 0.05246369 0.019250045 -0.04428221
000110 f0 e0 93 bd 99 fd 7c bd c3 f1 f9 3c e6 61 cf bc
       -0.07220638 -0.061765287 0.030510789 -0.025315236
000120 66 53 89 3d 65 a5 23 3d 17 a5 66 bd 71 df b3 3c
       0.0670536 0.039952654 -0.056309786 0.021957131
000130 49 6b 3a 3d aa 69 28 bd 1a 36 c8 3d 23 95 a1 3d
       0.04551247 -0.041116394 0.09775944 0.07889774
000140 57 79 ba bd 6b 56 d9 bd ad 57 da bd d2 91 e3 bc
       -0.09105175 -0.10612186 -0.10661254 -0.027779493
000150 79 5a a5 bd 09 ea 1b 3d 87 e9 72 bd ac c5 6b bd
       -0.08073897 0.03806499 -0.05930474 -0.05756156
000160 4e 0c 0c bd cc 0b 91 bd ae 85 20 3d b5 88 be bc
       -0.034191422 -0.07082328 0.039189987 -0.023258546
000170 15 f4 8e bd 1d 94 d7 bd 66 42 92 3d 18 12 b4 bc
       -0.06980149 -0.10526297 0.07141571 -0.021981284
000180 da 57 92 bc 53 42 b2 3d 81 3a cc bc 30 57 80 bd
       -0.017864157 0.087040566 -0.02493024 -0.0626663
000190 d5 ae 58 3d 90 a3 c0 bc 9f 26 a3 3d 2b c0 68 3c
       0.052901108 -0.023515493 0.07966351 0.014205973
0001a0 cc 6d 4c 3d f9 f8 a5 3d 63 0a ae 3c f0 86 45 bd
       0.049909398 0.081041284 0.021245187 -0.04822439
0001b0 b7 f6 1e bd 57 1b c1 bd 82 a4 87 bd 27 73 c1 3d
       -0.038809504 -0.09429043 -0.06623174 0.09445792
0001c0 d2 f9 73 bd c4 71 93 3d e4 9b a4 3d d8 d8 c2 bd
       -0.05956442 0.071994334 0.08037546 -0.09514016
0001d0 45 59 10 bd b4 f0 c9 bd 51 45 c3 3c 42 6c c4 3d
       -0.035241384 -0.098603636 0.023836764 0.09590961
0001e0 9e a5 26 3d 7a a3 6f bd d9 14 fc 3c 1f fc 8f bd
       0.04068529 -0.058505513 0.03077166 -0.0703051
0001f0 59 3a dd 3c 3d ed bf 3c c4 50 b7 3c 89 87 bf 3d
       0.027005361 0.023428554 0.02237738 0.09352023
