models/ppo_gear_placer_best.pt (torch, 125870 bytes, 9 tensors)

shared_layers.0.weight f4 [128, 6]
00000000: 04c6 68be d71f 8abe 90ee 003e 8c60 0f3e
00000010: 204f cfbd 2c81 a73d 0673 923e a4c3 e0bd
00000020: 30fe 9cbd 9cbc 17be bca1 c13e 0066 213e
00000030: bc7b 6abe 6cf1 493e 4c6f bf3e 4f29 99be
00000040: 7c4c e1bd 8fba 3bbe 6826 983e f896 523e
00000050: 50a5 033e 4437 473e 2c0b afbe 008e 05bc
00000060: 5a62 893e c468 9abe 1047 4d3e 98ea 02bd
00000070: 13a9 45be c85a 0bbe fc97 273e 84d0 08be
00000080: 704b 103d ec58 6d3e e8c5 b73e 60f0 753e
00000090: 23eb 77be 6064 473e 34af 8abe d1cf 50be
000000a0: 7072 7f3e 4ad6 c3be 0482 c6be b24a 64be
000000b0: 9c50 9a3e 28a2 9f3e 38f9 283e 38cf 89bd
000000c0: c0a7 af3e 50eb 893e a67c a33e 10b5 87bd
000000d0: 1e0d c13e 6a97 99be 382a 7c3e dc61 c93e
000000e0: 946a 37be 4a5a 1ebe 49f7 7bbe 0414 513e
000000f0: b8dc 1e3d bcfc a0be 689a 1b3e 97e4 c1be
00000100: 6224 2abe a4a3 c73e 50ec fcbc 30dd 5c3e
00000110: b8dd 7d3e 1686 1fbe 0c77 a93d 646d b63e
00000120: 48c5 893e 2467 8a3e 20ff 7dbd beca b43e
00000130: 2e6b 48be c0e5 ae3e e956 babe fe7d 9d3e
00000140: 7429 993e 80c1 4a3b b07e c93e 9089 89bc
00000150: d0dd 523e fed7 b1be 78ce 913d 0100 ccbe
00000160: 608e debd 3826 b6be 208c 2a3e 4053 0c3e
00000170: fc37 e5bd 1c0d 8b3d 7ca6 2c3e ec6a 4e3e
00000180: 9cf5 cd3e e012 4dbc 18a2 cb3e c0d7 ef3c
00000190: b73a 55be 2605 7dbe 62ac 813e d936 5fbe
000001a0: 9cce 703e 800a bebb e002 eb3d a03f 92be
000001b0: 9cc5 8cbd f87b 583d ced5 993e 80ce 7fbd
000001c0: 3c87 333e 402b 50bd 2c49 363e bcae 8f3e
000001d0: a3b4 9bbe 02cc 883e c02a 3e3e 32c0 9a3e
000001e0: 00cd cb3b cc0a 3a3e 929c 953e 3ca4 ab3e
000001f0: 2d60 cfbe bc22 adbd dec8 8dbe 9116 25be
00000200: da82 34be c058 0a3e 9abf b83e 986b d6bd
00000210: 346c e5bd 8aef 9a3e b8c6 c3be e2cc a4be
00000220: 7936 33be 723f 5abe 1977 75be ed47 c5be
00000230: 9c34 813d a662 ba3e ec8e 91be f036 563d
00000240: a02d 78bc 5d6e 98be 4bee 5abe 100e 633e
00000250: afb1 7dbe f4d4 a4bd f830 943e 00f8 cd3c
00000260: f0bb 43bd 7004 a0be e63f b63e 38a6 433e
00000270: e6b5 b33e 38d8 3b3d d016 a13d 1410 293e
00000280: 2c68 3f3e 3cc9 2d3e 5a6b 913e 645c 9cbe
00000290: 0884 053e 3cf0 08be e000 923e 1816 c23e
000002a0: 04f8 8fbe 18b4 14be e411 8e3d 1c8f 9a3e
000002b0: 0046 c4ba 20c0 7bbc 6ad7 c33e 4cae 86be
000002c0: f617 a03e 28e5 6f3e d77a a6be 006c 173c
000002d0: 7c5e a43e 86b8 ce3e c033 cb3d 0443 c5be
000002e0: e907 abbe c87f 303e dc08 a9be d85d 6f3e
000002f0: 28d1 1abd a854 61be 4cde 743e 042a 253e
00000300: aebe 9f3e a430 7e3e 94f9 9bbe 4cce c6bd
00000310: 1063 863e e60d a73e 240b 15be 3848 af3e
00000320: 60ba b5be 78da e4bd e407 7dbe 7003 c83d
00000330: d4f3 4b3e d848 233e 8016 b03e 0096 c43a
00000340: a0e0 9ebc a5a7 b2be c8a9 bf3e a057 103e
00000350: 1046 8b3c 4cef 8c3d 2874 8cbd 98b0 e93d
00000360: 86f7 cebe 00c4 f9b9 358b 3dbe ed1e adbe
00000370: 9c07 5a3e 342e 54be 8037 75be 8085 22bb
00000380: 3810 aa3e cec7 47be 30a2 623e 4c33 0abe
00000390: 2c3e bc3e 5cf6 9e3e 98ec 963d b457 fbbd
000003a0: 3075 38be d440 993e a6ec 983e 48bb 873e
000003b0: ec0e be3e 7488 4abe dec6 aebe 30a7 9fbd
000003c0: 524e 60be e607 b63e b0c5 97bd e737 8cbe
000003d0: 73ed adbe 48a1 a33e dbae c0be 822a 97be
000003e0: d81c 533d 8f12 babe deba 9b3e 6063 653e
000003f0: 2a51 8b3e dc88 b9bd 616b 6fbe f841 37bd
-0.22731787 -0.26977417 0.12591004 0.14001673 -0.10122514 0.081789345 0.2860338 -0.109748155
-0.0766567 -0.14818043 0.37818706 0.15761566 -0.22898763 0.19721001 0.373896 -0.29914328
-0.11000916 -0.18332885 0.29716802 0.20565403 0.1285603 0.19454676 -0.3418821 -0.008151531
0.2683285 -0.30158055 0.2004664 -0.031962007 -0.19302778 -0.13608849 0.16366571 -0.13360792
0.035228193 0.23178452 0.35893178 0.24017477 -0.24210791 0.19471884 -0.27086794 -0.20391776
0.24945998 -0.38249427 -0.3877107 -0.22294119 0.30139625 0.31178403 0.1650132 -0.06728977
0.3430767 0.26937342 0.31931037 -0.06626332 0.3770532 -0.29998332 0.2462548 0.39332473
-0.1791175 -0.1546413 -0.2460605 0.20417792 0.038784713 -0.3144282 0.1519562 -0.37869713
-0.16615441 0.38992035 -0.030874401 0.21568751 0.2479161 -0.15578493 0.082746595 0.35630333
0.26908326 0.27031815 -0.062010884 0.3531093 -0.19572136 0.3415966 -0.36394432 0.30760187
0.2991444 0.003093809 0.39354467 -0.016789228 0.20592427 -0.347351 0.07119459 -0.39843753
-0.108669996 -0.35576034 0.16655016 0.13703632 -0.11192319 0.0678961 0.16860384 0.20157975
0.40226448 -0.012516707 0.39772105 0.029277682 -0.20823179 -0.24708995 0.2532683 -0.21798266
0.23516315 -0.0057995915 0.11475158 -0.28564167 -0.068736285 0.0528526 0.30045933 -0.062452793
0.17532057 -0.050822496 0.1780135 0.28063 -0.30411252 0.26718146 0.18570995 0.30224758
0.0062195063 0.18168181 0.29221016 0.33523738 -0.40503064 -0.08453891 -0.27692312 -0.1612189
-0.17628041 0.13510418 0.3608368 -0.10469741 -0.11202279 0.3026088 -0.38237548 -0.32187563
-0.17501248 -0.21313265 -0.23971213 -0.38531438 0.063088626 0.36403388 -0.28429353 0.052298486
-0.015147597 -0.297717 -0.21379964 0.22173333 -0.24774812 -0.0804843 0.2894361 0.02514267
-0.047786653 -0.31253386 0.35595626 0.19106376 0.35099715 0.0458605 0.07865679 0.1651004
0.18692082 0.16971296 0.28402215 -0.30539238 0.13038647 -0.13372892 0.28516293 0.3790748
-0.28118908 -0.14521825 0.06937006 0.3018731 -0.0014974475 -0.01536563 0.38250285 -0.26304853
0.3126828 0.2342726 -0.32515594 0.009242058 0.32103336 0.40375155 0.0992198 -0.3852769
-0.33404472 0.17236245 -0.33014572 0.23375642 -0.037797123 -0.2200495 0.23912925 0.16129309
0.31200165 0.24823242 -0.3046385 -0.09707317 0.26247454 0.3262779 -0.14555031 0.34234786
-0.35493755 -0.11174482 -0.24710041 0.09766281 0.19917232 0.15945756 0.34392166 0.0014998317
-0.019394219 -0.34893528 0.3743422 0.14095926 0.017001182 0.0688158 -0.068580925 0.11410636
-0.4042322 -0.00047639012 -0.18510135 -0.33812657 0.21291965 -0.2072075 -0.23946953 -0.002479881
0.332155 -0.19509813 0.22132182 -0.1349613 0.36766183 0.31047332 0.073693454 -0.122725874
-0.18013453 0.29932272 0.29868048 0.26510072 0.3712076 -0.19778615 -0.341361 -0.0779556
-0.21904877 0.355529 -0.07410753 -0.273864 -0.33970222 0.31958985 -0.37633404 -0.29524618
0.05154118 -0.36342284 0.30416006 0.2240119 0.2721036 -0.09059307 -0.23380806 -0.044740647

shared_layers.0.bias f4 [128]
00000000: 7483 9dbd d8bb 88bd 74e1 323e feb4 bcbe
00000010: 4ae9 b03e fada cdbe 8099 9b3b 429c 1bbe
00000020: 50c5 ecbc 9462 593e e8cb 0a3e a085 c93d
00000030: cadd 2abe 7091 6a3d f42d b6bd 24e6 1a3e
00000040: 406a 1bbd f606 53be 9a2e 863e dcc5 69be
00000050: ece1 7f3e 0c3e 813e 762a a1be dad2 843e
00000060: 88b7 473e 840d 7b3e d1bf 3fbe 48ba 903e
00000070: bdb6 9cbe 7058 763e 80ad b93b 8d3a 47be
00000080: ac85 1c3e c240 7fbe 8898 63bd 5440 503e
00000090: dad1 12be 42fb 21be fc81 90bd 3c39 043e
000000a0: ea16 b43e 5e6f 75be e04e 8ebd 82f2 53be
000000b0: a1a6 6dbe ae1b a73e a014 7d3c 4622 ce3e
000000c0: e42c 8e3d 961c c23e cc75 b1bd b8d1 853d
000000d0: 7cb3 aabd b1a5 b2be fca3 a73e b6bc 05be
000000e0: 2460 ae3e 3966 61be 9c9e 053e 80d1 bcbc
000000f0: 38bb 0c3e d870 c93e 5eba 9cbe e04f 483c
00000100: 80ee 8ebe feed 963e 2eed a03e 0206 9a3e
00000110: c09f 9a3b 6efb 4ebe 9667 a4be decd ab3e
00000120: 4072 003d e006 f03d ef63 71be 723e 12be
00000130: c233 af3e ccb6 163e 0075 d63d 1041 c23e
00000140: 80d4 823e 00a4 76be e0ee 983e b414 acbe
00000150: 195c 80be 809e 69bb 842a 713e 525e b93e
00000160: 88a2 c7be 4a58 83be 48f4 b6bd 5a4a c33e
00000170: 572a 2ebe 607c 51bd 0492 3ebe 86c0 993e
00000180: 53b4 2bbe 5ca0 8b3d 5c83 8fbe d0d3 8cbc
00000190: 6c26 c1bd 816d c9be 900d 163e 110a 8dbe
000001a0: 7a71 4abe 3609 99be d7f5 65be e817 62bd
000001b0: 6477 89bd b06b 52bd 683e ddbd 0675 823e
000001c0: 1492 d0bd f038 72bd 7650 cabe e877 b13d
000001d0: 60a6 bb3c 0c09 85bd 1ce6 963e f897 883d
000001e0: c08f 9cbe b069 8ebe eae2 98be 9821 513e
000001f0: b024 cfbc 5064 dc3d 8e68 b23e 205e b2be
-0.07691088 -0.06676453 0.17468816 -0.36856836 0.34552985 -0.40206128 0.0047485232 -0.15196326
-0.02890268 0.21229011 0.13554347 0.0983994 -0.16686168 0.057267606 -0.088954836 0.15126854
-0.037943125 -0.20608124 0.2620743 -0.22829384 0.24988526 0.2524265 -0.31477708 0.25942117
0.19503605 0.24516875 -0.18725516 0.2826712 -0.30608168 0.24057174 0.0056664348 -0.19455929
0.15285367 -0.24927047 -0.055565387 0.20337039 -0.14337865 -0.15818503 -0.070560426 0.12912458
0.35173732 -0.23968264 -0.06948638 -0.20697978 -0.23208095 0.32638305 0.015446812 0.40260524
0.06942156 0.37912434 -0.08665046 0.06534141 -0.08335015 -0.34892038 0.32742298 -0.13060269
0.34057724 -0.22011651 0.13048786 -0.023049116 0.13743293 0.39343905 -0.30610937 0.012226075
-0.27916336 0.2947845 0.31430954 0.3008271 0.0047187507 -0.202131 -0.3211028 0.33555502
0.031358957 0.11720061 -0.23573278 -0.14281633 0.34219176 0.14718169 0.10471535 0.37940264
0.2555275 -0.24085999 0.29869747 -0.33609545 -0.25070265 -0.0035647452 0.23551375 0.36204773
-0.3899119 -0.25653297 -0.08933312 0.38142663 -0.17008339 -0.051144004 -0.18610388 0.30029696
-0.16768007 0.068176955 -0.28029907 -0.017190844 -0.094311565 -0.39341357 0.14653611 -0.27546743
-0.1976985 -0.2988984 -0.22457062 -0.05519858 -0.06712225 -0.05137223 -0.10802919 0.25479907
-0.10184112 -0.05913633 -0.39514512 0.086654484 0.022906482 -0.06495866 0.29472435 0.06669611
-0.30578423 -0.27815008 -0.29860622 0.20422971 -0.025286049 0.107613206 0.34845394 -0.34837437

shared_layers.2.weight f4 [128, 128]
00000000: 8c06 a3bd 3e95 05bd 7624 ecbc c07a e83c
00000010: cc5e 9dbc 28d2 8d3c 0063 dcba d671 9bbd
00000020: fb15 873d b42a a2bc 84da 983c 74fe c5bc
00000030: 204e 063c 0cf2 bd3c 65d0 adbd 3fff adbd
00000040: d543 823d 82a4 663d 6cfd c33c 604b c2bc
00000050: 0c17 f9bc 9896 3bbc aa41 32bd 41ea adbd
00000060: 140c 54bd 806c 4abb 9212 2a3d 037c 67bd
00000070: d0ba 15bc 001f 88ba ba43 423d 5683 2e3d
00000080: 9e44 673d 3194 95bd 4811 723c b06f ddbc
00000090: f595 93bd 103f aabd a0e9 b3bc c93c ae3d
000000a0: 9074 e4bb 2fb8 a93d 8a77 8bbd 76c8 463d
000000b0: e189 a73d 4045 95bd 4f2c ae3d e4b3 cebc
000000c0: ac46 853c 895f 99bd e0f9 6ebb fa92 5c3d
000000d0: 0e58 5b3d ba28 4cbd 0337 a1bd 0517 903d
000000e0: 7060 0cbc 8c96 883c 4053 983a 9e3f 513d
000000f0: 08ca bb3c e37a ab3d b2cb 38bd b923 83bd
00000100: 284b a03c b8e1 36bc 0c28 71bd 301d 70bd
00000110: d85e 943c 303e 8bbd 4c9a c33c 38d8 7fbc
00000120: 4816 4fbd 65b0 3abd e00f aabd e544 3ebd
00000130: 950f ac3d 6cf5 9fbd 6697 3a3d fd85 02bd
00000140: 40a2 81bc 0ac9 533d 777c a43d 845c 9c3c
00000150: 5318 893d d460 ca3c 9679 573d 0c42 8f3c
00000160: 307a 02bd 51a4 b23d b9bb a13d 2866 023c
00000170: 5c77 e63c d1b4 b43d c4cb fe3c 93ed a23d
00000180: 0e25 1abd 305f c03c 8782 70bd 2e6e f7bc
00000190: e4af c9bc d3e1 65bd 52c3 04bd 9699 d5bc
000001a0: e8be ff3c acd1 cc3c 6ef7 93bd 1216 1f3d
000001b0: 00a4 823c e0d2 853c 3b92 a83d 348e 8c3c
000001c0: 30a5 0dbd 7272 353d 58fd 68bc 3a48 253d
000001d0: b830 9cbd c2fd 34bd 50be ea3c cf96 1abd
000001e0: bc89 abbd 76f4 153d 0fcc a03d cacb f7bc
000001f0: bc6b e53c 4625 7a3d 80ef bbbc dce5 013d
00000200: 2dcc 57bd d914 8f3d 26b8 7b3d f648 6abd
00000210: 9825 e63c 75ae a13d 8657 583d 30cf f23b
00000220: 046d bbbc eab1 39bd 7226 59bd fe6b 4b3d
00000230: bd21 a13d cda7 79bd d0fa b1bd bcdc 9abd
00000240: 0bdb 873d c8a6 943c 2a9f 543d eacc 5d3d
00000250: b22c 3e3d 1d1d 5bbd 5a80 22bd ec44 b4bc
00000260: c806 00bc d325 a83d a30b 8b3d 7019 9fbd
00000270: 00f1 09bd ddc8 9a3d 0000 ad3c 7ec0 443d
00000280: 5220 76bd d0af 9fbb 33f9 9abd c891 ef3c
00000290: 2522 87bd 7c0f a8bc de42 4abd ece7 b0bd
000002a0: f086 19bc 94d3 a0bc d83f 93bc 87a6 32bd
000002b0: 0778 03bd ce40 21bd 4eae 513d d079 c0bc
000002c0: b4cc a83c a0b4 e83b e82d c0bc 088c 81bc
000002d0: 5fc6 863d 8cac ed3c f473 0f3d 0e3a 293d
000002e0: 1188 8bbd 484f 90bc 56c7 7bbd a8dc 9cbc
000002f0: 3876 80bd 58ee f8bc e49f 36bd 1808 25bd
00000300: e0e7 143d 5f33 af3d 3a1d 673d e84a 15bc
00000310: ec84 aabc a82c 113d 71ce 88bd 90ea a4bc
00000320: 0eb1 94bd 806b aaba d219 703d 14ee d93c
00000330: 7095 1fbd 7fe9 7bbd 8020 6f3a b22f 48bd
00000340: e62b 17bd c04b 11bd dc4a bd3c fbc6 b33d
00000350: e84d a8bd fa34 4f3d b082 f63b dcf1 d83c
00000360: ca30 20bd 9f72 a33d 60b3 02bb 303f ae3c
00000370: 0084 aa3c c0ee 13bc d089 e0bc c03f d4ba
00000380: c493 acbc 30f6 92bc f22a 1f3d 48de c5bc
00000390: 78dc 1fbd ea4a 603d a67b 3e3d 1025 433c
000003a0: b233 7c3d 8e5d a2bd 5f73 15bd 0876 91bc
000003b0: 3469 fd3c 0ee8 673d 002d af3b 3630 243d
000003c0: 33bf 963d 9aee b0bd f45e a3bc e679 ddbc
000003d0: 22f2 2d3d e6aa 7a3d 90f2 df3c 03c7 8f3d
000003e0: 5390 8e3d d5bc a13d 84b4 7ebd ffcb b03d
000003f0: 135f 83bd fb54 40bd 92c2 9bbd 0b72 a03d
-0.07960233 -0.03261303 -0.02882598 0.028378844 -0.019210242 0.017312124 -0.0016814172 -0.07590072
0.06595989 -0.019795753 0.018658884 -0.024169184 0.008197337 0.023186706 -0.08487014 -0.0849595
0.06360594 0.05630923 0.023924552 -0.023717582 -0.030406497 -0.011449479 -0.043519653 -0.08491946
-0.05176933 -0.0030887425 0.041521616 -0.05651475 -0.009138778 -0.0010385215 0.04742787 0.04260572
0.056461923 -0.07303656 0.014774628 -0.027030796 -0.072063364 -0.083128095 -0.021961987 0.085076876
-0.006971903 0.08287083 -0.0680991 0.04853102 0.08180595 -0.07288599 0.08504545 -0.025232263
0.01626905 -0.07488925 -0.0036464855 0.053851105 0.053550772 -0.049843527 -0.07871821 0.070356406
-0.008567914 0.016673349 0.001162149 0.05108606 0.022923484 0.08373048 -0.045116134 -0.06403298
0.019567087 -0.011162214 -0.058876082 -0.058621585 0.018111631 -0.06798971 0.023877285 -0.015615515
-0.05055836 -0.04557838 -0.08303809 -0.04645242 0.084014095 -0.078104824 0.04555454 -0.031866062
-0.015824437 0.051705398 0.08031552 0.019087084 0.066940926 0.024704374 0.052606188 0.017487548
-0.03185481 0.08722747 0.078971334 0.007958926 0.028133087 0.088235505 0.031103022 0.0795547
-0.037632994 0.023482889 -0.05871823 -0.030203905 -0.024620004 -0.056123566 -0.032412834 -0.026074212
0.03121896 0.025002323 -0.07224928 0.038839407 0.015947342 0.016335905 0.08231016 0.017157651
-0.034581363 0.044298597 -0.014220558 0.040352084 -0.0762648 -0.044187315 0.028655201 -0.03774148
-0.0837588 0.03661009 0.07851421 -0.030248541 0.028005473 0.061070703 -0.022941351 0.03171335
-0.05268495 0.06986398 0.061454915 -0.057198487 0.028094098 0.07894603 0.052817844 0.0074099526
-0.022879131 -0.045335688 -0.05301518 0.049663536 0.07867763 -0.060951043 -0.08690417 -0.07561633
0.06633576 0.018145934 0.051909603 0.0541505 0.046429344 -0.05349456 -0.039673187 -0.02200552
-0.007814117 0.082103394 0.06789329 -0.07768524 -0.0336771 0.07557843 0.021118164 0.048035137
-0.060089417 -0.0048732534 -0.07567062 0.029244319 -0.065983094 -0.020515196 -0.049380176 -0.086379856
-0.0093705505 -0.019632138 -0.017974779 -0.043615844 -0.03209689 -0.039368443 0.05119162 -0.023495585
0.020605423 0.0071016103 -0.02345939 -0.015813842 0.06580805 0.02901294 0.03502269 0.04131513
-0.06813062 -0.01761593 -0.0614694 -0.019148186 -0.062725484 -0.030387089 -0.044586077 -0.040290922
0.036353946 0.0855472 0.056424357 -0.009112097 -0.020815335 0.03544298 -0.066800006 -0.02013138
-0.07260333 -0.0013002008 0.058618374 0.026602782 -0.038960874 -0.061501976 0.00091219693 -0.04887361
-0.0369071 -0.03547263 0.023106985 0.08778187 -0.082179844 0.05058763 0.0075229034 0.026482515
-0.03910903 0.079808466 -0.0019943342 0.021270365 0.020814896 -0.00902909 -0.027409464 -0.0016193315
-0.021066554 -0.017939657 0.038859315 -0.024153844 -0.039028615 0.054758944 0.04650464 0.011910692
0.061572738 -0.079280004 -0.03648698 -0.017756477 0.030933954 0.05661779 0.0053459406 0.04008504
0.07360687 -0.0863926 -0.019942738 -0.027035665 0.042467244 0.061198138 0.027337343 0.0702038
0.069611214 0.07897345 -0.062183872 0.08632659 -0.06414618 -0.046956044 -0.07605471 0.07834252

shared_layers.2.bias f4 [128]
00000000: 88f2 79bc 6422 e13c be9d 363d 0812 4abc
00000010: 5204 9ebd 4a64 3d3d 0c73 94bd c87e 1d3c
00000020: fdbd abbd ca47 483d 10c6 d33b 39eb a53d
00000030: 401c e23c 7ff7 993d 5863 37bc 72a8 543d
00000040: fc4d 97bc 3c11 9f3c fbc6 85bd f288 1d3d
00000050: 2063 a0bd 7a8f 3b3d ca3b 1dbd 8657 e4bc
00000060: 1112 8e3d 3bdf 3abd 8ea4 3b3d 615b 8f3d
00000070: e1c7 b23d bc12 a83c e46a 12bd 1ae4 2c3d
00000080: df4e 8b3d f5d5 13bd 40b2 8b3b e009 27bd
00000090: aaf6 32bd a8dd c2bc 48f6 20bd 6c84 a2bc
000000a0: ec1a fbbc ee1f 5c3d 20e2 0dbb a262 1bbd
000000b0: 2ab2 6b3d 2110 acbd 2e02 573d 68fc d3bc
000000c0: 5c2c 5dbd 8d41 953d 808d 313b 7839 bbbc
000000d0: fc69 62bd b834 25bd bb02 5fbd 57e2 923d
000000e0: 4a2a 2b3d a82c f9bc ecfb ca3c 8ebf 673d
000000f0: e3ef acbd 4200 363d 64f2 a73c 637a 69bd
00000100: e1ce 3abd db1e a43d 4eb3 713d 331c 88bd
00000110: 8b5c 24bd f0cb 6bbd 002f 2cbc 00e4 f03b
00000120: 0128 9bbd c117 843d 5ebe 6e3d 16b3 7d3d
00000130: 9fbd 8e3d 851e afbd 2aad 3a3d e1bc 02bd
00000140: 1e5c 38bd ba3b 0dbd 1dc2 803d 92cf edbc
00000150: 61ff a33d a365 9f3d 460e 44bd e28f 643d
00000160: 7fa7 963d b3e3 b03d 3b69 2ebd f0fa c03c
00000170: fa3b 2d3d bae4 583d 508e cd3c 6804 0d3c
00000180: e010 f33b 7493 5bbd 55da 853d 0491 bbbc
00000190: 70cf 953b 3bae 9e3d 2bf3 50bd 74de 9f3c
000001a0: 6f22 a33d e2e4 a6bd 60d7 6abc a65d 7abd
000001b0: d4d4 9f3c 8e3d 3fbd 7c6c 09bd 262b afbd
000001c0: 686c 93bc 57f8 9e3d 60cf 663c e053 013c
000001d0: 8089 2b3a 7f8d 27bd 7e8a 423d 32ce 0ebd
000001e0: d8ca 283c 8e97 3bbd 181c 9dbc 30a2 cf3c
000001f0: a002 adbd 8447 c33c b643 393d 933d 81bd
-0.015255578 0.027482219 0.04458403 -0.012333401 -0.07715668 0.04623822 -0.07248506 0.009612747
-0.08385847 0.04889659 0.00646282 0.08101506 0.027601361 0.07517909 -0.011193119 0.051918454
-0.018469803 0.019417398 -0.06532093 0.03846068 -0.078314066 0.045791127 -0.038387097 -0.027873766
0.0693704 -0.045623045 0.04581123 0.06999851 0.0872953 0.020516746 -0.03574647 0.042209722
0.06802153 -0.036092717 0.0042631924 -0.040780902 -0.04369227 -0.023787335 -0.039297372 -0.019838534
-0.030652486 0.053741388 -0.0021649674 -0.03793586 0.057542957 -0.08401514 0.052492313 -0.025877193
-0.053997383 0.072878934 0.0027092397 -0.022854552 -0.055276856 -0.04033348 -0.054445963 0.07172077
0.041788377 -0.030416802 0.024778329 0.056579165 -0.08444192 0.04443384 0.020501323 -0.057001483
-0.04560745 0.08013698 0.05900889 -0.066460036 -0.04012732 -0.057567537 -0.010509253 0.0073513985
-0.075759895 0.06449843 0.058287017 0.061938368 0.06969761 -0.08550743 0.0455753 -0.03191841
-0.045009725 -0.034480788 0.06287024 -0.029029641 0.08007694 0.077830575 -0.047865175 0.05580128
0.07356166 0.0863718 -0.042580824 0.023557156 0.042293526 0.052952506 0.025092274 0.008607008
0.007417783 -0.05360742 0.06535784 -0.022896297 0.0045718476 0.077480756 -0.051013153 0.019515254
0.07965552 -0.08149125 -0.014333576 -0.061124466 0.019510664 -0.046689562 -0.033550724 -0.08553152
-0.017996028 0.07762211 0.014087528 0.0078935325 0.00065436214 -0.040906426 0.047495358 -0.034864612
0.010302268 -0.04579883 -0.019178435 0.025345892 -0.08447766 0.023837812 0.04523059 -0.063105725

actor_head1.weight f4 [50, 128]
00000000: f02e 8ebd 4446 ef3c fd38 af3d 3c58 acbc
00000010: 7380 9bbd 004c 2aba 7ce6 8e3c baff 55bd
00000020: 261f 523d 5441 a2bd cf3e 03bd ba60 7bbd
00000030: 0d14 57bd 3b53 a8bd 1c7f d83c 3afd 6bbd
00000040: 223d 6c3d 28cb e8bc 07ab 01bd 9aca 193d
00000050: 5664 41bd 8e23 7d3d 4451 f1bc 5007 b93c
00000060: faf3 403d 7352 943d 613c 993d 581d 5f3c
00000070: b98b a13d 1ac9 4a3d 68c9 093c 000d 183c
00000080: 16cd 2b3d 09b5 853d 62a4 333d 0017 c439
00000090: 04de 0c3d 40ec a33b 70b5 49bc 3005 92bb
000000a0: 661d 603d 107e b7bb a672 5e3d 4957 acbd
000000b0: b21c a4bd be3f 2b3d 917f 843d c730 98bd
000000c0: 8887 9ebd ead6 99bd 0469 bfbc 96da 353d
000000d0: 722e 1d3d 70e2 763c c023 03bd b693 713d
000000e0: 80d8 3ebb 01e0 38bd 6b1e a4bd b63a 783d
000000f0: 5894 75bd ccde bbbc 1c82 bebc 5481 2ebd
00000100: 608a 963c 1caf 91bd 504c f5bb be84 a8bd
00000110: 1976 973d 300a e7bb 1890 213c 02ec 5a3d
00000120: 4c96 e5bc 00c5 933b 2b04 a7bd 4740 9e3d
00000130: 2c62 e93c 28a1 87bc 12af 233d 1843 583c
00000140: 4b7d 3fbd 201a 92bb 5168 66bd 30cd f8bb
00000150: bf3e 883d 90a6 bd3c 4638 2e3d 881e e9bc
00000160: 5edf 6b3d aef4 22bd e254 7e3d 3015 ef3c
00000170: eb64 a13d 63fd a63d a0ba 953c 10dd ab3b
00000180: b813 d23c 5004 0d3c 40ae a1bb 4448 0b3d
00000190: 8279 dbbc 00fb 6bbb cd05 a0bd eede 85bd
000001a0: 9220 733d 200e a2bb d47d d23c ef9b 64bd
000001b0: a497 5bbd 0e8f 213d 6c6b eabc 71d0 ac3d
000001c0: 80c7 f0ba e365 adbd 02ce e0bc d081 95bb
000001d0: 5893 33bc adfb 863d 80db 103d 5b1d 0bbd
000001e0: dd62 abbd 0f3f 913d 2c88 cdbc 7071 b1bb
000001f0: a8ef 643c fe31 adbd a09c 063d 4450 d53c
00000200: 0ab5 2bbd c727 9a3d 02a8 88bd e0e1 b9bb
00000210: 6066 90bb fd7d 883d 5e83 473d 80b1 e13c
00000220: 7b38 31bd cfc0 91bd 8a24 86bd f644 373d
00000230: 1086 b1bc dc61 90bd d88c 543c baa5 783d
00000240: cc1c 45bd 8539 843d 04e2 7bbd 2c24 e8bc
00000250: 0336 8f3d 3681 1a3d 68b4 8abc cabd dcbc
00000260: 53c0 19bd 6709 903d a99d 8abd 9569 b33d
00000270: 7481 97bd f612 6d3d a00f 3bbd 212d 91bd
00000280: 50e8 4dbd b833 b4bc d439 4cbd c12b 81bd
00000290: 0645 7b3d c64c 4e3d dc8c 26bd 609c 30bb
000002a0: 2eb1 27bd a06a 6fbb fa69 323d 1aa8 94bd
000002b0: 6317 85bd 3042 0e3d 009e a73c 8a08 4cbd
000002c0: 3610 6c3d e095 a73c 68e8 e9bc 59f5 b4bd
000002d0: 7ad3 223d eb23 90bd 759b 823d cca8 a83c
000002e0: 2063 c5bc f3e8 af3d 1204 92bd 4ff0 98bd
000002f0: 935c 8cbd 82d6 b4bd 2a37 213d 761d 293d
00000300: a5ef ac3d ddcd 4dbd 22a8 433d 5003 8c3b
00000310: 8ccb f53c e3b8 96bd 806d 05bc 7479 2bbd
00000320: da81 793d 3fb3 0cbd e164 29bd 150e 1fbd
00000330: 76fc 533d aca4 fb3c 1c4f debc 74f5 f0bc
00000340: 284a 0d3c 037e 47bd b391 80bd 92e5 84bd
00000350: 707b 28bc 80f7 f83b 1423 99bc 8701 8c3d
00000360: 406a d6bb 36ef 193d 48ba 97bc 5d8e a63d
00000370: 3fe1 8a3d 50b8 5e3c e0e3 c93c 3511 943d
00000380: cad5 d7bc 94af fa3c 38e5 003c b2b1 023d
00000390: 7fc1 81bd 2add 353d 3c0f 92bc c932 91bd
000003a0: e87a 98bc 56d2 123d fac6 573d 9867 9abd
000003b0: 3218 98bd 8077 223a 8525 03bd a8ca 3abc
000003c0: 453b a63d 4a0d 4a3d 3652 37bd 31fb 52bd
000003d0: c0a3 8fba adbe ad3d 0207 8bbd 68fd 47bc
000003e0: 6070 2fbc deca 783d 9cd9 c93c d57e 8cbd
000003f0: 8c4c 06bd 463a 02bd 8603 553d dca6 99bd
-0.06942546 0.02920831 0.085557915 -0.021038167 -0.07592859 -0.000649631 0.017443888 -0.052245833
0.051299237 -0.079226166 -0.03204232 -0.061371543 -0.052509356 -0.08219 0.026427798 -0.057614543
0.05767549 -0.028417185 -0.031657245 0.03754673 -0.04721483 0.061801486 -0.029457696 0.022586495
0.047107674 0.072422884 0.074822195 0.013617836 0.07887978 0.04950819 0.008409835 0.009280443
0.041943632 0.0652867 0.04385794 0.0003740117 0.034391418 0.0050025284 -0.0123113245 -0.004456185
0.054715537 -0.0055997446 0.054308556 -0.08415086 -0.08013286 0.041808836 0.06469644 -0.074311785
-0.07740694 -0.07511695 -0.023365505 0.044397913 0.03837437 0.015068635 -0.032016516 0.05897876
-0.0029120743 -0.0451355 -0.08013614 0.060602866 -0.059955925 -0.022933386 -0.0232554 -0.042603806
0.01837653 -0.071134776 -0.007485904 -0.082284436 0.07395572 -0.007050775 0.009861015 0.05344773
-0.028025769 0.004509568 -0.08155092 0.07727104 0.028489195 -0.016556337 0.039961882 0.01319959
-0.046750348 -0.0044586807 -0.056251828 -0.0075928196 0.06652593 0.023150712 0.042534135 -0.028456941
0.057586066 -0.039784126 0.06209267 0.029184908 0.07880577 0.081537984 0.018277466 0.0052448586
0.025644168 0.008606985 -0.0049341023 0.034004465 -0.026791338 -0.0036007762 -0.078136064 -0.06536661
0.059357233 -0.0049455315 0.025694765 -0.055812772 -0.053611413 0.03944307 -0.028615676 0.084381945
-0.0018370003 -0.08466699 -0.027441982 -0.004562594 -0.010960422 0.06590972 0.03536558 -0.033963542
-0.08368466 0.070921056 -0.025089346 -0.005415134 0.013973154 -0.08456801 0.032864213 0.02603925
-0.0419207 0.07527118 -0.0667267 -0.0056726784 -0.0044067353 0.06664655 0.048709266 0.027550459
-0.043266755 -0.071168534 -0.06549938 0.0447435 -0.021670371 -0.07049915 0.012973033 0.060704924
-0.048123166 0.064562835 -0.061494842 -0.02833756 0.06992724 0.03772088 -0.016931728 -0.026945967
-0.03753693 0.07033043 -0.067683525 0.087603725 -0.07397738 0.05787941 -0.045669198 -0.07088686
-0.05027038 -0.021997318 -0.049859837 -0.063071735 0.061345123 0.050366186 -0.040661678 -0.0026948676
-0.040940456 -0.003653206 0.0435581 -0.07258625 -0.06498601 0.03473109 0.020461082 -0.04981283
0.057632647 0.020457208 -0.028553203 -0.08835859 0.03975246 -0.07038101 0.06377307 0.020588301
-0.024095118 0.085893534 -0.071296826 -0.0746771 -0.06853595 -0.088299766 0.03935925 0.04128786
0.08444146 -0.050245155 0.047767766 0.004272856 0.030004285 -0.07359483 -0.008143783 -0.041863874
0.06091485 -0.03435063 -0.04135597 -0.03883179 0.051754437 0.03071817 -0.027137332 -0.029413916
0.008623637 -0.04870416 -0.0627779 -0.064890996 -0.010283336 0.0075978637 -0.018693484 0.06836229
-0.0065434277 0.037581645 -0.018521443 0.081326224 0.067812435 0.013593748 0.024644792 0.072298445
-0.02634706 0.0306013 0.00786715 0.031907745 -0.063357346 0.04440037 -0.01782953 -0.070897646
-0.018613294 0.035845123 0.052679993 -0.0753929 -0.0742649 0.00061976165 -0.032018203 -0.011400856
0.081167735 0.04932908 -0.044756137 -0.051509086 -0.0010958835 0.08483634 -0.06788446 -0.012206413
-0.010707945 0.060740344 0.024639897 -0.06860129 -0.032787845 -0.031793855 0.052005313 -0.07502529

actor_head1.bias f4 [50]
00000000: 05cd 913d b15b 973d 2d49 99bd 4add a2bd
00000010: e0d1 3a3b 882e fa3c e26a 493d f415 b3bc
00000020: 503f 0f3c f315 0ebd e87b d0bc 487b 7f3c
00000030: 19cf 903d f615 443d b940 11bd 2016 5bbc
00000040: b071 f93b a268 47bd 998d 74bd b845 873c
00000050: 00fa fd3b 12e0 3a3d b14f 873d 538e 16bd
00000060: dfe4 81bd 9b61 843d e582 973d 241d bdbc
00000070: c2b3 82bd 9ad2 573d fc30 b63c 00d0 5d39
00000080: fc42 a7bc 2dbf 9f3d 20b3 3a3c 8537 54bd
00000090: 809d bb3b b8d4 09bc fcf0 dc3c 8d33 a63d
000000a0: 7b57 29bd 1ed4 5d3d 3ce1 e3bc 1251 223d
000000b0: 453d b13d 8ef4 6d3d 76cd 6dbd b099 323c
000000c0: 2854 023d 7cf2 3bbd
0.071191825 0.073905356 -0.0748466 -0.07952364 0.0028506443 0.030539766 0.049174197 -0.021861054
0.008743122 -0.0346889 -0.025449708 0.015593357 0.07070751 0.047872506 -0.035462115 -0.013371974
0.0076124296 -0.04868377 -0.05970535 0.016512737 0.0077507496 0.045623846 0.06606997 -0.036756825
-0.06342482 0.06463929 0.07398013 -0.023085184 -0.06381942 0.05269108 0.022240154 0.00021153688
-0.020417683 0.07800136 0.011395246 -0.05181076 0.0057255626 -0.0084125325 0.026970379 0.08115301
-0.041343194 0.05415737 -0.027817361 0.039628096 0.08654264 0.058094554 -0.05805727 0.0109009
0.03181854 -0.045885548

actor_head2.weight f4 [50, 128]
00000000: d99b 903d 1676 22bd aa74 263d 906f 8c3c
00000010: a9d4 a93d 79cd a83d 10f2 60bc a9d2 9a3d
00000020: 7b71 963d e9a0 ac3d 4f63 813d e5d9 833d
00000030: ed2e 8c3d 4557 6abd 4221 0a3d 63d0 843d
00000040: 1af8 683d 804f aa3a 4b0a 57bd 88e0 893c
00000050: 5d4e 10bd cc03 a4bd c0c7 fd3b 9020 4c3c
00000060: a96c 923d 402f 83bd caab debc 48da b9bc
00000070: d138 943d 6075 44bc 30f9 fbbb 5811 e3bc
00000080: c0df d83b 9636 7a3d 000a d33c 7a74 63bd
00000090: dd7d 84bd e1aa 04bd 32ac 703d 3e62 073d
000000a0: 508b 873b 7e15 643d a578 b0bd 5314 8f3d
000000b0: 2005 0d3c 40e0 1cbb 5a8f 77bd fe98 93bd
000000c0: 8017 d83b a19f 92bd 94ce cc3c 0bd6 823d
000000d0: a42a 97bd e2ee 543d 3ac7 5e3d 0048 e3b9
000000e0: 8565 a33d 254b 34bd 2634 4cbd 80b6 21bb
000000f0: 8612 1e3d 3b59 67bd 584b 01bc 38e8 8bbd
00000100: 8133 83bd 1eb4 6a3d 05ca 883d 6092 a43b
00000110: eed6 19bd ab67 70bd e8b4 b4bd 60b0 f03b
00000120: afe5 4fbd 826a 173d 7a9c 1f3d 5075 96bb
00000130: 7b1f a03d 3f95 953d 9266 673d 0129 9ebd
00000140: e7ad 03bd cec7 753d 7621 6e3d f08b 31bc
00000150: c75d 96bd 9d98 74bd 3676 593d 7872 32bc
00000160: c050 ac3a e87f 9e3c b104 8fbd 0e3f 513d
00000170: c0bc fb3a 3838 a03c 12f0 743d 98cd 0f3d
00000180: 9d2c 9f3d fc64 a7bc 4063 e3bb 43fe 41bd
00000190: 7ed0 083d 8292 08bd 5969 50bd c18f a13d
000001a0: b2d0 123d 162e 7cbd 1bb4 98bd 4033 a03b
000001b0: 46dd 7d3d 7005 b93b a560 803d b897 ebbc
000001c0: 446f ce3c cb4a 9fbd a326 31bd a11d 18bd
000001d0: 33c1 ab3d ea80 193d ed1c 33bd 678a aabd
000001e0: 7097 32bc efbb b0bd 3427 3fbd 4f0f 66bd
000001f0: 4022 94ba e04b 4dbb d9eb af3d 38a7 cbbc
00000200: 6b4e 933d beb9 583d d1b3 9e3d cb9b 55bd
00000210: 904f 583c 804d bdba 9348 40bd 79ac 843d
00000220: 91a2 aebd 9f83 b0bd c0af fdba 9679 d5bc
00000230: e0c7 9dbb 152f 06bd c2c1 2c3d b67b 83bd
00000240: 5d7c 11bd 7185 94bd f8fc 613c d0ad 68bd
00000250: 4645 393d f5ea 4abd c7fd a83d ba39 483d
00000260: 582a 9dbd a0f5 a6bd d045 96bc 130b 17bd
00000270: 6d87 a43d 5e00 b3bd a020 773c 690c 5abd
00000280: 7829 21bd 844f b1bd 1882 9ebd c40d ad3c
00000290: 0c61 b73c f929 963d 1845 10bd 5ece 743d
000002a0: 54e1 88bd 008f 43ba 5dc0 933d 7b35 23bd
000002b0: 5309 8c3d 18e7 e73c ab91 adbd a27b 3a3d
000002c0: 00be 88ba 2889 143d 2de0 3fbd 69fd 35bd
000002d0: ee08 17bd 7acb 333d 3fb4 4abd a0c6 1fbb
000002e0: c0b6 2e3c e2cb f5bc d9f8 a13d 56a1 62bd
000002f0: 5b66 9d3d a017 503c 6050 fe3b 48b2 01bc
00000300: 7ab4 053d 48b1 843c 3852 4dbd 75bd b13d
00000310: e4c0 80bc b16b a83d a2a9 753d 6c18 30bd
00000320: 304b edbb 3351 a73d 9e43 453d 3814 44bc
00000330: db2e a63d c0b3 1bbb 287a 833c a25b 693d
00000340: b510 a03d d8d8 c2bc 4c9a 8d3c 6c4e b03c
00000350: 00fc 0a3d 760b 3e3d 8179 1dbd b3f8 05bd
00000360: ea79 6fbd f4c9 05bd e0d7 643c f4f9 a23c
00000370: b928 6abd 80b6 62bb 202e d6bb 999f 91bd
00000380: 28fd a23c d031 7c3c 5b94 913d 7465 fa3c
00000390: 381a 3bbd 1e60 27bd d871 09bd d074 8abb
000003a0: 7a42 75bd 721c 663d 7f6f afbd 996e 50bd
000003b0: 406a 4a3c ef21 ab3d 6d0c ab3d 002e 6bba
000003c0: 6e26 80bd f82e c23c 0e1f 453d 422c 46bd
000003d0: 25d8 b13d 5697 85bd 8c1c f5bc 8276 a0bd
000003e0: 08fb e93c e496 0fbd 4693 5a3d bab0 6e3d
000003f0: 4e33 d7bc 6324 923d 38fa 12bc 1ebd 153d
0.070609756 -0.039663397 0.040638603 0.01714304 0.08292515 0.08242316 -0.013729587 0.075597115
0.073458634 0.08429129 0.0631777 0.064380445 0.06844888 -0.057212133 0.033723123 0.06485059
0.056877233 0.0012993664 -0.05250005 0.016830698 -0.035230983 -0.08008537 0.0077447593 0.012458935
0.071496315 -0.064054966 -0.027181525 -0.022687092 0.07237399 -0.011990875 -0.0076896176 -0.027718231
0.00661847 0.061087213 0.025761604 -0.055531003 -0.06469319 -0.032389525 0.05875797 0.033052675
0.0041364804 0.05568456 -0.08616761 0.069862984 0.008607179 -0.0023937374 -0.060439445 -0.07206915
0.0065945983 -0.07159353 0.025000848 0.06388482 -0.0738118 0.05198563 0.054389216 -0.00043350458
0.07978348 -0.044016976 -0.04985442 -0.002467543 0.038591884 -0.05648158 -0.0078914985 -0.068314016
-0.06406308 0.05730068 0.06679157 0.005022332 -0.03755849 -0.058692615 -0.08823568 0.0073452443
-0.050756153 0.03696681 0.038967587 -0.0045916215 0.078185044 0.07303857 0.056494303 -0.077226646
-0.032148268 0.060005 0.05813738 -0.010836586 -0.07342105 -0.059715856 0.05309125 -0.010891549
0.0013146624 0.0193481 -0.06983317 0.051085524 0.0019206032 0.019558057 0.05979926 0.03510818
0.07772181 -0.020433895 -0.0069393218 -0.047361623 0.03340196 -0.033342846 -0.050881717 0.07888747
0.03584356 -0.06156739 -0.074562274 0.004888922 0.0619786 0.0056464 0.062684335 -0.028758869
0.02519954 -0.077779375 -0.043249737 -0.03713763 0.08386459 0.037476458 -0.043728758 -0.083271794
-0.010900363 -0.086295955 -0.046668246 -0.056166943 -0.0011301711 -0.0031325743 0.08589906 -0.02486001
0.071926914 0.052911513 0.07749141 -0.05215053 0.013202563 -0.0014442652 -0.046944212 0.06478209
-0.08527101 -0.08618855 -0.0019354746 -0.026058953 -0.0048150867 -0.032759745 0.04217697 -0.0642008
-0.035518993 -0.072520144 0.013793223 -0.056806386 0.04523208 -0.04954048 0.08251529 0.048883177
-0.07674092 -0.08152318 -0.018343836 -0.036875796 0.08033643 -0.087403044 0.015083462 -0.05323449
-0.03934619 -0.086577445 -0.07739657 0.021124728 0.022385143 0.073322244 -0.035222143 0.05976712
-0.06683603 -0.00074599683 0.07214425 -0.039845925 0.06837716 0.028308436 -0.084750496 0.04552806
-0.0010432601 0.036263615 -0.04684465 -0.044431124 -0.03687375 0.043895222 -0.049488302 -0.0024379864
0.010663688 -0.030004445 0.07908792 -0.055329643 0.076855384 0.012700945 0.0077610463 -0.007916041
0.03264282 0.016197816 -0.050127238 0.08678714 -0.015716977 0.082236655 0.059976228 -0.04299204
-0.007241629 0.081697844 0.048160188 -0.011967711 0.08114406 -0.0023758262 0.01604946 0.056972153
0.078156866 -0.02378504 0.017285489 0.02152177 0.033931732 0.04639765 -0.038445953 -0.03270788
-0.058465876 -0.0326633 0.013967484 0.019894578 -0.057167742 -0.0034593642 -0.0065362602 -0.07110519
0.019896105 0.015392736 0.07108375 0.030565955 -0.0456793 -0.04086315 -0.033555835 -0.004225351
-0.05987785 0.05617947 -0.08566188 -0.050886724 0.012354434 0.08356082 0.083519794 -0.0008971393
-0.0625733 0.023704037 0.04812532 -0.04838205 0.086838044 -0.06523006 -0.029920839 -0.078351036
0.028562084 -0.03505601 0.053363107 0.05827401 -0.026269581 0.071358465 -0.00897079 0.03655731

actor_head2.bias f4 [50]
00000000: 4a82 383d 5fd7 a03d 4d91 4abd 5965 57bd
00000010: c811 f43c c440 cfbc c0a7 d8bb f846 9c3c
00000020: 7761 9fbd e87d 6cbd 1a57 7fbd 786e 68bc
00000030: f786 a3bd 2481 f33c f842 5ebc b88b 33bd
00000040: 5e3e 013d feaf a4bd c853 17bc e56a aa3d
00000050: b8e5 053d a675 34bd 5d81 b03d c92e 8ebd
00000060: 84e4 9f3c 7549 a03d 7765 873d 0023 ae39
00000070: a769 9e3d ce9d 97bd e8b5 133c 5a52 51bd
00000080: 0881 1d3c 07d5 ae3d 7a72 043d 5127 93bd
00000090: d37b 8c3d a5ea 64bd f6e7 a7bd 7830 8ebd
000000a0: 0cde 84bc 54c1 8cbc d019 b0bd d23b 21bd
000000b0: 8535 ab3d 5996 a4bd 2e3e 243d aca1 86bd
000000c0: e019 4cbc 80dc 2c3b
0.04504613 0.07853579 -0.049454976 -0.052586887 0.029793635 -0.025299437 -0.0066117942 0.01907681
-0.07782262 -0.05773726 -0.062338926 -0.014186494 -0.07984727 0.029724665 -0.013565771 -0.043834418
0.03155362 -0.0804138 -0.009236284 0.0832117 0.03268978 -0.04405751 0.08618424 -0.06942517
0.019518144 0.07826511 0.0661115 0.00033213943 0.07734995 -0.07403146 0.009015538 -0.051103927
0.009613283 0.085367255 0.032335736 -0.071852334 0.06859555 -0.055887837 -0.0819854 -0.069428384
-0.016219161 -0.01718203 -0.08598673 -0.03936369 0.083598174 -0.08036489 0.04009836 -0.06573805
-0.012457341 0.0026376545

critic_head.weight f4 [1, 128]
00000000: 5899 35bc e0d1 14bb 822c 743d f689 263d
00000010: f82a 0e3c 3c1d f8bc f281 56bd 1825 f63c
00000020: f863 623c 9565 2abd 36ec 8fbd 3eb0 3d3d
00000030: d046 cbbc 8375 af3d 4d6f a83d 3867 34bc
00000040: 6957 943d c313 a23d 2a67 543d a4b7 d3bc
00000050: 8089 183c 506a abbb a2e0 393d 91b0 b13d
00000060: b407 7ebd 8a51 073d 8a0e 793d f0e0 83bd
00000070: a17f 8a3d 3826 de3c 7ba7 60bd 881e acbd
00000080: 816e 66bd 5e01 493d 7d2f 06bd c706 4fbd
00000090: b1f2 b4bd c785 82bd 402b e7bb 0a2d a2bd
000000a0: ca50 84bd 9c5f 953c de11 39bd 0882 a5bd
000000b0: 67ff a3bd a4c5 fb3c 8033 a13a ae52 f1bc
000000c0: 4075 14bb 8848 313c fc58 8dbd b4f3 edbc
000000d0: 7899 9ebd 21b4 9cbd 5a3b 76bd b421 f43c
000000e0: 6042 dbbc f902 81bd 0958 a33d 79fd 813d
000000f0: ae59 90bd 5018 b93c 1efe 2d3d adfc 9e3d
00000100: e025 fdbb 80f2 f83c a44a f13c 84ba b73c
00000110: cce2 8cbd 4041 4ebc 1c3c bcbc e445 843c
00000120: 40d5 02bc 406d da3a af06 953d 6867 ea3c
00000130: bac0 a3bd 6f11 2dbd 2af2 98bd 6747 b43d
00000140: 7eee 743d a823 b3bc 3cdf 8bbd 7ecf 91bd
00000150: 88d0 503c 6c6a 9e3c 8e50 e6bc c1de 833d
00000160: cc49 9dbc 3ef6 96bd 841c 913c 6082 09bc
00000170: e4bc 4fbd 885d 023d e006 813c 18c0 adbc
00000180: 006d caba 5868 0d3c 4aef 37bd 33fd 07bd
00000190: 700a 73bd 9e80 3a3d 0083 b5bb 0fff a43d
000001a0: 9840 5bbc ffb9 983d c199 13bd ccda e03c
000001b0: e86f 25bc 48ba 14bc 708c ee3c 6b45 59bd
000001c0: e72b a5bd 89ab 9c3d efa5 b23d ff18 89bd
000001d0: d053 953b 604c f7bc 0c4c fbbc ee1b 1a3d
000001e0: 1028 d33c bdd1 2ebd 43d2 9b3d e3a9 89bd
000001f0: 3a36 2abd fc0f e93c ca38 333d 5ede 6d3d
-0.011083923 -0.0022708103 0.05961276 0.040658914 0.008677237 -0.030287378 -0.05237002 0.030046985
0.01381778 -0.041600782 -0.070274755 0.046310656 -0.02481404 0.085673355 0.08224354 -0.011010937
0.07243235 0.079139255 0.051856197 -0.025844403 0.009310126 -0.0052311793 0.045380242 0.086762555
-0.062019065 0.033036746 0.06080488 -0.06439388 0.067626245 0.027117833 -0.05484722 -0.08404261
-0.05625773 0.04907357 -0.032760132 -0.050543573 -0.08835352 -0.06373172 -0.0070547163 -0.07918747
-0.06460722 0.018234067 -0.045183055 -0.08081442 -0.080076985 0.03073389 0.0012298673 -0.02945837
-0.0022652894 0.010820515 -0.06901738 -0.02904687 -0.077441156 -0.07651544 -0.060115196 0.029801227
-0.026765049 -0.06299395 0.07975776 0.06347174 -0.07048355 0.0225946 0.042478673 0.07763038
-0.0077254623 0.03038907 0.029454537 0.022427805 -0.068791956 -0.012588799 -0.022977881 0.016146608
-0.007985413 0.0016664639 0.072766654 0.028613761 -0.07995744 -0.042252954 -0.07468064 0.088026814
0.059797756 -0.021867588 -0.06829688 -0.07119654 0.01274503 0.019337855 -0.028114583 0.06438971
-0.019200228 -0.07371186 0.017713793 -0.0083929 -0.05071725 0.03182748 0.015750349 -0.021209762
-0.0015443861 0.0086308345 -0.04490594 -0.033200454 -0.059336126 0.045532815 -0.005539298 0.08056461
-0.0133821 0.07457351 -0.036035303 0.02744808 -0.010097481 -0.009077616 0.0291197 -0.053044718
-0.08065014 0.07649905 0.087230556 -0.06694221 0.0045571104 -0.030187786 -0.03067591 0.037624292
0.02577594 -0.04268049 0.076084636 -0.067218564 -0.04155562 0.028450005 0.04375533 0.058073394
