models/ppo_gear_placer_final.pt (torch, 127420 bytes, 9 tensors)

shared_layers.0.weight f4 [128, 7]
000000 3d e5 84 3e 28 ee 44 be 25 a7 8a 3e 8f a0 98 bd
       0.25956145 -0.19231474 0.27080646 -0.07452499
000010 83 e5 6f 3e 3e b5 9a be bf d7 58 3e 12 05 32 3e
       0.23427396 -0.30216402 0.2117605 0.17384747
000020 73 18 97 3e 1d 54 ad be 7c 7d 44 be cc cf 1c be
       0.2951084 -0.33853236 -0.19188493 -0.15313643
000030 80 f0 b2 be 9c e7 61 be e0 67 8c be 19 31 75 be
       -0.34949112 -0.22061008 -0.27423 -0.2394451
000040 76 6a 66 be f4 9e 5e be df a4 4e 3d d3 bf b6 3e
       -0.22501549 -0.21740323 0.050450202 0.35693225
000050 4d 70 97 bd 48 8b 2b 3d 22 86 00 3e 63 2a f9 bc
       -0.073944665 0.041880876 0.12551168 -0.03041572
000060 03 21 4b be 88 27 86 be 3c c3 9b bd 60 94 30 be
       -0.19836812 -0.26202035 -0.076055974 -0.172441
000070 6f 1f 55 3e ae a7 a5 be 28 40 bb be 5a 07 55 be
       0.20812772 -0.32354492 -0.36572385 -0.20803586
000080 a2 1e 4e 3e 08 ce 49 3d 37 62 20 3d be eb 0a 3e
       0.20128873 0.049268752 0.039156165 0.13566491
000090 91 d0 92 be 47 00 9c 3e d1 8d 91 be 07 34 80 bd
       -0.2867475 0.30468962 -0.2842851 -0.062599234
0000a0 e0 bc 1b bd d5 47 bd be 2f ad 94 3d 17 42 db bc
       -0.038021922 -0.36968866 0.07259595 -0.026764913
0000b0 55 29 85 3e c0 58 5a 3d f5 16 e5 3d 7c 11 af bd
       0.26008096 0.053307295 0.11186019 -0.08548257
0000c0 1e b5 3b 3e 24 1c de 3d 20 ab 61 3c 1a ec 99 be
       0.1833081 0.10845211 0.01377371 -0.30062944
0000d0 ea a8 32 be 80 b4 f6 bd ca 12 25 3e 3a 7a 95 be
       -0.17447248 -0.120461464 0.16120449 -0.29194814
0000e0 b0 99 2d be a2 39 2e 3e f9 8a b0 3e 30 e6 f9 bd
       -0.16953158 0.17014173 0.34481028 -0.12202108
0000f0 ed ca 8c 3e 80 bd 2c bc e4 b1 fa bd 42 cf 5d be
       0.2749857 -0.010543227 -0.12240961 -0.21661094
000100 17 e5 3a be 4c 4f f3 3c 09 b9 ad bc 14 43 98 bd
       -0.18251453 0.029700898 -0.021206396 -0.07434669
000110 df e8 a7 3e 07 5a d5 3c b1 57 aa bd 98 08 99 3e
       0.32794854 0.026043905 -0.08317507 0.2988937
000120 70 e9 72 be 6c 3d 90 3d f1 cb 58 3e b6 9a 23 3e
       -0.23721862 0.07042965 0.21171547 0.15976986
000130 69 d6 10 3e 0c 73 90 3e 9d cc 5f 3e f9 61 8e 3e
       0.14144291 0.28212774 0.21855398 0.27809122
000140 18 57 9a 3c d1 d2 5f be 80 9c 3d bb 25 a1 74 3e
       0.018840358 -0.21857764 -0.0028932393 0.23889597
000150 e2 27 ca 3d e3 c5 32 3e ee e8 c3 be af 38 b4 3e
       0.09870888 0.174583 -0.3826365 0.35199496
000160 5a 27 6f 3e 87 43 60 be 62 a9 b4 3e 49 64 1b 3e
       0.23354855 -0.2190076 0.3528548 0.15174975
000170 43 9d 99 3d 4f ef 2f 3e 3a e1 3a be 9c f7 51 be
       0.075006984 0.17181133 -0.1824998 -0.20504612
000180 f6 6d 09 be 4d 76 8b be 43 32 2e 3c 6a 26 3f bd
       -0.13420853 -0.27238694 0.0106321005 -0.046667494
000190 40 ba 39 3e 09 50 ca bc 97 80 91 3d 18 37 b2 3d
       0.18137455 -0.024696367 0.07104605 0.087019145
0001a0 8c c5 44 be 8f c6 a0 be 65 dc 3d be fd e1 ec 3d
       -0.19215983 -0.31401488 -0.18541105 0.11566541
0001b0 00 2e a3 3e 4f 83 21 3e 6c 4a a3 be 7e ab de 3c
       0.31871033 0.15772747 -0.31892717 0.027181383
0001c0 1a 58 a9 bd dd af 34 3d 91 f2 a8 3c 0c 93 a3 be
       -0.08268757 0.04411303 0.020623477 -0.31948125
0001d0 bd 5f 04 bd 49 3d ba 3e ef 5d ef 3c 88 7d d7 3b
       -0.032317866 0.36374882 0.029219596 0.006576244
0001e0 72 bc bb 3e 61 fa 9f bd d3 f0 b3 be bf 04 65 bd
       0.3666721 -0.07811428 -0.35144672 -0.05591273
0001f0 28 99 2f bd 83 f0 a1 3e 21 97 a1 3e 50 d4 c1 bd
       -0.04287067 0.31628808 0.31560615 -0.094643235
000200 00 16 77 3c 50 33 b4 3c c6 5f 93 be 1e 6e 3f 3e
       0.015080929 0.021997124 -0.28784007 0.1869435
000210 3b ba 6f be 2e 44 7c be f7 8d ba be ca 07 42 3d
       -0.23410885 -0.24635383 -0.36436436 0.04737071
000220 73 65 8f be 3f f4 a9 bc 36 14 49 be 19 05 ad be
       -0.28007087 -0.020746348 -0.19636616 -0.33792952
000230 69 4a f1 bd 8b 9a 3e be 86 ca 44 3e b9 5d 09 bd
       -0.11781771 -0.18613641 0.19217882 -0.033536647
000240 65 89 2a be 93 13 ac 3e fc b4 b2 be 9e c9 bc be
       -0.16653974 0.33608684 -0.34903705 -0.36872572
000250 bf b1 a2 3e 53 53 26 bc 46 19 ca bd cb 7b 82 3d
       0.31776235 -0.010151702 -0.09868102 0.06371268
000260 b0 97 a8 3d f8 dc 8b bd 26 be 18 bd 71 40 94 be
       0.08232057 -0.06829256 -0.037290715 -0.28955415
000270 0b 36 18 3c 85 2a 8f 3e c1 b7 1f 3e 56 5e 14 3e
       0.009290229 0.27962127 0.1559744 0.14489111
000280 5c ab 5d 3e 17 fb b3 be c5 5d 8f 3e 27 88 a2 3e
       0.216474 -0.35152504 0.28001228 0.317445
000290 b8 ed 99 bd 63 a7 8e 3e e8 5c 58 bd b0 b2 ab 3d
       -0.075160444 0.2786208 -0.052822977 0.08383691
0002a0 c5 89 a9 be 96 7d 89 3e f4 62 35 be f7 a7 29 be
       -0.33112922 0.26853627 -0.17713529 -0.1656798
0002b0 36 88 d8 bd 1e c5 24 be 74 85 be 3e d3 0e b0 be
       -0.10572855 -0.16090819 0.37211192 -0.3438631
0002c0 80 d0 67 be ac 39 56 be dc d2 56 be 45 60 b5 bd
       -0.2263813 -0.20920438 -0.20978874 -0.088562526
0002d0 60 20 ed bd 8a cd 95 bd f2 37 cf bd 80 95 96 be
       -0.11578441 -0.07314594 -0.101180926 -0.29410934
0002e0 5f 91 a5 3d d5 61 f7 3d 60 bb 7c 3e 20 ea 9e bc
       0.08084368 0.12079207 0.24680853 -0.019398749
0002f0 51 2d c1 be 2b f6 87 be d9 36 14 be 2f bd e3 bd
       -0.37729886 -0.26555 -0.14474048 -0.11120068
000300 2b 7c 51 3e 76 74 b5 bc 58 91 ef 3d 16 4e 0d 3b
       0.20457523 -0.02215026 0.11697644 0.0021561435
000310 c8 89 bd 3e ed 8c 12 3e 2c a9 87 be 61 30 ac 3e
       0.3701918 0.14311571 -0.26496255 0.3363066
000320 c5 b4 9a be f2 23 39 3e 01 c5 60 3e d7 30 74 3e
       -0.3021604 0.18080118 0.21950151 0.23846756
000330 81 67 d1 3d 51 1f 74 3e 85 3b a1 3e f4 63 87 be
       0.1022482 0.23840071 0.31490722 -0.26443446
000340 60 48 fe bd 36 74 94 be 54 d7 b8 3d 5b 19 93 3d
       -0.12416148 -0.28994912 0.090254456 0.071825705
000350 a2 d7 31 be 90 99 9e be 82 f8 87 be bc 16 c6 bd
       -0.17367414 -0.30976534 -0.26556784 -0.09672305
000360 3b ef c2 3e a4 bd 48 3e 43 81 a6 3e 03 5f 01 3e
       0.38073143 0.19603592 0.32520494 0.126339
000370 c2 77 bd 3e b0 98 a3 be bd c0 36 be a8 2c 8b be
       0.3700543 -0.3195243 -0.17846961 -0.27182508
000380 d0 b6 93 3d d7 76 7c bd 96 1d 6e 3d 25 69 aa be
       0.07212603 -0.061636772 0.058133684 -0.33283344
000390 45 31 b1 bd 55 5d 87 3e df 66 bb bb f1 1f 44 3d
       -0.086519755 0.26438394 -0.0057190503 0.047882024
0003a0 cf 09 e1 3d 7b da 9e 3d 3a a8 3f be 4a 14 07 3e
       0.10988199 0.077565156 -0.18716517 0.13191333
0003b0 00 a1 b8 3c 0f 8a e4 3d 58 ad b7 3d c1 fe 9e be
       0.022537708 0.11159145 0.089686096 -0.31053737
0003c0 2b 71 b9 bd 6a b3 9e 3e 08 15 99 3e b5 3d 8f 3e
       -0.09054788 0.30996257 0.29898858 0.27976766
0003d0 ae 62 f0 3d a2 6f 83 3d 2b ac f0 bd 73 b6 c1 3d
       0.11737572 0.06417777 -0.117515884 0.094586276
0003e0 57 81 23 bc ef 92 1d bd 8a 7a 7e 3e a2 ea 83 be
       -0.0099795675 -0.038470205 0.24851432 -0.25764948
0003f0 8f 0a 8e 3e be 0f c1 be b1 87 52 be 20 0b 30 3c
       0.2774243 -0.37707323 -0.20559575 0.01074484

shared_layers.0.bias f4 [128]
000000 12 26 50 3d ff 85 87 3e 84 41 95 3e c2 a4 8d be
       0.050817557 0.26469418 0.29151547 -0.27664763
000010 6d 6f bf 3d e9 b3 03 3e 3f 1b 65 be 58 7c aa be
       0.09347425 0.12861599 -0.22373675 -0.33297992
000020 ec 9a 85 be e8 2a 85 3e 08 94 a8 be 58 29 67 be
       -0.2609476 0.26009297 -0.3292544 -0.22574365
000030 a1 22 a3 3d 55 39 44 bd e3 5d 16 be e7 b8 03 be
       0.07965589 -0.04790624 -0.14684252 -0.12863503
000040 6c 05 bc bd d6 87 51 be 70 27 d4 bd 49 3a 2e be
       -0.09180722 -0.20461974 -0.103590846 -0.17014422
000050 73 d8 77 3e 7f d3 1e be b0 e6 ba 3e d0 e5 10 be
       0.24203663 -0.15510367 0.36504126 -0.14150167
000060 2d cb 71 3c e2 91 3c be 19 b3 4e 3e b4 8d 9b be
       0.014757914 -0.18415025 0.20185508 -0.30381548
000070 c6 a8 49 3d 65 86 cc bc c1 8a 09 bd 7f 25 ef bc
       0.04923322 -0.024966428 -0.03357959 -0.029192684
000080 2d 90 a7 3e 1c ec 83 3e 82 f6 6c be ff 96 47 be
       0.32727185 0.25766075 -0.2314091 -0.19491194
000090 c0 6c bd 3d 32 75 0c 3e 9e 34 fd 3d 40 0a 8a 3b
       0.09249258 0.13716581 0.123635516 0.0042126477
0000a0 77 4c 8c be 62 59 53 be 86 54 14 3e e7 6c 91 3e
       -0.27402088 -0.20639566 0.14485368 0.28403398
0000b0 b6 bc a6 be b0 00 8e be 86 8f 7e be 4f 6e a0 be
       -0.3256585 -0.277349 -0.24859437 -0.3133416
0000c0 b6 04 a0 bc f7 d7 92 3e a7 30 93 be 54 71 e1 bd
       -0.019533496 0.28680393 -0.28748056 -0.11007944
0000d0 bd 7c 43 3e c0 93 42 3c 6b 70 11 be 6a 80 92 3e
       0.19090553 0.011876047 -0.1420304 0.28613597
0000e0 54 3e a7 3c 7a 01 a8 3e cb 48 04 bc 5e df 4c be
       0.020415463 0.32813627 -0.008073996 -0.20007083
0000f0 f2 8b 96 be e8 91 51 bd b6 a9 a0 bc 18 cf 2c 3e
       -0.29403645 -0.051164538 -0.019612174 0.16875875
000100 9a 25 76 bd 50 20 c2 3e da 1c 9a 3e 6f b3 39 be
       -0.060094453 0.37915277 0.30100137 -0.18134855
000110 cb 30 84 be f0 43 94 be 75 6b 91 be ee af e5 3d
       -0.25818476 -0.28958082 -0.28402296 0.112151965
000120 42 85 36 3e 49 dd b5 be 20 21 a3 be 75 cc 60 be
       0.17824271 -0.3552039 -0.3186121 -0.21952994
000130 a6 33 2e 3e 20 ce 31 bc 62 8e 8a bc f5 b6 a4 be
       0.1701189 -0.010852367 -0.016913597 -0.32170835
000140 58 0f 19 3d 24 b3 ff bd 20 55 c6 bd b2 c2 6c 3e
       0.03736815 -0.1248534 -0.09684205 0.23121145
000150 7e ce 69 be f5 13 b6 3d 50 19 43 3e 85 2b ba 3e
       -0.22832677 0.08890525 0.19052625 0.36361328
000160 16 43 93 3e cf 31 4c be 51 bc 51 3b f3 ce 92 3e
       0.2876212 -0.19940875 0.0032003114 0.28673515
000170 f6 61 ca 3d 55 d2 8c be 40 b5 f4 3d 94 46 37 be
       0.09881966 -0.2750422 0.11948633 -0.17898017
000180 db 1b 7f be 7a d8 38 3e 30 cb 83 3e 74 f9 60 3d
       -0.2491297 0.1805133 0.25740957 0.054925397
000190 9e 7f e7 3d e8 24 0c be be f5 f9 bd 10 4b 9a be
       0.11303638 -0.13685954 -0.12205075 -0.30135393
0001a0 8b c3 f3 bc bb 0f a1 3e 54 25 86 3e 25 36 b3 be
       -0.029756328 0.31457314 0.26200354 -0.35002246
0001b0 42 21 0a 3e ba 72 1d 3e 99 d1 a6 3e 8a 12 b1 3e
       0.1348925 0.15375796 0.32581785 0.34584457
0001c0 ec ac 94 3e 8d 09 d0 3d 9a 83 aa bd 6c 2d 47 be
       0.2903818 0.10158072 -0.08325882 -0.19450921
0001d0 aa b4 8c be 21 fa 83 3e 00 6c d7 b9 c3 03 b5 3e
       -0.27481586 0.2577677 -0.00041088462 0.35354432
0001e0 74 fa ab be fe c5 6f 3c 68 8e a8 bd 56 f8 04 3e
       -0.33589518 0.014634607 -0.08230287 0.12985358
0001f0 58 80 aa 3e 72 80 5e 3d bd a9 9d be b6 63 56 be
       0.33301044 0.054321714 -0.30793563 -0.20936474

shared_layers.2.weight f4 [128, 128]
000000 81 9d ed bc d5 cc 92 3d 88 79 42 3d 75 3d 0a 3d
       -0.029005768 0.07167975 0.047479182 0.033750016
000010 39 4b 31 bc 09 59 b3 3c 5b 07 da 3c 81 36 0c bd
       -0.010821157 0.021893041 0.026614835 -0.034231666
000020 31 9b 50 3d 5b d9 c2 3d db 17 9a 3a 54 cd 51 3d
       0.050929252 0.095141135 0.0011756377 0.051221207
000030 97 3b 47 3d 0d 10 51 3d cf 2c bc bc 1d a0 a4 bb
       0.048640814 0.051040698 -0.022970585 -0.00502397
000040 e5 78 71 3d 44 e4 c1 3d 83 f8 b1 3d a5 32 75 3c
       0.058953185 0.09467366 0.08689978 0.014965688
000050 9a a5 e2 3b dc 93 86 3d f1 52 bf bc 2f b2 b0 bd
       0.006916714 0.06571171 -0.02335498 -0.08627736
000060 96 38 91 bd 4d bb 0d bd 6a ce 62 3d b8 31 9b 3d
       -0.07090871 -0.034602452 0.055372633 0.075778425
000070 76 c1 a2 3d e6 17 96 3d 2d 1c ca 3d 88 0a 1f bd
       0.07947056 0.07328777 0.09868655 -0.038828403
000080 84 a1 9f 3d f2 ac a4 bd 73 9b e6 3c e2 d9 8d 3d
       0.077944785 -0.08040799 0.028150296 0.069263235
000090 c8 a7 91 bc 73 bf a6 3c 52 73 c0 bd f4 21 b3 3c
       -0.0177802 0.020354962 -0.093969956 0.021866776
0000a0 85 6c af 3d 9b 05 cf 3d 1c 1a 03 3d 2d 5d 0b 3d
       0.0856562 0.10108491 0.03200732 0.034024406
0000b0 a9 eb 4b bd d1 4f ae bb a4 d8 b1 bc 5a fb 28 bd
       -0.04978529 -0.0053195735 -0.021709748 -0.041255333
0000c0 36 56 82 bb 28 b6 d5 3d 91 79 0a bd d3 a0 c9 bc
       -0.0039775623 0.10435134 -0.03380734 -0.02461282
0000d0 0d ed 2b bd a6 ce 48 bd b0 b2 54 bd 8b 65 c4 bd
       -0.041974116 -0.0490252 -0.051928222 -0.0958968
0000e0 d9 07 97 bc 72 9d 8f bd ca 9a 2b 3d 35 f2 86 bd
       -0.01843636 -0.07012452 0.041895665 -0.06589166
0000f0 f5 75 a7 bc dc 7e 00 bc 0b 41 af 3d 47 92 37 3d
       -0.020441988 -0.007842746 0.08557328 0.044817235
000100 6a 3a 73 bd a4 be 9a ba 75 4d c9 3d 4e 87 c4 3d
       -0.05938188 -0.0011806083 0.09829227 0.0959612
000110 4d a3 31 bd bf 80 b4 3d 63 f1 ac bd 97 83 08 3d
       -0.043368626 0.08813619 -0.08444478 0.03332862
000120 84 4e 4e bd 61 4a 20 bd b5 f3 98 bc c1 fb ec 39
       -0.050367847 -0.039133433 -0.018670896 0.00045201
000130 03 de 86 bd d6 75 41 3c d9 b8 89 3d a2 26 14 bd
       -0.06585314 0.011807879 0.0672471 -0.036169656
000140 05 3c 01 bc 92 c7 8e bd ab 4f 58 bd 9b 4d 3b bc
       -0.007887845 -0.06971659 -0.052810352 -0.011432077
000150 75 49 4c 3d 01 51 e9 bb dc 4f f0 3c d9 4d 1a bd
       0.04987474 -0.007120252 0.029334955 -0.037671898
000160 bb 95 a3 3c 7b 3a 11 bd 7c a1 98 bc 71 2a 0b 3d
       0.019968858 -0.035456162 -0.01863169 0.033976022
000170 86 20 9b bc 02 80 85 3d 37 01 c7 b8 62 bd 5a 3d
       -0.018936407 0.06518556 -9.489286e-05 0.053403266
000180 db e8 d0 ba 08 66 28 bd 0f af a4 3d c4 69 8b bd
       -0.0015938537 -0.04111293 0.08041202 -0.068072826
000190 27 02 10 3d 07 d2 36 bd b3 c7 bc 3d 2b f3 ae 3c
       0.035158303 -0.04463389 0.09217777 0.021356186
0001a0 87 0b 7d bd f4 0d 5b bc 40 93 28 3c 94 d3 7c 3d
       -0.06177857 -0.013370026 0.010289013 0.061725214
0001b0 8a 75 c4 bd a7 0f d6 3d 02 45 c8 bc be ef 02 bd
       -0.09592731 0.10452204 -0.024446968 -0.031966917
0001c0 0d 38 86 3d 77 d9 58 bd d8 dc 8c bd 35 be be bc
       0.065536596 -0.052941766 -0.0687806 -0.023284057
0001d0 ef 21 85 3d 12 38 ab bd 8e 86 99 3d c5 c6 82 bd
       0.06500613 -0.08360304 0.074963674 -0.063855685
0001e0 0a 71 bf bc ad 96 65 3d 52 52 85 bd af 67 c1 bc
       -0.02336933 0.0560519 -0.06509842 -0.02360901
0001f0 b1 a1 80 bd a7 a0 79 3d 0f d6 3c bd b4 7c 0d 3c
       -0.0628084 0.060944226 -0.04610258 0.008635689
000200 8a 7e 33 bc 70 7d 9c bd 9f 61 13 3d ba 4b 6d bd
       -0.010955462 -0.07641113 0.03598177 -0.057933547
000210 ee ee 81 3d 8f 11 97 bd 9e 75 89 bd 2d f5 33 3d
       0.063444 -0.07376396 -0.06711887 0.04393499
000220 4e 7b 75 bd 52 86 75 3d ee 87 9c 3d f0 f2 5f bd
       -0.059932046 0.05994255 0.07643114 -0.054675043
000230 fa bd ca 3d 13 b3 7c bd 3f c3 05 3d 50 9b 72 bd
       0.098995164 -0.061694216 0.032656904 -0.05923015
000240 b3 1d 5c bd 0a 33 c7 3c 0f 11 d3 bd 61 c3 c6 bd
       -0.05373926 0.02431633 -0.10305988 -0.09705234
000250 82 ef 17 bd 01 8e 52 bd 97 ff 5c bc ac bd 24 bd
       -0.037093647 -0.051404957 -0.013488672 -0.040219948
000260 0f 50 bc bd 2d 3f 15 3d e3 03 80 3d 50 1e dd 3c
       -0.091949575 0.036437202 0.06250741 0.026991993
000270 f4 1c 79 3d 95 0c b8 bb 21 19 a5 3b 6b 23 7e 3d
       0.060818627 -0.0056167343 0.005038396 0.062045496
000280 26 ba a2 bd fc 11 0f bd a9 c1 7e bb 5e b3 d0 bd
       -0.07945661 -0.03492926 -0.0038872755 -0.101904616
000290 e8 f0 87 bc 30 e6 89 3d 5a e0 28 bd 30 ba d8 bc
       -0.016594365 0.06733358 -0.041229583 -0.026455969
0002a0 ff 5f 9d 3c 4f 7c 72 3c db 6c cb 3d 0b b5 29 3d
       0.019210814 0.014800145 0.09932872 0.04143242
0002b0 02 0c a6 3d 2e 90 01 3b f1 e0 e9 3b 66 89 81 3d
       0.08107759 0.0019769776 0.007137411 0.06325035
0002c0 2a 81 6d 3d a5 6f af bd 61 a5 d1 3b a3 e9 81 3d
       0.05798451 -0.085662164 0.0063978885 0.06343391
0002d0 4e 3a c3 bd ff e6 7b 3d 00 3f 15 bd 11 ac 2c bd
       -0.09532605 0.061499592 -0.036437035 -0.042156283
0002e0 ac 8e 83 bd 10 02 87 bb 5d 68 dc bc 66 10 8a bd
       -0.06423697 -0.004120119 -0.026905233 -0.06741409
0002f0 fa 78 29 3d f7 8f 7d bd 37 14 f7 bc 34 82 74 3d
       0.041375138 -0.061904874 -0.030161006 0.059694484
000300 08 b0 5a 3d 02 91 6d bd 97 da 79 bd 5c a3 b4 bd
       0.053390533 -0.05799962 -0.06099948 -0.08820221
000310 37 7a 45 bd 2a 2c 1a 3c c7 36 ba 3c fa 20 cc bd
       -0.048212256 0.009409944 0.022731198 -0.09967227
000320 0d b3 92 3c 7a fa d3 bd 2d e4 a5 bd 81 ee d3 bc
       0.017907644 -0.10350509 -0.08100162 -0.025870563
000330 81 0c 99 3d 0c 6f 5f 3d 13 1b 99 3d 96 62 50 bd
       0.07473088 0.054549262 0.07475867 -0.05087527
000340 bd 27 95 3d 07 d6 c8 bc ce 26 05 bc 7e ff d2 bc
       0.0728297 -0.024516119 -0.008126928 -0.025756594
000350 19 85 6a bd 75 18 b4 bd 63 90 b5 3c d6 82 78 bd
       -0.057255838 -0.08793727 0.022163576 -0.06067165
000360 94 85 c4 3c ec cf 08 3d 3c 38 a1 bd 6e 2b e5 3c
       0.023989476 0.033401415 -0.07872054 0.02797481
000370 e6 03 38 bd 22 2d 83 3d 97 0a 9d bb 82 be 72 bd
       -0.044925593 0.06405093 -0.004792522 -0.059263714
000380 0c 73 91 bc 3a 60 ef 3c 1f 81 da bd e4 b0 b2 bc
       -0.017755054 0.02922069 -0.10669159 -0.021812864
000390 5c 7d 48 3d ac 87 16 3d a7 a7 64 3c 61 96 11 bd
       0.048947677 0.03675048 0.013955987 -0.035543803
0003a0 ca e1 e5 3c e8 d0 27 bd 4c 07 b8 bc 48 95 23 bd
       0.028061766 -0.040970713 -0.022464417 -0.039937288
0003b0 e1 7f d2 3d c6 c4 61 bd a5 ae a3 3c 3a 9a c3 bd
       0.10278297 -0.0551193 0.019980738 -0.09550901
0003c0 af 73 86 3d 52 44 9d bb 94 a2 5a 3b 1d 00 30 bc
       0.06565034 -0.004799404 0.0033361064 -0.0107422145
0003d0 68 2b 69 3d e9 8f 34 bd 24 21 20 3d ba 1c 3e 3d
       0.05692616 -0.044082556 0.039094105 0.046414115
0003e0 da 3b 47 bd 57 00 a2 3d 1d 11 1a bc f2 04 34 3d
       -0.048641063 0.07910221 -0.009403494 0.04395003
0003f0 0c ac 39 bd f2 c3 11 bc 6c 13 a5 bc 17 f2 b4 3c
       -0.045330092 -0.008896815 -0.020150863 0.022088094

shared_layers.2.bias f4 [128]
000000 88 d3 89 bd 6c c3 44 3c 7f e1 ca bc 79 64 e1 3c
       -0.067297995 0.012009483 -0.024765728 0.02751373
000010 7d f1 99 3c 5c e3 17 3d 03 08 20 bd 5c 23 d4 bd
       0.018791908 0.03708206 -0.03907014 -0.10358307
000020 1c e6 32 bd fa c6 90 3c 2c 54 84 bd 2f ec 94 3d
       -0.04367648 0.017673004 -0.06461367 0.07271611
000030 ac eb 9d 3d 98 cf 19 3d f5 2b f6 3b 6b 3e a2 bc
       0.077109665 0.037551492 0.0075125643 -0.019805154
000040 52 f2 84 3b 28 00 fb 3c 18 76 ae bd fd 45 ba 3c
       0.004057207 0.030639723 -0.08518618 0.022738451
000050 50 01 a3 bc ed 03 8a 3d 4b de bc 3d 1a 85 ad 3d
       -0.019898087 0.0673903 0.092220865 0.08472653
000060 c7 32 1e 3d f3 2c dc bd 55 62 08 3c 97 6a e7 3b
       0.038622644 -0.10750761 0.008324225 0.007062267
000070 5d 3c 0e 3d 4a d5 a8 bd 04 eb 34 3d 79 b2 97 3d
       0.034725536 -0.08243807 0.04416944 0.07407088
000080 cb a0 91 3d 75 bd 3f 3d 9d c0 67 bd 6d 3a fb bc
       0.07110747 0.04681154 -0.056580175 -0.030667508
000090 01 12 89 3d b0 71 87 3d 13 73 76 3b f7 1d 69 bd
       0.06692887 0.06613481 0.003760521 -0.056913342
0000a0 9f c1 83 bc a8 61 b9 bb ac 84 6a bd f7 3e 87 bc
       -0.016083537 -0.0056573935 -0.057255432 -0.016509516
0000b0 6d de 6d 3d 40 39 bd ba 5b 1f 20 bb 7e 29 31 bd
       0.05807345 -0.0014436617 -0.0024432752 -0.04325246
0000c0 17 de 0c 3d 37 ce 88 3d d4 42 81 3d 76 64 3d bd
       0.03439149 0.06679957 0.063115746 -0.046238385
0000d0 a1 1a 5d bd df 30 d6 3b 9f e3 14 bd 5e c8 30 bd
       -0.053980473 0.0065365876 -0.03634989 -0.043159835
0000e0 bd 80 72 3d 90 96 1e bc b0 93 80 bd d9 f1 85 bd
       0.059204806 -0.009679452 -0.06278169 -0.065402694
0000f0 10 a5 91 bd fa 00 a5 bd b5 71 20 3d 75 f0 85 3c
       -0.07111561 -0.08056827 0.03917094 0.01635001
000100 82 e8 7c 3d 8d 78 a2 3d 11 38 cb b9 52 b9 91 bd
       0.061745174 0.079331495 -0.0003876095 -0.07115425
000110 ab b4 85 3d 00 e0 50 3d 9a 35 d8 3d 19 c7 52 3d
       0.065286 0.050994873 0.10557099 0.051459406
000120 23 6c 78 3d c6 eb e0 3c 0c 42 56 bd 9e 01 12 3d
       0.060650002 0.027456176 -0.05230908 0.035646074
000130 d6 16 d9 3c a2 cc 4c 3d 3c 92 e2 bc ac 75 0a 3b
       0.026500147 0.04999984 -0.02765762 0.0021127267
000140 ff 6d 41 bb e6 53 60 3d ac de 85 bd 47 07 f5 3c
       -0.0029515026 0.05476751 -0.06536612 0.029910697
000150 2f f7 a5 bd 51 d2 53 3d c7 5d 25 bd 8b a6 be 3c
       -0.08103787 0.051714245 -0.040372636 0.023272773
000160 2b 56 92 3d ef d0 16 bd 1a 02 9c bd 36 97 fa bb
       0.071453415 -0.03682035 -0.07617588 -0.0076474203
000170 c0 62 13 bd 51 e3 54 bd ca b2 17 3c 99 e7 90 bd
       -0.035982847 -0.0519746 0.009258935 -0.07075424
000180 1b 91 8d bd b6 f3 30 bc ec 9c 09 3d e7 1b c8 3d
       -0.06912442 -0.010800293 0.033596918 0.09770947
000190 2e 41 18 3d 38 a1 27 bd 02 49 b4 3c 9a 84 b5 bd
       0.037171535 -0.040925235 0.02200747 -0.08863182
0001a0 c8 eb 0e bd c1 ce e9 bc e6 ca 4a bc 37 f2 34 bd
       -0.034892827 -0.02854097 -0.012377476 -0.044176307
0001b0 ee a8 f6 bc f4 74 b2 bd 23 ad 4f 3d fb 16 87 bd
       -0.030109849 -0.08713713 0.050702225 -0.0659618
0001c0 98 59 5a bd 85 6c 08 3d 43 70 80 bc 2f f1 0c 3d
       -0.0533081 0.033306617 -0.01567853 0.034409698
0001d0 d2 59 70 3c 7d a0 9b 3d 1a dc 0b bc 76 69 2d bd
       0.014669852 0.0759897 -0.008536363 -0.042336904
0001e0 5c 16 09 bc a5 e5 d1 bc 8d 2a 41 bd 99 2d 86 bd
       -0.008367147 -0.025622198 -0.04715972 -0.06551666
0001f0 e6 25 91 bd cd d8 18 bd 4e c5 d1 bd ac 16 b8 bc
       -0.07087307 -0.037316132 -0.10242711 -0.022471748

actor_head1.weight f4 [51, 128]
000000 35 26 81 3d 35 70 8c bd 80 22 45 bc 7d de e2 bb
       0.063061155 -0.06857339 -0.012032151 -0.0069234953
000010 8d 02 87 bc 8a 55 9e 3d e1 2b 53 3d 01 2b a4 3d
       -0.016480708 0.07731159 0.051555518 0.08016015
000020 8a 3f 88 bd 35 71 81 bd 11 0f 81 bb 0f cd bd 3d
       -0.06652744 -0.06320421 -0.0039385636 0.092676274
000030 3b d3 90 bc 5f de a9 3d 3b 18 df ba 38 76 80 bd
       -0.017678848 0.08294367 -0.0017020771 -0.062725484
000040 3d d2 92 3d cf cd 8a 3c 1e 55 4b 3d 9b 9d 31 3d
       0.07169006 0.01694384 0.04964172 0.043363195
000050 80 24 c0 3c f3 a6 6c 3d 24 87 82 3d 75 10 fb bc
       0.023454905 0.057776403 0.06373432 -0.030647496
000060 bb e8 5f bd 15 6a a1 3c 1c 27 aa 3d 01 49 1f 3c
       -0.05466531 0.019703904 0.08308241 0.009721995
000070 d8 7f 69 bd d7 7a a2 bd 98 06 a0 3c fa d8 8f bc
       -0.057006687 -0.07933586 0.019534394 -0.017559517
000080 60 03 5c 3d 08 d6 f0 bc 1a 58 2a bd d5 e9 b1 3c
       0.053714156 -0.029398933 -0.041587926 0.021717945
000090 1b 38 da bc aa e0 41 3d da 4d 68 3c 63 15 8f bd
       -0.026638081 0.047333397 0.0141787175 -0.06986501
0000a0 44 60 b3 3d 54 96 8f 3d a2 7e 2a 3d 69 d5 90 3d
       0.087585956 0.07011095 0.041624673 0.07071955
0000b0 ab e5 ab bd aa 84 80 3d fd 60 80 3b b9 2a c1 bc
       -0.08393415 0.06275304 0.003917812 -0.023579942
0000c0 96 f3 48 3c 03 01 a6 3d 14 d1 65 bd c3 7e c5 bd
       0.012265107 0.08105662 -0.056107596 -0.096433185
0000d0 d9 ad 1b bd 64 13 60 3c 8d 2e 9b bc 92 8c 82 3d
       -0.03800759 0.013676498 -0.018943096 0.06374468
0000e0 f3 ca 98 3d 22 fc 54 3d 97 0f c4 bb 48 39 fd 3c
       0.074605845 0.051998265 -0.0059833038 0.030911103
0000f0 ba 9b c2 3c f9 37 0a bd a5 d2 e1 3c e1 76 85 3d
       0.023755897 -0.033744786 0.027566263 0.06516815
000100 d3 02 c9 3d ba ee af 3d 4c 85 0a bd 21 a7 cc 3d
       0.09814992 0.08590455 -0.033818528 0.09992815
000110 47 78 60 3d 07 65 69 3c eb 6b 9d 3d 02 0c 96 bd
       0.054802205 0.014245278 0.07686599 -0.07326509
000120 fe 73 41 3d 68 50 a1 bd e1 16 a0 bd e9 65 34 3d
       0.04722976 -0.078766644 -0.07816864 0.0440425
000130 34 c0 0c 3b b7 e9 74 3c 11 31 c5 bc c5 6e bd bc
       0.0021476867 0.0149483 -0.024071248 -0.023124108
000140 0c 7d eb bc 22 62 b6 3c 35 ba a1 bd 7d 9a be 39
       -0.02874615 0.02226359 -0.07896844 0.00036354727
000150 2d 09 49 3d c2 53 0d bd 6d 3e 47 bd 0e 85 3d bd
       0.049081016 -0.034503706 -0.04864352 -0.04626947
000160 99 63 7b 3c d0 73 57 3c f7 20 b2 bd 03 25 d5 bd
       0.01534357 0.01315017 -0.08697694 -0.1040745
000170 a8 68 05 3d 6b 86 33 bc 31 2e 6d bd fc ae 7d 3d
       0.03257051 -0.010957341 -0.05790538 0.061934456
000180 f7 5d 84 bd 61 36 bf bc 56 3e 52 3c fb 6b 54 bc
       -0.06463235 -0.02334136 0.012832245 -0.012965198
000190 76 0f ae 3d f7 ec ca bc dd da 87 3d 74 8b 9a 3c
       0.08499043 -0.024771197 0.06633542 0.018865325
0001a0 c3 f3 b8 bc 29 05 48 bd 7b 8b a3 bd db 53 b6 3d
       -0.022577172 -0.048833046 -0.07985588 0.08902713
0001b0 f5 b6 19 3d 69 8c 88 3a 38 48 d4 bd c4 d3 3e 3c
       0.037527997 0.0010417822 -0.10365337 0.011647169
0001c0 4f 92 01 3d be 24 38 bd 62 d7 a6 3d 5f b0 b7 3c
       0.03163367 -0.044956915 0.0814655 0.022422967
0001d0 79 78 86 bd b1 75 17 bd b8 c5 48 3d d1 3d b7 bc
       -0.06565947 -0.036977474 0.049016684 -0.022368344
0001e0 35 49 7f 3c 5c 14 55 bd 84 c6 a4 bd 38 58 a8 bd
       0.015581419 -0.05202137 -0.08045676 -0.082199514
0001f0 6f 2f 91 3d fc 97 eb bc ff bd b1 3a de b6 53 bd
       0.07089125 -0.028758995 0.0013560652 -0.051688068
000200 c3 c6 7e 3d 98 3f ad 3d 1c 88 6e bd 89 70 d4 39
       0.062201273 0.08459395 -0.058235273 0.00040519636
000210 99 f4 3b bd a8 47 87 3d 4f b8 97 bd 49 02 17 bd
       -0.045887563 0.06605464 -0.07408201 -0.036867414
000220 51 4b c8 bd 2e b0 47 3d 66 54 94 3c c5 f5 b8 3d
       -0.097799905 0.048752002 0.01810665 0.09031252
000230 81 a6 fc 3c 0b 59 5c 3d 70 58 31 bc 2c f2 2d bd
       0.030841114 0.053795855 -0.010824308 -0.04246728
000240 5f 71 b6 bc 07 36 f8 3c 75 58 2c 3d 8d 76 e4 bc
       -0.022270856 0.0302992 0.042076547 -0.02788856
000250 1a 2b 98 bd 39 2a 49 3d aa e4 9c bd 8c 8c a1 3d
       -0.07430096 0.049112532 -0.07660802 0.07888135
000260 b3 e9 9d bb 9a ed cb bb 3f e4 3e 3d 06 81 7b bd
       -0.004819119 -0.0062233927 0.04660439 -0.061402343
000270 46 7c 18 3d 41 fd 96 bd 80 fd 5f 3b 89 5a 8d bb
       0.03722789 -0.07372523 0.0034178197 -0.004313771
000280 da f5 8c bc e6 e9 57 bd 92 90 a6 3d c2 9a 9c 3d
       -0.017207075 -0.052713297 0.08133043 0.07646705
000290 3f a6 4b bd 81 57 86 3c 8f 76 d7 bc ef cf d4 3c
       -0.04971909 0.016399147 -0.02630165 0.025978057
0002a0 5f 1d c8 3d 1a 1f 14 3c ea fe a4 3d e8 f0 29 bd
       0.09771227 0.009040618 0.080564335 -0.04148951
0002b0 7b e1 46 3d be 92 6b 3d e3 79 65 bd 90 56 88 3d
       0.04855488 0.05751299 -0.056024443 0.066571355
0002c0 9a 61 13 3c bd 16 a6 bd fd b3 2a 3d 56 2c 71 3d
       0.008995438 -0.08109806 0.041675556 0.058880173
0002d0 aa 36 b9 bd 23 88 3d bd 4b 40 58 bd 83 41 9e bc
       -0.090436295 -0.04627241 -0.05279569 -0.019318348
0002e0 a6 a0 3e 3d 6f 9c e0 3c c6 28 af 3d 49 1c 00 bc
       0.046539925 0.027418343 0.08552699 -0.007819244
0002f0 fe 91 3e bc 68 f6 a2 bd a4 e0 cf bc 60 1f 36 bd
       -0.011631487 -0.079571545 -0.025375672 -0.044463515
000300 a4 33 ab bc c0 85 5f 3d 38 a6 14 3d de a0 5d bd
       -0.020898648 0.054570913 0.03629133 -0.054108493
000310 94 7d 81 bc 19 5a 94 bd e6 c8 48 bb 13 4f 8a 3d
       -0.01580695 -0.07243747 -0.0030637323 0.067533635
000320 b5 f9 80 bd c6 a4 90 bd 32 6c b5 bd 10 e1 79 3c
       -0.06297628 -0.07062678 -0.08858527 0.015251413
000330 74 bf ce bb ad 82 87 3d b2 4c 8e 3d cd 09 37 bc
       -0.006309444 0.06616721 0.06948222 -0.01117177
000340 08 d3 49 bd 8e 9b 01 3d 34 f2 8c 3d df 9f 91 3d
       -0.04927352 0.03164249 0.06882134 0.07110571
000350 a1 85 d5 bc d9 1d 53 bd 36 bb 2a 3d ca 4b 60 bb
       -0.026064696 -0.051542137 0.041682445 -0.0034224861
000360 84 db 71 3d b0 3b aa bc 6f f5 a1 3d 91 62 10 bd
       0.059047237 -0.020780414 0.07908141 -0.03525025
000370 44 d7 51 bb 58 f8 ad 3a 7f 83 bd 3d 66 d2 a7 bd
       -0.0032019177 0.0013272865 0.092535965 -0.08194427
000380 f3 dc a7 3d c3 1a 87 3d a8 35 80 bd ad c9 83 b8
       0.081964396 0.06596901 -0.06260234 -6.284132e-05
000390 32 29 82 bd 35 99 74 bc 5d 89 3e bd 78 37 3b 3d
       -0.06355514 -0.0149291055 -0.04651772 0.045707196
0003a0 45 f3 84 bd 22 5f e2 bc b3 d1 02 3d 29 ae 64 3d
       -0.064917125 -0.027633253 0.031938266 0.055830155
0003b0 41 b1 d4 3a 3a 39 07 3d ce 54 7a bd b3 c0 a2 bd
       0.0016227142 0.03301356 -0.061116032 -0.07946911
0003c0 9c 5d 80 3d d4 d9 a6 3d b5 df 7e bd 64 aa 9d bd
       0.062678546 0.08147016 -0.062225062 -0.07698515
0003d0 0a f9 b8 bc a5 6d a3 3d cd 45 18 3b 85 fa b5 bd
       -0.022579689 0.079798974 0.0023234964 -0.088856734
0003e0 70 ad 81 bd fb d9 94 3d f3 97 9a 3d 21 a1 53 3d
       -0.06331909 0.07268139 0.07548513 0.051667336
0003f0 38 d3 1e 3d 93 46 99 3d 82 d8 09 bd fe 25 f7 3c
       0.038775653 0.07484164 -0.033653744 0.030169483

actor_head1.bias f4 [51]
000000 7a ff 7d bd f3 67 bc 3d e3 dc 02 bd 5a ec 01 b9
       -0.06201122 0.09199514 -0.031948935 -0.00012390446
000010 6e 2d 7d bc c0 83 63 3d 25 3f da bc 86 87 a9 3d
       -0.015452726 0.05554557 -0.026641438 0.08277802
000020 f8 9a 6e bd 1e 98 62 bd 8a 30 c8 3d 45 1d c9 3d
       -0.05825326 -0.05532085 0.09774883 0.09820036
000030 7e e1 08 bd 42 6e 98 3d 6f a9 a3 3d bd 77 ef bb
       -0.03341817 0.07442905 0.07991301 -0.007307975
000040 0b 2e 75 3d 1c 06 69 3b 8e 33 10 bd de 58 9a 3c
       0.059858363 0.003555662 -0.035205416 0.018841203
000050 09 73 1b 3d 0a d0 7f bd 98 7d 49 3b 67 70 b6 3c
       0.037951503 -0.06245426 0.0030745026 0.022270394
000060 17 cb be bd fe 3b 87 bd cb be 16 bd 50 5b 39 bd
       -0.0931608 -0.066032395 -0.036803048 -0.045253098
000070 7c 0b c1 bd b7 cf 9b bd cb a3 a8 3a 88 fb 63 bd
       -0.094260186 -0.07607978 0.0012866197 -0.0556598
000080 6d dd bb bd da 7f 42 3d 95 b8 af bc f3 d8 20 bd
       -0.09173093 0.04748521 -0.02145032 -0.0392694
000090 41 8a 82 bd f2 6a a5 bd 0c ff 6d 3c 10 43 57 bd
       -0.06374026 -0.08077039 0.01452614 -0.05255419
0000a0 69 cc 90 bd fd 13 eb bc 61 45 90 3d c0 42 56 3d
       -0.07070238 -0.028696055 0.07044483 0.05230975
0000b0 41 ce 8e bc 61 91 38 3d 36 c6 84 bc a1 a5 a4 bd
       -0.017432334 0.04506052 -0.016207796 -0.08039404
0000c0 5f 3e c4 bd a3 73 aa bd ae 55 74 3d
       -0.09582209 -0.08322837 0.059652023

actor_head2.weight f4 [51, 128]
000000 cb 56 ec bb e1 1c b4 bb 02 4e ab 3d 08 4a 8c 3d
       -0.007212495 -0.0054966067 0.08364488 0.06850058
000010 88 b6 8b bd bc 29 31 bc bc a0 22 3d 2d 14 e6 3c
       -0.068219244 -0.010813173 0.03970407 0.028085792
000020 b3 6e 21 3d 77 d2 12 3d 30 72 88 3d 7a 89 26 3c
       0.03941221 0.035845246 0.066624045 0.010164613
000030 81 5a c8 bc 78 19 3d bd 3d 4a 03 bd 67 78 89 3d
       -0.024457218 -0.046166867 -0.03205322 0.06712418
000040 07 71 35 bd 16 4d e6 bb 1d a2 c3 bd fd 63 ba 3c
       -0.044297244 -0.0070282323 -0.09552405 0.022752756
000050 cc 40 c8 ba f2 f8 ab 3d 82 e7 ab bc 8b 0c 2a 3d
       -0.00152781 0.08397092 -0.020984415 0.04151587
000060 81 57 84 3b 24 3d 82 bc 9b 52 f7 3c ee 59 ba 3d
       0.0040387516 -0.015898295 0.030190757 0.09099184
000070 8b 09 65 3d d8 df a7 bc ae a8 75 bd 86 82 92 3d
       0.055917304 -0.02049248 -0.05997532 0.071538016
000080 f2 53 82 3d 65 3f 94 3c 8d 57 c0 bb f0 ad 87 bc
       0.063636675 0.018096635 -0.005869812 -0.016562432
000090 21 8e 8d 3d ed 5f b2 bd 79 22 bf 3d d9 46 42 bd
       0.069118746 -0.08709703 0.09332747 -0.047430847
0000a0 d7 aa 83 3d 7f c5 45 3c bb 16 34 bd 72 9a 65 bd
       0.064290695 0.0120710125 -0.04396699 -0.056055494
0000b0 59 06 97 3c 2b 26 c4 bc e7 55 71 bd ee 6e 8e bd
       0.018435644 -0.023943981 -0.058919813 -0.06954752
0000c0 57 05 e7 bc a1 3a 88 3d 5c 83 8e 3d 26 fe ad 3c
       -0.028200788 0.066518076 0.069586486 0.021239351
0000d0 2f 95 57 bc 2a 2f bf 3c 87 99 df 3c c1 07 1d bd
       -0.013158127 0.02333792 0.027294887 -0.038337473
0000e0 d8 fa a6 3c 76 cd 4c 3d 5b aa d3 3d 30 bf 94 bd
       0.020383283 0.05000063 0.10335227 -0.072630286
0000f0 5b ed 93 3c 6d fb a4 bd b6 2e cb 3d 54 3f c8 3d
       0.018057516 -0.08055768 0.09921019 0.09777704
000100 fc 42 7c bd 45 cd db 3b ff 12 54 bd 74 d3 ac bc
       -0.06158732 0.0067078196 -0.05177593 -0.021096922
000110 97 40 c4 bd d2 3f ac bd 8f 08 f7 bc 38 39 a4 bd
       -0.09582632 -0.0841061 -0.030155448 -0.08018726
000120 df c4 ce bd 0b e3 13 3d ec 54 b9 bb 91 ac e8 bb
       -0.10096144 0.036105197 -0.0056558754 -0.0071006496
000130 91 65 ee 3c 03 d4 66 bd 6d b3 1b 3d f4 14 34 bd
       0.029101165 -0.056354534 0.03801291 -0.043965295
000140 ac 6e 82 3d 77 b2 a3 bd b5 8e b0 bd d8 b8 33 3c
       0.06368765 -0.07993024 -0.08620969 0.010969363
000150 55 72 e8 3c d2 0e 8e bd 69 0e 16 3d ff 65 9d 3d
       0.02837483 -0.069364205 0.036634836 0.0768547
000160 2c ed 5a 3d 1f e0 8e 3d 80 fe 21 bd e3 9d 52 3c
       0.05344884 0.069763415 -0.03954935 0.012855026
000170 b0 64 aa bd a4 59 ec 3c 29 46 91 3d 49 e7 4c bd
       -0.08319986 0.028851338 0.0709346 -0.05002526
000180 25 5e a5 3d 2b eb 19 3d a4 3f 90 3d 6a b9 cf 3c
       0.08074597 0.03757779 0.070433885 0.025356967
000190 8a 42 29 3d 52 4a a8 bb 7c 44 4e bd 35 45 16 3d
       0.041323222 -0.005135813 -0.05035828 0.036687095
0001a0 2b 3e 3c bc 39 b0 8c 3d 74 8f b5 bd a0 b7 36 bd
       -0.011489431 0.06869549 -0.08865252 -0.044608712
0001b0 fb 72 b7 bc 59 f5 40 3d 73 c3 70 3d e6 11 9a 3c
       -0.022393694 0.04710898 0.058780145 0.018807363
0001c0 81 11 31 3d b5 d2 bd 3c 55 87 2c 3b 0f 1d ec ba
       0.043229584 0.023171762 0.0026325781 -0.0018014031
0001d0 aa 15 03 3c 0e b0 15 bd 48 c6 cd 3d 9f 7a c9 bd
       0.008000771 -0.036544852 0.10047585 -0.09837841
0001e0 ee 2e a1 bd 2f b8 7f bc f5 c7 07 3c 9e 5a 80 bd
       -0.07870279 -0.015607878 0.00828742 -0.06267284
0001f0 58 da ae 3b 0a e1 f1 3c 10 f1 1a bd b8 b9 9e bd
       0.005336087 0.029526252 -0.03782755 -0.07750267
000200 c8 e6 04 bd 4c a9 68 3d 30 27 66 3d 29 a0 94 bc
       -0.032446653 0.05680208 0.056189716 -0.018142777
000210 68 f9 09 bd 57 00 42 bd 6d 72 72 3d c2 c8 8b bd
       -0.033685118 -0.047363605 0.059191156 -0.06825401
000220 63 32 8a bd ed f4 4a 3c f7 30 6c 3d 62 e4 34 bd
       -0.06747892 0.012387496 0.057663884 -0.044163115
000230 41 98 d3 bc f7 1b eb 3c 47 dd 28 bd 3b cb be 3d
       -0.025829436 0.028699858 -0.04122665 0.09316107
000240 f9 28 4b 3d 8b 63 b3 3a 54 1e 00 3d 91 6e 37 3d
       0.04959962 0.0013686282 0.031278923 0.04478318
000250 da 28 3a bc 63 64 92 bd 69 a9 c1 3c 16 93 cf 3c
       -0.011362279 -0.071480535 0.023640351 0.02533869
000260 ef 77 47 bd d0 bf 33 3d 7a a6 f7 bc e2 a0 93 3c
       -0.048698362 0.0438841 -0.03023075 0.01802105
000270 c3 a7 19 bd 5c f6 0f 3d 2c f8 de b9 8b 06 51 3d
       -0.037513506 0.035147056 -0.00042528042 0.05103163
000280 25 e1 ed bc 57 00 17 3d 88 b4 4b bd 6b 29 77 3d
       -0.029038021 0.03686556 -0.049732715 0.060342234
000290 ed 8f b0 bd dc 3e 91 3d bb 7c 94 3d 9f 2c a0 bb
       -0.08621202 0.070920676 0.07250353 -0.0048881317
0002a0 55 d5 b7 3d c0 3b 94 bd 97 05 a9 3c 4f 6e b4 bc
       0.08976237 -0.07237959 0.020632548 -0.022025255
0002b0 f0 b9 71 3d 1e ac 8c bb 48 dd 9a bd 8d 02 d8 3c
       0.059015214 -0.004292979 -0.07561737 0.026368404
0002c0 cf ad 90 bd 26 8a a8 3d ed a3 d6 3b 78 38 3d bd
       -0.07064401 0.08229475 0.006550303 -0.04619643
0002d0 17 a2 d3 bc 5b 27 2b bd 66 98 0b 3d 8e ab 52 bc
       -0.025834126 -0.04178558 0.034080885 -0.012858285
0002e0 07 17 36 bd 25 09 a0 3d 18 03 73 bc 32 24 19 bd
       -0.044455554 0.07814244 -0.014832281 -0.037388034
0002f0 d7 95 02 3c 3a 03 ab bd e1 bc 3a 3d 66 86 ad ba
       0.007970295 -0.08350225 0.045590285 -0.0013238906
000300 30 68 b9 3d b2 a0 2a bc 08 ee 37 3d 6d 20 ac 3d
       0.09053075 -0.010414289 0.04490474 0.08404622
000310 15 30 98 3b cf 73 79 bd e0 ca cf 3d 53 d0 52 3d
       0.0046444037 -0.06090146 0.10146117 0.051468205
000320 9c d4 06 3d 52 2a 3d bd 33 dc 32 bd ea 0d 23 bd
       0.032917604 -0.046182938 -0.04366703 -0.03980819
000330 a2 6a 81 bc 06 5e 4a bc e2 49 5d 3d cf 7f 92 3d
       -0.015797917 -0.0123515185 0.05402554 0.07153284
000340 70 d7 80 bd 8e 50 31 bc dc 5f eb bc f1 9f 40 bd
       -0.062910914 -0.010822428 -0.028732233 -0.047027532
000350 fd c9 a4 bd 97 10 66 3d 12 bb 86 bd 02 60 77 3d
       -0.08046339 0.056168165 -0.065786496 0.060394295
000360 77 d9 11 bc 69 8a 07 3d cc f3 b3 3c ea 7d b4 bd
       -0.008901945 0.033090983 0.021966837 -0.08813079
000370 b6 0f f7 bc cf 79 9c bd c3 62 5f 3d c8 da 7f 3d
       -0.030158859 -0.07640421 0.054537546 0.062464505
000380 1a 73 1f bd 8f 54 41 3d 55 79 bc 3d 7e 57 08 3d
       -0.03892813 0.047199782 0.0920283 0.033286564
000390 b2 dc 33 3b be aa 87 3d ba d9 93 3c 92 ed b4 3c
       0.0027444777 0.06624363 0.018048156 0.022085939
0003a0 31 75 82 3d 9a ff 50 bd ed e8 52 bd 1a fc 26 3d
       0.06370009 -0.05102501 -0.051491667 0.040767767
0003b0 5c e8 82 bd 0f d2 f2 3c 47 64 57 3d fa 70 7a 3d
       -0.06391975 0.02964118 0.052585866 0.0611429
0003c0 18 13 b5 bd d4 cc 41 bc 36 11 9f 3d 0a 56 77 3d
       -0.088415325 -0.01182862 0.077669546 0.060384788
0003d0 2d 0b 41 bd a9 50 bb bc 69 e3 bf 3c 7e e1 2d 3d
       -0.0471298 -0.02286561 0.023423867 0.042451374
0003e0 6d b4 88 3d cf 3e 95 bb 96 5a bb bd 23 ed 5a 3c
       0.066750385 -0.0045546065 -0.09148137 0.013362202
0003f0 31 cb 63 bd 2d 38 3a 3c 8f a3 bd bd 59 4e 8c 3d
       -0.0556137 0.011365932 -0.09259712 0.06850881

actor_head2.bias f4 [51]
000000 1e cf 83 bd 12 29 91 3c 50 c7 f3 39 fb f2 8e bd
       -0.06435989 0.01771978 0.0004649707 -0.069799386
000010 fa 89 88 bd 61 3f 81 bd ec 08 9a 3d c5 71 1c bd
       -0.06666942 -0.06310917 0.07521233 -0.038194437
000020 b8 f6 6d 3d ed 45 76 3c f5 03 40 3c 8a 08 93 3d
       0.058096617 0.01503132 0.011719693 0.07179363
000030 fe 9f 71 3d 5b 05 ac 3c 2c 4b 17 bd 33 55 b7 3d
       0.05899047 0.020998647 -0.036936924 0.08951797
000040 1b 78 ba bd 6d 8e 22 3d 33 d9 d5 bc 69 1f 7d bd
       -0.091049396 0.03968661 -0.026104545 -0.061797533
000050 fc 7f fb 3a 7b c4 3d 3c 89 70 4d 3d 0b 6f 15 3d
       0.0019187923 0.011582489 0.05015615 0.036482852
000060 9e 9e 1d 3c d6 56 cd bd dc 09 71 3d 56 ef 45 3d
       0.009620337 -0.10026328 0.058847293 0.04832395
000070 ac 07 b5 bb 5f 91 fa 3c a5 73 12 bd 88 8b 82 bd
       -0.005524596 0.030586896 -0.03575482 -0.0637427
000080 11 2d 90 3d 42 cb 44 3d 17 8f 7a bd ad 37 11 3d
       0.07039846 0.048045404 -0.061171617 0.035453487
000090 c1 75 69 bc 13 e4 78 bd 91 49 e1 bc 40 72 33 bd
       -0.014249266 -0.060764384 -0.0275009 -0.04381013
0000a0 e8 64 88 bd 16 7b f4 3c a3 88 b0 bb 66 3d 92 3d
       -0.06659871 0.029843848 -0.005387382 0.07140617
0000b0 39 3d eb bc c5 e4 9a bd 83 dd 9f 3c 03 dc 7a bd
       -0.028715717 -0.075631656 0.019514805 -0.061244976
0000c0 35 44 1d bd da ea 8c 3d 7d 67 35 bd
       -0.038395125 0.06880732 -0.044288147

critic_head.weight f4 [1, 128]
000000 2d fb d3 bd 57 62 b2 3c 82 02 97 bc 00 93 50 3d
       -0.10350642 0.021775408 -0.018433813 0.05092144
000010 51 30 02 bd 38 09 ad 3d 1e ac 8b 3d 1e 1a c3 bd
       -0.03178436 0.08449024 0.06819938 -0.09526466
000020 29 bd 3e bd ce 5f 7c 3d ad a3 df bd ad 93 7c 3d
       -0.046567116 0.061614804 -0.109198906 0.061664272
000030 69 fd b0 3d 82 fb b6 3d 8e 90 ac 3d cf e0 ef 3c
       0.08642084 0.0893469 0.08426009 0.029282002
000040 5f 94 dc bd f8 3c 9d 3d 6b 4f 66 bd 21 86 a0 3c
       -0.10770487 0.076776445 -0.056228083 0.019595208
000050 64 e3 b5 3d aa 48 57 3d bf 6f 72 3c d6 8a 34 3d
       0.08881262 0.052559532 0.01479715 0.044077717
000060 74 c0 8d 3d 9d a2 54 bd 7d ac 98 3d 9a 9c bd 3d
       0.06921473 -0.051912893 0.074547745 0.09258385
000070 64 4d 7c bd 76 fe 82 bd e5 a8 b4 bd b6 8f c7 3c
       -0.061597243 -0.06396191 -0.088212766 0.024360519
000080 bc ff b7 3d 67 c0 b4 3d a0 a4 9d 3d a8 d5 6b bd
       0.08984324 0.0882576 0.07697415 -0.057576805
000090 94 c8 90 bd 87 19 4e bd 66 f7 cc 3d e7 1b db 3c
       -0.07069507 -0.050317314 0.10008125 0.026746703
0000a0 39 a1 61 3d bf 36 b4 bd b9 2b b3 3c 65 61 ce bd
       0.055085395 -0.087995045 0.021871435 -0.1007717
0000b0 06 c2 26 bd 6d 76 66 bd a8 4d ab bd 70 6f 9e bd
       -0.04071238 -0.056265283 -0.08364421 -0.07736099
0000c0 d0 a5 99 bd 89 90 27 bd 5c 2d 88 3d 23 ef bc bd
       -0.07502329 -0.040909324 0.066492766 -0.09225299
0000d0 1d 62 7d bd 3f 1d 70 bd 04 b4 a8 3c 19 64 1e bd
       -0.061861146 -0.05862164 0.02059365 -0.03866968
0000e0 d5 eb c9 bc ea d2 4c 3d 5c 6f bb 3c d0 ba 84 bd
       -0.024648586 0.05000583 0.022880249 -0.06480944
0000f0 e6 7c b8 bd 9f 85 7e bd 30 16 70 3d 4d 0e ab 3d
       -0.090081975 -0.06213915 0.05861491 0.08352337
000100 c6 58 05 3d 44 03 e3 3c 50 9a c3 bc 87 c4 81 3d
       0.032555364 0.027711518 -0.023877293 0.06336313
000110 a1 24 11 bd 89 67 35 bd 36 32 cc 3c a9 85 96 3c
       -0.035435323 -0.044288192 0.024926286 0.018374281
000120 61 e7 3b bd df 4d c6 bd e7 9a e0 bd bc b0 ae 3c
       -0.045874957 -0.096828215 -0.10967045 0.021324508
000130 be 16 bd bd cd a3 d2 3d 97 84 9b 3d e4 48 c1 bd
       -0.09232853 0.10285149 0.07593649 -0.09437731
000140 01 f2 1c bd 29 d2 c1 bd 46 c7 26 bd 05 8e 00 3d
       -0.03831673 -0.09463913 -0.040717386 0.03138544
000150 60 20 98 bd b8 0b cd bc 16 45 8d 3d 7d 29 d4 3d
       -0.0742805 -0.025030002 0.06897943 0.10359476
000160 76 d0 a6 bd da a5 b9 bd 59 2a a6 bd d7 b5 b2 bc
       -0.081452295 -0.09064837 -0.08113546 -0.021815224
000170 55 25 ab 3d 28 48 af bd 7a ad db 3d 7d 30 ad bd
       0.0835673 -0.085586846 0.107264474 -0.08456514
000180 52 56 2b 3d 9f 01 dc 3d 85 23 1e 3d 24 8d 86 3d
       0.04183037 0.10742497 0.038608093 0.06569889
000190 41 c1 b9 3d 1a d0 cc bd 1e f6 b9 bc 68 13 af bc
       0.090700634 -0.1000063 -0.022700366 -0.021371558
0001a0 9f 12 cc bc 64 34 33 bd ac 74 98 bd 24 e7 62 3d
       -0.024911223 -0.043751135 -0.074441284 0.055396214
0001b0 10 49 d3 3c b0 4c 97 bd 70 f9 d2 bd 95 2e 8e 3d
       0.025791675 -0.07387674 -0.10301483 0.069424786
0001c0 78 5a c9 bc cf ef 75 3d 99 49 99 3d ee ad 56 3d
       -0.024579272 0.060043152 0.07484741 0.052411966
0001d0 16 c6 b8 3d 2a 71 7a 3d ad 3d 33 3d 5d dc 1e bd
       0.09022157 0.061143078 0.04375999 -0.038784374
0001e0 1a d7 a9 bd ae ca aa 3d 00 a6 b6 bd a3 cb 5c 3d
       -0.082929805 0.08339439 -0.08918381 0.05390514
0001f0 d2 03 f5 3b f5 2d c0 bc f0 fb d7 bd 19 2e 11 bd
       0.007477262 -0.023459414 -0.105461 -0.035444353
