models/ppo_gear_placer_final.pt (torch, 107836 bytes, 9 tensors)

shared_layers.0.weight f4 [128, 5]
00000000: 3b5d 34be f5a0 e5bd 2de1 73bd 47e1 3239
00000010: 145f a73e e663 d4be 411b 943e d31d 5fbe
00000020: 804b b8bd 3028 8a3e 7fe2 d1be 2051 ec3c
00000030: e44d d1be 8d88 aabe a8ec 88bd 447f a1be
00000040: b878 d43e 8669 953e eabb c2be bae6 9bbe
00000050: aa59 a3bd 7de3 c73e 27b0 9dbc bf58 e9be
00000060: dfcb 83be c0d8 773e b888 81bd 4ab5 a4be
00000070: 1873 513e 107b 2c3e 59d6 6bbe d252 a4be
00000080: 7206 1bbd a6e5 873d 33e7 f03d 34b7 e33e
00000090: e9c5 50be a2e1 be3e 6076 603d 2e28 b23e
000000a0: 15ca 27be 6450 59be 057a 8b3e 3367 9f3d
000000b0: 858c 39bd 5924 6bbe c8ef d8be 38d3 e03d
000000c0: 1233 a13e b04a d9bd 9cba c13e c8a7 3e3d
000000d0: e0ae 3b3e 341a f9bd 9093 643d cf10 b1be
000000e0: 086d 213d ed91 2abe e581 c0bd 04e1 043e
000000f0: 4aac b8be 18da f63d a839 2f3e bed4 c4be
00000100: f46d 98be 72bc 8d3e e0c5 2c3e 044f 8a3e
00000110: b043 9d3e 3c73 083e 4914 573e f3fe 70bd
00000120: 2f81 0cbe 6f05 8c3d e53d 82be 1e67 07be
00000130: 3bec ba3d befb 363e 869b 27be af2a b5bc
00000140: 4431 983e aea0 b43e 2616 4cbe c4fb 0d3e
00000150: 508a b53e 45a6 acbe e137 d53d 7bf2 c4bd
00000160: c74c 053e dacb 9f3c 6064 aa3d b86c a1be
00000170: b25c 3dbe 724e 5d3c ce31 c2bd c02b aa3c
00000180: 48db e43e b9b4 69be c2e9 b63e f8ca 8b3d
00000190: 14ad 913e 77bb 56be 100e 9abe 208b 383e
000001a0: aac3 e03e 2e70 17be 5472 4c3e 680c 45bd
000001b0: 8811 dabd aa82 e2be 3ece d9be 086d 9cbd
000001c0: ef23 613d 5798 a2bd 60d4 893e a0f0 b3bd
000001d0: 0bec abbe 9853 b93e 60d2 15bc 6f3a b8be
000001e0: 66df da3e b06d 4bbd 6caa 293e 806c 123b
000001f0: d86b 2b3d 9f7c f13d 82ea 20be 2209 673e
00000200: a967 af3e 537c e8be 6eb1 ba3e 00e7 deba
00000210: 0d5d 96be d081 fb3d b6bb c33e b86d 12be
00000220: e9c1 76be 78e4 03bd 2c9b 84bd 995c a2be
00000230: 41a1 e0be fc19 bbbc c15f 513e 02dd b6be
00000240: aa37 753d cd39 85be 2dd9 a2be 93e5 d5be
00000250: a1cf a03e a998 a43e 484b 98be 47d7 253d
00000260: bb5c 6abe 92b8 cf3d 869c a33e 1eb3 adbe
00000270: 980f 41bd 3a9a 94be ca0e d83e 86e0 adbe
00000280: 0061 52bb fdf4 afbe 1e94 2dbe 3c90 9fbd
00000290: 32c6 09be 7776 b1be 38fa 823d e8ce 823d
000002a0: 759f 74be 6cc1 14be 298b b63e 309e 713e
000002b0: 94a0 ed3e 76ff 903e 331c c4be 508e 66be
000002c0: 3b0a 2dbe 2173 b33e 1865 f93d 92a9 8d3e
000002d0: b5f1 95be 4cb0 6bbe 3165 743e 20f5 a63e
000002e0: dd4c fc3d 317c 9b3d ffc8 8abe dfe7 c8be
000002f0: 0f6f 6b3e 95fa a13e 18fa b33d 1052 073e
00000300: 9ff9 babe 7e60 ca3e 1cd0 6b3e ed98 363e
00000310: 6e87 46be 94fe 013e 6dc7 a4bd 64cb 9f3c
00000320: 5f32 94be 606a f23d 0d66 d83e 1c4e bd3e
00000330: 01d8 18be 2f82 6bbd bffc 43bd de3a bcbe
00000340: 0ff1 cf3e 5ae1 b73e 3049 dd3e 44c4 163e
00000350: e012 903e d0f2 863c e810 ed3d 7a88 873e
00000360: 3485 abbe 9040 83be 0137 503e b2e7 3f3e
00000370: 4794 e73e 7f3d be3d eaac 6abe 70e3 b4be
00000380: 7d77 a3be 7011 3c3d b980 d33c 055b a13e
00000390: 1c76 7abe 0d6d d2be df19 8fbc de2c 593e
000003a0: 9f38 8dbe 5c78 c2bd b6d6 8c3e e0b4 c0be
000003b0: 5221 d63d 38dd d3be cfa3 813e 0677 763e
000003c0: 6d4d 3bbe c6c0 95be bc77 cdbe 8af0 bbbe
000003d0: 2959 b23e 4184 e43e c1e0 c2be 352b 3abe
000003e0: 2b41 c53e cd3d 7c3d e689 dcbd d43d 523d
000003f0: 6e7b 8f3e 76ef 8f3e ccec b33e 60be 933d
-0.1761369 -0.11212341 -0.059540916 0.00017059325 0.32689726 -0.41482466 0.28927043 -0.21788721
-0.089987755 0.26983786 -0.40993115 0.028847277 -0.40879738 -0.33307305 -0.066857636 -0.31542408
0.4149835 0.2918207 -0.38033992 -0.30449468 -0.079760864 0.39040747 -0.019249035 -0.4557552
-0.2574148 0.24203777 -0.06324905 -0.32169563 0.20454061 0.1684382 -0.23030986 -0.32094437
-0.037847944 0.06635599 0.11762848 0.4447571 -0.20387997 0.3728152 0.05480039 0.3479628
-0.16385682 -0.21222073 0.2724153 0.077833556 -0.045300025 -0.22963084 -0.4237044 0.10977787
0.31484276 -0.10609949 0.37837684 0.046546727 0.18328428 -0.12163201 0.05580479 -0.34583136
0.03941062 -0.16657229 -0.093997754 0.12976462 -0.36068946 0.12053317 0.17111838 -0.3844356
-0.29771388 0.27682835 0.16872358 0.2701341 0.30715704 0.13325208 0.21003832 -0.05883689
-0.13721155 0.06836974 -0.25437847 -0.1322293 0.09127089 0.1786947 -0.16367921 -0.02211508
0.29725087 0.3527884 -0.19930324 0.13865572 0.35457087 -0.33720604 0.10411049 -0.09616562
0.1301757 0.019506384 0.08319926 -0.31528258 -0.18492392 0.013507472 -0.09482156 0.020772815
0.44698548 -0.22822846 0.35725218 0.068258226 0.2845236 -0.2096995 -0.30088854 0.18021822
0.4389928 -0.14788887 0.19965488 -0.048107535 -0.10647875 -0.44240314 -0.42540163 -0.076379836
0.05496591 -0.07939213 0.26919842 -0.0878613 -0.33578524 0.3619659 -0.009144396 -0.3598208
0.42748564 -0.049665153 0.16568917 0.0022342503 0.041850895 0.11791348 -0.15714458 0.22562078
0.34258774 -0.45407352 0.36463493 -0.0017006099 -0.29367867 0.12280619 0.3822915 -0.14299667
-0.24097408 -0.032200307 -0.06474909 -0.3171127 -0.43873027 -0.022839539 0.20446683 -0.3571549
0.05986754 -0.2602066 -0.31806317 -0.41776714 0.31408408 0.3214772 -0.29744935 0.040488508
-0.22886936 0.10142626 0.31955355 -0.33925718 -0.047134012 -0.29023916 0.42198783 -0.3396036
-0.0032101274 -0.343666 -0.16951033 -0.077911824 -0.13454512 -0.34660694 0.06395382 0.063871205
-0.23888953 -0.1452691 0.35653046 0.235955 0.46411574 0.283199 -0.38302764 -0.22515225
-0.16898434 0.35048774 0.12177485 0.27668434 -0.2928597 -0.2301647 0.23866726 0.3260889
0.12319348 0.07592047 -0.27106473 -0.39239404 0.22991584 0.3163649 0.08787936 0.13214898
-0.3651857 0.39526743 0.23028606 0.17831774 -0.193876 0.1269477 -0.0804585 0.019506164
-0.2894468 0.11836696 0.4226536 0.36973655 -0.14926149 -0.0574972 -0.04784846 -0.36763662
0.406136 0.35914117 0.432199 0.14723307 0.281394 0.016473204 0.1157549 0.2647131
-0.33500063 -0.25635195 0.20333482 0.18740728 0.45230314 0.09289073 -0.22917524 -0.3532977
-0.319271 0.045915067 0.025818216 0.31514755 -0.24459118 -0.41098824 -0.017468391 0.21208522
-0.2758226 -0.09495613 0.2750756 -0.37637997 0.10455574 -0.41379714 0.2532029 0.24068841
-0.18291254 -0.29248637 -0.40130413 -0.36706954 0.3483365 0.44632152 -0.380621 -0.18180545
0.38526282 0.061582375 -0.107684895 0.051328495 0.28023857 0.28112382 0.351416 0.072140455

shared_layers.0.bias f4 [128]
00000000: a13d c73e 579f 99be cbc8 5abe 22de c4be
00000010: af1f d53e 3832 87be 57b9 2cbc 30d8 833e
00000020: 0987 bcbe 78d2 a3be 48a7 cc3d 861f b7be
00000030: 2e50 b93e 4030 afbc 1de0 54bd f110 42bd
00000040: 1859 3b3e 07cb 63be c103 fb3d 88ff 2f3d
00000050: 1878 38be fddb 83be c605 c0be f10f 54be
00000060: 2a37 a43e 0dad c93e b4b2 a53e fc36 cc3e
00000070: 2e53 ce3d 7001 b7be f606 3bbe 38dc b43d
00000080: 7074 2dbe 1948 b6be 6bcf c33e afeb eebd
00000090: 4f4f 14be 9586 e43e 30d8 b3bd c971 21be
000000a0: 73d8 b63e 8637 e63e 0810 e43e 961f 83be
000000b0: 1e18 fc3d a1c2 adbe 11ae 6abc 0dff 10be
000000c0: 63d6 d6be 09da e73e 4765 86be 80c1 d53e
000000d0: 3027 c1be 94cc 39be 95f3 dd3a 1910 c73d
000000e0: 329e 5a3e ccd0 bbbd 6002 bd3d c010 383e
000000f0: 20ca 9d3e df6f 8cbe cdc5 923d 4661 1fbe
00000100: 6434 163d 70c2 a43e 1d70 5ebe 4813 db3d
00000110: 58be 4ebe 2815 bc3d c5c3 81be 191c 733e
00000120: 8463 2b3e 69a7 ca3c 9a09 b53e 80de 473b
00000130: 040a 5fbe bc29 b53e da24 943d 06dd e03e
00000140: 08d2 9abd fb3a 9cbd d682 bfbe 2a95 c33e
00000150: f415 8abe 0c53 073e 20c4 f93d 5505 703e
00000160: 4a09 763e 822a 8ebe 281f 85be bb83 1b3d
00000170: de93 e5be 2008 c4be 25a9 823d 9ffc 79be
00000180: d7b3 84be 5407 8f3e bd94 66be ecfe 87be
00000190: ecde 86bd 9898 353e 4f60 93be 4383 5c3d
000001a0: e46e 263e 1049 803d 66c5 e03d 2167 b5be
000001b0: 0a6f c13e 6dc0 94be 6a2f 2cbe 0e52 763c
000001c0: 26c0 94be 1fc6 94bd c4b7 8f3e a63b a0be
000001d0: 008d fbbb 0739 86be aa99 5a3e a40c c1bd
000001e0: 695c 07be fe44 2dbe 2ca7 183e 9af5 523e
000001f0: 7ce1 12be f54d 6f3e 4584 243e 7c73 203d
0.38914207 -0.3000438 -0.21365659 -0.38450724 0.41625735 -0.264055 -0.010542235 0.25750875
-0.36821774 -0.31996512 0.09992844 -0.35766238 0.36193985 -0.021385312 -0.051971544 -0.047379438
0.18295705 -0.22245418 0.122565754 0.042968303 -0.18014562 -0.25753775 -0.37504405 -0.20709206
0.32073337 0.3938984 0.32362902 0.398857 0.10074459 -0.35743284 -0.18264374 0.08831066
-0.16938949 -0.3560188 0.38244185 -0.11666047 -0.14483379 0.44633928 -0.08781469 -0.15766062
0.35712013 0.44964236 0.4454348 -0.25610036 0.123092875 -0.33937553 -0.014323727 -0.14159794
-0.4196044 0.45283535 -0.26249143 0.4174919 -0.3772521 -0.18144447 0.0016933555 0.09719867
0.21349409 -0.09170684 0.092289686 0.1797514 0.30818272 -0.274291 0.07166634 -0.1556445
0.036671057 0.32179594 -0.21722455 0.10697037 -0.20189798 0.09183723 -0.25344673 0.23741187
0.16737181 0.02473803 0.35358888 0.003049761 -0.21781164 0.35383403 0.072335914 0.43918628
-0.075595915 -0.07628437 -0.37404507 0.3819974 -0.26969874 0.13215274 0.12195611 0.23439534
0.24026981 -0.27766806 -0.26000333 0.037967425 -0.44839376 -0.3828745 0.06379918 -0.24412774
-0.25918457 0.27935278 -0.22517677 -0.26561677 -0.06585488 0.17733991 -0.28784415 0.05383612
0.16253239 0.062639356 0.10975151 -0.35430244 0.3778003 -0.2905306 -0.16814962 0.015034212
-0.29052848 -0.07264351 0.2806989 -0.31295508 -0.0076767206 -0.26215383 0.2134768 -0.09426239
-0.13218845 -0.1692085 0.14907521 0.20601502 -0.14343828 0.23369582 0.16066082 0.039172634

shared_layers.2.weight f4 [128, 128]
00000000: 79b9 bdbc 0688 42bc 181a ea3d 8e58 923d
00000010: 4891 6b3d f34c cebc 6f06 903d 40ff f7bb
00000020: 62c8 e5bb eb48 47bd 3c97 193d 2594 2e3c
00000030: 0d7a cbbb 5c93 b1bd 332d 5bbd e135 243d
00000040: 5d47 dfbd 3211 92bc 98af a73d a2d8 a0bc
00000050: e74b f9bc cd20 7b3b f4b6 3cbd ccd4 bc3d
00000060: 2747 043d 7303 533d 36a7 f4bc ab14 813c
00000070: 8328 bebb 5305 b3bc 03f8 c13d 1a85 053d
00000080: 2b20 1c3d 5fbd 273b dd0c f6bd df82 573d
00000090: 4f9e a43c 183d b7bd de0a 613d a0b6 c1bd
000000a0: b674 75bd 6812 b13b 224a 9fbd faa9 843c
000000b0: 8a14 783d 01b0 5dbd 8a30 2fbd 2451 a23a
000000c0: d3ca 273d 7d78 29bd d0e8 c6bc bced 9abc
000000d0: 70ca e1bd 86a9 59bd 39e1 603d 108d 85bd
000000e0: d0d6 93bc 7821 403d 41e4 95bd c6c6 c23d
000000f0: 3bc9 bdbd c84f 17bd c336 41bd 30e4 003d
00000100: 7f74 ec3c e3d5 6b3d 6d81 9e3d 410a 3abb
00000110: 0e56 f53c bc6c d83d 1ab7 843d 55b2 fb3c
00000120: a49f 35bb 49b3 8c3d c869 d73d dfe9 eabc
00000130: 4071 dd3c eeb7 73b9 a901 dcbd 5317 ed3d
00000140: b736 503d ba18 32bd c0d5 a73c 4435 b93c
00000150: 82e3 dc3d d0e0 6dbc 8ff0 883c e597 27bc
00000160: 406d 713c 188e debd 561a c13d c7e5 3bbd
00000170: 400b babc db4a c7bd 6c22 033d b8e8 a8bd
00000180: 366a 77bc a6c0 63bd 4023 e2bd 1bec 463d
00000190: 16f2 a63d 9bbe 8b3d 3468 b3ba 9eef 51bc
000001a0: bc30 b6bd 162d ed3d df51 89bd 3424 063d
000001b0: e003 e83c 1b54 9ebc c99a b8bd 2488 3c3d
000001c0: 53c3 50bd 5612 01bc aa7b 943c 6d98 513d
000001d0: ce31 d33d bb4a 08bd f104 e33c 8f2b 30bd
000001e0: 19ae d23d 4b17 52bd ec0f 123d 832e 4ebd
000001f0: 98d3 86bc ccff 893d 13b1 13bd 3d71 1cbc
00000200: 7518 a83c ea15 b73c a987 6f3c d4b2 2d3d
00000210: 035f 02bb 64aa 543d 7177 a53d 7eba 2f3d
00000220: c218 e73d 80f9 e63d 3d5c bbbd 110d 38bc
00000230: fed8 cf3d 0a18 5f3d 01ae 9b3d 9e2e a93d
00000240: 5bf3 debc d085 093d 8a62 4abd bcaa 93bd
00000250: 23cb c1bd 930d e9ba 762c 7a3c a256 713c
00000260: 1cb5 c1bc f27d 3d3d 7795 fe3b 5206 313b
00000270: 302c 45bd f29d d43c 947b a6bd 0d81 373d
00000280: 560b 623d 50e9 773d 820d 333d 8313 4cbd
00000290: daeb 613d 5f2f 28bd ec2d 3aba 37cb f3bd
000002a0: 8901 ba3d 7a65 a0bb 3ae2 b13c 3db5 b4bb
000002b0: 5b40 8cbd 73fa f1bc 031e 623d 2507 13bd
000002c0: e82b 2b3d 95f5 043d d9b0 75bd 9a5d db3c
000002d0: 6a75 55bd fcd0 b33d 9bad 793c 19dd 8fbd
000002e0: 63ae b03c 0c11 1ebd 5f2f 533d 0edb 373d
000002f0: 1f42 29bd 7e61 04bd 582b b0bd 0e6e 47bd
00000300: 8879 86bd 4dd2 663d 6ea0 873d e6f0 993d
00000310: 898d dc3c 6117 893d fb25 953d 1ffc 7f3c
00000320: f365 483c 669f 9d3d 4396 213d 3c3e b5bd
00000330: 95f3 ab3d b1de 4dbd e2e2 b5bd 43b0 d93d
00000340: b173 2b3b 9a01 993d 39fa abbd d080 b3bd
00000350: dca0 92bd 73db 563d 556c 0d3c 2cbf 083d
00000360: 9636 b9bc f23c fa3c 4fc2 663c b320 c23d
00000370: 4aa7 2b3d 8b3e 7a3d 543b ebbd 78ba b0ba
00000380: b51a 3fbd e417 c83d dca1 e03c 85bf 64bd
00000390: 59dd 923d 11e6 583d 5c14 afbd 05ce 9a3d
000003a0: 4ed4 45bd ae63 eb3d d7ba 1b3d c1dc 90bc
000003b0: 40bf 83bd d7b8 a2bd 7d3b ffbc a043 04bd
000003c0: fcd2 d53d 3847 e0bb 25bf 9c3d 310c 50bd
000003d0: 4f71 673c 9977 ac3d 37ae f43d 909d b63c
000003e0: 21e9 22bd bdb7 ddbc b4f5 d83d 2f15 763d
000003f0: 80a8 70bc 5e5a 71bd 51b3 593c 0202 70bd
-0.02315973 -0.011873251 0.11430758 0.07145797 0.057511598 -0.025183177 0.07032477 -0.00756827
-0.007012413 -0.048653524 0.037497744 0.010655438 -0.006209618 -0.08670685 -0.053509902 0.040090445
-0.10902283 -0.017830465 0.08187789 -0.019634549 -0.0304317 0.0038319111 -0.046072915 0.09220275
0.03229442 0.05151696 -0.029864889 0.015756926 -0.005803169 -0.021853125 0.094711326 0.03259764
0.038116615 0.0025595052 -0.12014172 0.052615043 0.020095019 -0.089471996 0.054942004 -0.09458661
-0.059925757 0.0054038055 -0.077778116 0.016194332 0.060566463 -0.05412293 -0.0427709 0.0012383801
0.040964913 -0.041374672 -0.024280936 -0.018912189 -0.1102494 -0.053140186 0.05490229 -0.06521046
-0.018046767 0.04690692 -0.073189266 0.09510569 -0.09266897 -0.03694132 -0.047171365 0.031467617
0.028864143 0.057577025 0.0773953 -0.002838746 0.02994826 0.105676144 0.06480236 0.030724684
-0.0027713561 0.068701334 0.10518223 -0.028675972 0.02703154 -0.00023242805 -0.10742504 0.11576714
0.05083343 -0.043480612 0.020487666 0.022608407 0.10785581 -0.0145189315 0.01671627 -0.010229086
0.01473552 -0.10866946 0.09428851 -0.04587343 -0.022710443 -0.097310744 0.03201525 -0.082475126
-0.015101006 -0.055603646 -0.1104188 0.04856501 0.08151643 0.068234645 -0.0013687671 -0.012813477
-0.08896014 0.11580865 -0.06705069 0.03274937 0.02832216 -0.019327214 -0.09013898 0.04602827
-0.050967526 -0.007877907 0.018125374 0.051170755 0.10312234 -0.033274394 0.027712317 -0.04301029
0.10287113 -0.051291745 0.035659716 -0.050337326 -0.016458318 0.067382425 -0.036057543 -0.0095484825
0.020519475 0.022349317 0.014619746 0.042406872 -0.0019893057 0.05192031 0.08079422 0.042902462
0.11284019 0.11278057 -0.091484524 -0.011233584 0.1014881 0.054466285 0.07601548 0.08260845
-0.02721565 0.03357488 -0.04941038 -0.072102994 -0.094625734 -0.0017780535 0.015269389 0.0147301275
-0.02364593 0.04626269 0.0077692824 0.0027011824 -0.048137844 0.02595422 -0.081290394 0.044800807
0.055186592 0.06052524 0.043714054 -0.049823295 0.055156566 -0.0410608 -0.000710218 -0.119039945
0.09082324 -0.0048949094 0.021714319 -0.0055147693 -0.06848212 -0.029538369 0.055204403 -0.035895485
0.04178992 0.032460768 -0.05998311 0.026778031 -0.052113928 0.08780095 0.015239145 -0.07024593
0.021567529 -0.038590476 0.05155885 0.04488664 -0.041322824 -0.03231954 -0.08602017 -0.04868894
-0.06566149 0.056352902 0.066223964 0.07516651 0.026922958 0.06693912 0.07282635 0.015624075
0.012231338 0.076964185 0.03944994 -0.08849761 0.08396069 -0.050261203 -0.08881165 0.106293224
0.0026161487 0.074710086 -0.083973356 -0.087648034 -0.07159588 0.052455377 0.008631785 0.03338544
-0.022609036 0.03054664 0.014084413 0.09478893 0.041907586 0.061094802 -0.11485925 -0.0013483306
-0.04665633 0.09770182 0.02742093 -0.05584671 0.07171125 0.052953783 -0.08548805 0.07558826
-0.048298173 0.11493622 0.03801998 -0.017683389 -0.064329624 -0.07945412 -0.031156296 -0.032291055
0.10440633 -0.0068444274 0.076536454 -0.050792877 0.014126136 0.08421249 0.11947291 0.022291929
-0.03977311 -0.027065152 0.10593739 0.060078796 -0.014688611 -0.05892407 0.013287381 -0.058595665

shared_layers.2.bias f4 [128]
00000000: 2472 21bd 30a7 33bd ffcc 38bd 082a 9c3d
00000010: 7222 c13d df94 e6bd 284c 09bc 4d96 793c
00000020: cc3e e5bd b2a2 97bc 80fc 3a3d 722c 363d
00000030: 23f6 38bc 951e c43d 9194 493b a88e d33d
00000040: ac42 ce3d 0c14 5bbd 9244 5fbd ebb6 48bc
00000050: ead0 d33d 2378 a6bc 5a76 cfbd 6f46 f93d
00000060: 87fc d93d 720b 3cbd c4c7 e7bc bf47 403d
00000070: a1d8 63bd 096f 113d ea13 3f3d 50de 4cbb
00000080: 87bb 5c3c 70d7 4e3d bfd3 81bd 6ea6 e9bd
00000090: b30a ecbd 466c 93bd 3003 ab3c d2ee 8a3d
000000a0: fca6 e53d 5e5c 5c3d 6b87 fa3b 789a 143d
000000b0: 6ccf 0bbd 702a 503d 4d76 ae3d c31a c83d
000000c0: 0bb1 88bc fe33 d5bd 644b ad3c 1920 d2bd
000000d0: 08d7 e13d 6453 c5bd 2145 a93d 7862 383d
000000e0: 4f9f 89bb c600 ad3d 20c9 c0bd d304 f23d
000000f0: 2768 573d d9d0 18bd 6cdc d5bc f1d9 4d3d
00000100: bfc6 0f3c 11d0 eb3c f8fc 9b3b 1904 57bd
00000110: b3dd b73d a78c b83d 56be 013d aee0 63bc
00000120: 83bc 4fbd bb40 7b3d a040 743d e133 6e3d
00000130: d04b 02bd b951 bb3d 95ca adbc eeaa d83d
00000140: 401a 4e3d 750c a03d cdd2 7f3b 2f5e a53d
00000150: ea1c 123d 0f78 6b3d f856 7e3d 990a 9c3d
00000160: 0bc3 22bc 377a 40bc 2a08 e83d 73f2 c9bb
00000170: 561a cf3d 3077 cc3d 9224 5a3d 4056 e03c
00000180: fd7d 70bd 8001 c0bd ce03 b7bd b877 f3bc
00000190: a9be a1bd b992 9abd cc2d a5bc 45dd 743d
000001a0: d841 cb3d f445 4d3d 2cac a4bc a1c3 11bd
000001b0: c0a2 6dbd 78b0 b33d c437 bebd c8fc cdbd
000001c0: e813 aebb 0789 0f3d bebd 903c 921a a4bd
000001d0: 0f22 2c3c 794f 043c ec4a a43d 1bb8 c4bd
000001e0: be54 c4bd 4c02 ce3d 6361 42bd 1925 a93c
000001f0: 2b5d d33d 99b5 e93d b96c 0dbc 8c65 0f3d
-0.039415494 -0.043860614 -0.045117375 0.07625204 0.09430398 -0.11258864 -0.0083799735 0.015233588
-0.11193618 -0.018510196 0.04565096 0.04447598 -0.011289152 0.095761456 0.0030758718 0.10329944
0.100713104 -0.053485915 -0.054508753 -0.012250642 0.103425816 -0.020320958 -0.10129996 0.12171637
0.10643869 -0.045909353 -0.028293498 0.046943422 -0.055626515 0.035506282 0.04664985 -0.0031260438
0.013472444 0.050498426 -0.063392155 -0.11408697 -0.11525478 -0.07198386 0.020875543 0.067838326
0.1121349 0.053799026 0.0076455376 0.036280125 -0.03413336 0.05082172 0.08518658 0.097707294
-0.016685983 -0.10410307 0.021154113 -0.102600284 0.11027342 -0.09635046 0.082651384 0.045015782
-0.0041998993 0.08447413 -0.094133615 0.118173264 0.05258956 -0.037308548 -0.026106082 0.050256673
0.008775412 0.028785737 0.004760381 -0.052494142 0.08977833 0.09011202 0.03167566 -0.013908548
-0.05071689 0.06134103 0.059631944 0.058154944 -0.03181058 0.09146447 -0.021214763 0.10579477
0.050318003 0.07814876 0.003903556 0.08074605 0.035672106 0.057487544 0.06209466 0.07619209
-0.009934197 -0.011747888 0.11329682 -0.0061629354 0.10112445 0.09983671 0.053257532 0.027384877
-0.0587139 -0.09375286 -0.089362726 -0.029720172 -0.07897694 -0.075475164 -0.02016344 0.05978133
0.09924668 0.05011554 -0.02010163 -0.035586957 -0.05801654 0.08773893 -0.0928798 -0.1005798
-0.0053124316 0.03504279 0.017668601 -0.080128804 0.010506167 0.008075588 0.08022103 -0.09605428
-0.09586476 0.10059032 -0.047456156 0.020647572 0.10320505 0.1141159 -0.0086318785 0.035008952

actor_head1.weight f4 [33, 128]
00000000: f411 ccbd 153a 3dbd 9c51 9c3d 830c a93d
00000010: 4691 633d 8289 f4bb 1235 85bd 448f 94bd
00000020: 17bd 7ebd 7721 88bb 9486 71bd 1a32 98ba
00000030: c2a1 cb3d 62f1 573d 74d7 cf3d 30a1 87bd
00000040: 1d5d c93c f458 8e3d 3491 8fbd 15b5 a03d
00000050: f8d5 0fbd 2c76 83bd f00b 6f3d 25db a7bd
00000060: 1804 4dbb 65a8 303d 3bd3 803d 1f35 08bd
00000070: a617 c0bd 875d 033d b71a 3abd 1796 a03d
00000080: b736 4ebc a8a9 4dbd 1790 2fbd 544a 80bd
00000090: 7e1b 663d ce24 5cbd 4db4 33bd 887a 76bd
000000a0: 3aaf 963d f883 5d3c 2dd6 19bd 941a ab3d
000000b0: 333b 91bd 2d3d 783c e05a 29bc 86cc aa3d
000000c0: 29f6 eb3a 2bc6 103d 7f5f d9bb f6d6 5cbd
000000d0: a7f8 1e3d 288d 5c3d 14d4 c93d ddfe 80bd
000000e0: 2848 8abd 68ab cd3c 5400 a83b b1d3 56bd
000000f0: 11e3 7f3d 2ffb 683d ad9c b2bd 4a12 b6bd
00000100: f171 7fbd 8683 a43d 7967 773d 2a37 0a3c
00000110: 70bf 69bc d5ed 433d 1297 efbc 280b ff3b
00000120: ae51 acbb 5a6d f63c 2418 c53d f8b9 9cbc
00000130: b06d 81bd 5de7 c83c ca81 533d 7a79 32bd
00000140: 44d0 10bd 0cc7 7bbd eb6a 0a3d 4439 2fbd
00000150: 44ce 1bbc d34f 0f3d f55b 95bd 0de3 60bb
00000160: 1f92 c8bd dbbb 883d bf5b 463d a1af 9c3d
00000170: c566 0bbd 2b3f 5c3d 87cc 593d 3e1c b33d
00000180: 0e1d dbbd e6c7 36bd fecc 813c 1fb5 813d
00000190: 194d 92bd 322a 9b3b e7b0 48bd 379b d83c
000001a0: f51d 5bbb 2d74 973d 4588 903b 5a02 573d
000001b0: d044 34bd b8ef 4e3d f057 353a 629e a1bc
000001c0: ce1a 503d e1a8 cabd 2c0f cfbd 1a4a d53b
000001d0: e7ca 19bd 60ce 73bd 3074 21bd 1a91 59bd
000001e0: 6821 e03c 97ff aa3d 279d e83c 83ec 05bd
000001f0: 8ea2 32bc 4ea1 e8bb 1e84 94bc c68c 22bd
00000200: a77b b63b c479 6dbc 31e8 2b3d 12de acbc
00000210: 7047 58bd 92b1 b9bd e1af d33d 7627 34bc
00000220: e589 933d fe07 84bd 7dfc 6cbb fced d63c
00000230: f221 ae3d 066f 813d f6ef 213d 2cbd 59bd
00000240: b8ba 64bc e667 893d a836 9b3a 7723 903d
00000250: 871f be3d 7e2d a23d 4233 9dbd 1bee 71bc
00000260: 94d3 46bd a1cd 06bd a72a 523d 5c07 873d
00000270: 3971 51bd 4986 b73c 2393 fd3b 84f0 863d
00000280: 4af4 b53c 5da3 383d b58a b3bd 1818 8ebd
00000290: e596 b5bd 4ae2 b4bd 314e a5bc d157 bbbc
000002a0: 5cb9 97bd ec78 b4bc fee2 94bc 81e3 b8bc
000002b0: e743 02bc 4f37 3e3d e4e2 a03d 4f34 66bd
000002c0: a612 bc3c 9af3 373b 0cfa d7bc 9fc3 e3bb
000002d0: 1ab1 4f3d e8f2 a0bd b87e f1bc 4c71 523d
000002e0: 949f 61bd a149 7dbd 5405 48bd e7af 813d
000002f0: 51f5 703d c0cc a8bd 89a2 0fbc d5ea 9fbd
00000300: f40e a13d 2e8a 5ebd f7ae 593d 4d75 a43c
00000310: 42b6 ddbb edf4 9c3d 2d3e 84bd 60b6 923c
00000320: 16f8 85bd d33a 4b3d 4c21 9db9 ba5b 77bc
00000330: 8fd8 7fbd 4565 2bbc ac3f 963d 1614 443d
00000340: 26e8 99bd 7fc0 773d de6a debc 6876 4ebc
00000350: 00cc b2bc aefa 37bd e419 a1bd f90a d9ba
00000360: 61ed 423d 320d 903d 986a 50bd 5567 873d
00000370: 158b 1abd 0e3e 89bd 770e 0f3d 91ce 243d
00000380: 7e68 333d 266e 043d a927 8bbc 6a04 47bc
00000390: c9c5 cabc f02f eabc a4d5 45bd 8e41 6fbd
000003a0: 000a 663d f739 5bbd e46d babc e156 423d
000003b0: 62ff fcbc 0303 80bd 4142 70bd 3737 9dbc
000003c0: 4a62 893d 24c0 023d dcd9 25bc 945c 00bd
000003d0: 4d23 71bc 0c53 cbbc b6a6 fd3c 5d45 b2bd
000003e0: 8404 a6bd 2521 803c 895f 5f3d ec27 033d
000003f0: fadb 11bd faca d6bc 8738 823d abb7 d33c
-0.09964362 -0.04619797 0.07632753 0.082543395 0.055558465 -0.0074626813 -0.06504263 -0.07253888
-0.06219205 -0.00415438 -0.058966234 -0.0011611611 0.09942962 0.052720435 0.10148516 -0.06622541
0.024580533 0.0695056 -0.07010117 0.07847039 -0.035116166 -0.06419024 0.058360994 -0.081960954
-0.0031282958 0.043129344 0.06290289 -0.033253785 -0.093795106 0.032071617 -0.045435634 0.07841127
-0.012586287 -0.050210625 -0.042862024 -0.06264177 0.056178562 -0.053746037 -0.04387312 -0.06017545
0.073576406 0.013520233 -0.03755777 0.08354679 -0.070913695 0.015151304 -0.010336608 0.08339791
0.0018002439 0.035345238 -0.0066336985 -0.05391594 0.038811352 0.053845555 0.09854904 -0.06298611
-0.06752044 0.025106147 0.0051269922 -0.05244798 0.062472407 0.056880172 -0.0872129 -0.08890207
-0.062364522 0.080328986 0.060401414 0.008436004 -0.014266834 0.047834236 -0.02924684 0.0077833124
-0.0052587604 0.03008144 0.09623745 -0.019131646 -0.06319749 0.024524385 0.05163745 -0.04357288
-0.035354868 -0.061469123 0.03379337 -0.042779222 -0.009509627 0.034988236 -0.0729293 -0.003431502
-0.097934954 0.066764556 0.04842734 0.07650686 -0.034033556 0.05377118 0.053173568 0.08745621
-0.10698901 -0.04462423 0.015844818 0.06333374 -0.071436115 0.0047352547 -0.048996832 0.0264412
-0.0033434604 0.07395206 0.004410776 0.052492477 -0.044010937 0.050521582 0.0006917706 -0.019728843
0.050806813 -0.09895492 -0.10110316 0.0065090777 -0.03754702 -0.059522986 -0.039417446 -0.053116895
0.02735968 0.08349531 0.028395249 -0.03269626 -0.010903014 -0.007099307 -0.018129405 -0.039685033
0.0055689397 -0.014494363 0.04196948 -0.021101985 -0.052802503 -0.09067072 0.103362806 -0.010995736
0.07204036 -0.06446837 -0.0036161237 0.026236527 0.08502568 0.06320004 0.039535485 -0.053158924
-0.013960533 0.0670927 0.001184185 0.070380144 0.09283357 0.07918833 -0.07675792 -0.014766241
-0.04854162 -0.032910947 0.051310208 0.065932006 -0.05113337 0.0224029 0.0077384873 0.065888435
0.022211213 0.04507767 -0.08766691 -0.06938189 -0.088666715 -0.08832224 -0.020178886 -0.022869023
-0.07408401 -0.022030316 -0.018174645 -0.02256942 -0.0079507595 0.046439465 0.07855776 -0.05620223
0.022958111 0.0028068782 -0.026364349 -0.00695081 0.050706007 -0.07858831 -0.02947937 0.05137758
-0.055083826 -0.061837796 -0.048833206 0.06332379 0.058827702 -0.08242178 -0.008766779 -0.078084625
0.0786418 -0.054330997 0.053145375 0.020075465 -0.0067661116 0.076639034 -0.064571716 0.017909229
-0.06541459 0.049616646 -0.00029970182 -0.015097553 -0.062462386 -0.010461156 0.07336363 0.047870718
-0.07514982 0.060486313 -0.027150568 -0.012601472 -0.02182579 -0.0449168 -0.07866266 -0.0016559056
0.047589663 0.07033767 -0.050882906 0.06611506 -0.037730295 -0.06701289 0.034925904 0.04023606
0.043800823 0.03233161 -0.016986685 -0.0121470485 -0.024752514 -0.028587312 -0.048299447 -0.058412127
0.05616188 -0.053522076 -0.022757478 0.047446135 -0.030883495 -0.062505744 -0.058656935 -0.019191368
0.067082 0.03192152 -0.0101227425 -0.03133829 -0.014717889 -0.024819873 0.030963283 -0.08704636
-0.0810633 0.015640805 0.05453447 0.032020494 -0.035610177 -0.026219834 0.06358438 0.025844416

actor_head1.bias f4 [33]
00000000: b0fc b73c 617d 9e3d 7f1f 12bd e8f5 093d
00000010: b7ce 8bbc 69ab b2bd 4155 c2bd 99fc ee3c
00000020: aa81 82bc dd07 983d 81c7 633d 0fe6 bd3d
00000030: 3f78 bbbc 598f 80bd b12a 9dbd 656e f43b
00000040: 6aae 193b dee0 86bd cc23 89bd 66e1 9ebc
00000050: 52aa 6d3d fc62 393d 0560 793d e1f6 6236
00000060: 41d7 cfbc 1df8 6dbd 9bd0 27bd cfe7 8cbd
00000070: b6f4 f73c 4fa0 f5bc 9941 a3bc d28f 6bbd
00000080: 2ba9 5ebd
0.022459358 0.07738758 -0.03567457 0.03368178 -0.017066343 -0.087241 -0.09488917 0.029173182
-0.01593097 0.07423375 0.055610184 0.09272396 -0.022884486 -0.062773414 -0.07674158 0.007459449
0.0023449906 -0.06585859 -0.06696281 -0.019394588 0.05802376 0.045260414 0.060882587 3.3820327e-06
-0.025371196 -0.058097947 -0.040970426 -0.068801515 0.030268054 -0.029983668 -0.01992874 -0.057510205
-0.05436055

actor_head2.weight f4 [33, 128]
00000000: 747a e5bc 2064 efbb cf2f a7bc 513f 6a3d
00000010: 8718 aabd f4e7 57bd 8771 8d3d ba15 b33d
00000020: dd3d d2bc 26b4 8d3b da15 53bd 8bfa 66bc
00000030: eb80 7d3d 0598 67bd 4b2d 703d 1a88 6dbd
00000040: 429f 843d c487 55bd 336e 49bc cf6c 5ebd
00000050: 4737 83bd cdbe f4bc 8f80 30bd a0e1 84bd
00000060: c5f8 40bd 40d1 9abd a239 803d a9df 433d
00000070: 0d0a 743d 4b99 2abd 307d 45bc 6901 1dbd
00000080: 5a47 173d 56f7 293d 28d4 a23d ad73 4abc
00000090: 0597 793d e213 9e3d 312e d2bb 104f 8f3d
000000a0: 0d6c 31bd 6f0b 18bd 247c 9dbd fbfe 8dbd
000000b0: b451 8e3c ae7e ba3c 1008 703c 2e34 db3a
000000c0: b45b a1bd 5926 bfbc 5989 c0bc 023b eebc
000000d0: 6fc7 963d 9501 42bd bdfa e93b 757f 893d
000000e0: 0df3 dabc 76db 93bd f654 9d3d af49 63bd
000000f0: b8a3 1bbc eff3 473d 17e0 673d 1bd3 2b3c
00000100: 29f3 ad3d d6e9 423d 48d4 3dbb c1d2 68bd
00000110: 30d4 b3bd 319a 7e3d 44d0 82bd f691 e8bc
00000120: 6e09 463d 81fd ad3d 57a3 9dbc 0e79 af3c
00000130: 9936 1dbc 6e27 b8bc 6d57 6bbd 4942 61bd
00000140: f346 6abc 42b8 cabb df73 2cbc c8f0 74bd
00000150: ccbd 453d 0c7f 7fbd efc0 48bd 5c46 cdbc
00000160: 3c60 01bd 2c4e 913d a529 92bd b2a8 983d
00000170: 8f28 7cbd 1e8b a6bd 73c8 2dbd 4f5a 833d
00000180: b3a7 6fbd d839 ba3c 0958 383c a702 7ebd
00000190: 530f 65bb 2873 30bd 701e 5a3d 5451 a23d
000001a0: 9885 b63c 2e08 013d 5040 4a3c 472f 8c3c
000001b0: 78e4 8e3d 44e4 6cbd 2443 233c 0395 a9bd
000001c0: 631d 483d 3c45 ab3d c98b 323d be44 2fbd
000001d0: c468 5c3d a643 aa3d 99d2 77bd 9c37 03bd
000001e0: 315c 3d3d 6271 64bd 4fb7 70bd 3ebe 933d
000001f0: e09d 66bd 2518 60bd de86 3f3d 7124 59bd
00000200: 2369 803d 6ddd 343d 84c0 c93c 5fb8 01bd
00000210: c032 b3bd 76cb 42bd 1aee 13bd 6632 6d3d
00000220: a91b f1bb bfa5 a53d 4ca1 943d 1f7f 4a3d
00000230: 4ea4 5bbc 7f27 54bd 6bac 18ba fb9a 723d
00000240: e95e afbd 1723 e8bb d3b6 1bbc e3aa 453d
00000250: 6667 73bc 2584 40bd b8e7 86bd 2e81 53bc
00000260: 86c5 88bd 35eb 0e3d c1f2 f6bc a43b 1e3c
00000270: b9db 6c3d f816 a1bb 5546 af3d fcef 443c
00000280: ed63 943d 7417 5e3d dc79 bfbb 1e55 903c
00000290: f34f ccbc e5bd bebc 6b31 6bbd 64ea 973d
000002a0: 2883 2fbd cce8 e63b b78f 05bd 5c98 83bd
000002b0: 93a7 0dbd abd5 52bd 9f2c 33bd d467 7c3d
000002c0: a769 94bd a480 73bc 9787 95bd 2b9d c53c
000002d0: 0d24 213d 75e4 7cbb d8ac 84bc d5f5 43bd
000002e0: 55f0 603d 57d7 3ebd 3845 e6bc d291 c63c
000002f0: f473 8f3d eeae 75bd 8383 893d d66c 89bd
00000300: 869f 3d3d 442a a4bc 18a2 bb3c a19c 9f3c
00000310: d339 aebd d80e 58bc 175f 8b3d 21f5 1bbd
00000320: b7cf 3e3d 1726 b1bd f572 7f3d 53ce 5bbd
00000330: 0879 233d 6770 d43c a34b bd3d ab88 d5bd
00000340: 76eb b9bd 1afb 53bd bdd8 75bc b134 00bd
00000350: dbfa f2bc 0d08 5d3d 8bec 98bd 0484 a2bd
00000360: fd2f b43d a2ed 87bd 6b11 b73c 4186 0d3d
00000370: 7aba 783d e38c b5bd b413 8e3d dea8 51bc
00000380: 5deb 733d a136 4bbd 5b9b 1f3a 300c eabc
00000390: 1d47 6fbd c48a d5bb eecb 5cbd 234b 203c
000003a0: fca2 8d3c bf23 5f3d 186b 1b3d 92dd cdbc
000003b0: 7073 03bd f6b3 303c d434 913d 3799 d8ba
000003c0: 2522 253d 1d3c 953d f9e0 093d db37 513d
000003d0: 0a05 03bd a3b2 09bc ff79 f13c a180 9cbd
000003e0: c2c0 013d fc32 963d 72fc d1bc bcce 42bd
000003f0: f410 d63c d454 9a3d da41 e3bc 9c58 083d
-0.028012492 -0.007305637 -0.02040854 0.05718929 -0.083054595 -0.052711442 0.06906419 0.087443784
-0.025664264 0.004324454 -0.05153451 -0.01409782 0.061890524 -0.05654146 0.058636945 -0.057991125
0.064756885 -0.05213143 -0.01229434 -0.054302987 -0.06407028 -0.029876137 -0.043091353 -0.06488347
-0.047112245 -0.075594425 0.062609926 0.04782072 0.059579898 -0.041650098 -0.012053773 -0.038331423
0.03693328 0.041495644 0.07950622 -0.012356681 0.06093504 0.07718636 -0.006414198 0.06997502
-0.043315936 -0.03712028 -0.076896936 -0.06933399 0.017372943 0.022765484 0.01465036 0.0016723925
-0.07878819 -0.023333715 -0.023502992 -0.029080871 0.07362258 -0.04736479 0.007140486 0.067137636
-0.026727224 -0.07219593 0.07682221 -0.055490192 -0.009499483 0.048816618 0.056610193 0.010487343
0.08493645 0.047586285 -0.002896564 -0.056841616 -0.08780706 0.062158767 -0.0638738 -0.028389912
0.048348837 0.08495618 -0.019242926 0.021420028 -0.009595537 -0.022479739 -0.057456423 -0.054994855
-0.014299142 -0.006186516 -0.010525673 -0.05979994 0.048276708 -0.06237702 -0.04901212 -0.025057964
-0.031585917 0.07094988 -0.07136849 0.07454051 -0.061562117 -0.08132003 -0.04242749 0.06413709
-0.05850954 0.02273266 0.011251458 -0.06201425 -0.003495176 -0.04307857 0.053251684 0.07925668
0.0222805 0.03150194 0.012344435 0.017112387 0.06977171 -0.05783488 0.009964738 -0.08280375
0.04885615 0.08362815 0.04359034 -0.042790167 0.05381085 0.08313684 -0.060503576 -0.032035455
0.0462305 -0.055772193 -0.058768567 0.0721402 -0.056302905 -0.054710526 0.04675948 -0.05301327
0.06270053 0.04415648 0.024627931 -0.03166997 -0.08749914 -0.047557317 -0.036115743 0.05790939
-0.0073580337 0.08088254 0.072573274 0.04943764 -0.0134058725 -0.05179548 -0.0005824032 0.059229832
-0.085630246 -0.007084261 -0.009504038 0.048258673 -0.014856195 -0.047001023 -0.065871656 -0.012909217
-0.066782996 0.03489228 -0.030145051 0.009657774 0.05782673 -0.004916068 0.08558337 0.012020107
0.07245622 0.054221585 -0.005843384 0.017618712 -0.024940467 -0.023283908 -0.057420176 0.07417753
-0.04284969 0.0070467945 -0.03260776 -0.064255446 -0.03458364 -0.0514733 -0.043743726 0.061622456
-0.07246714 -0.014862213 -0.07301252 0.024122795 0.03934102 -0.003858832 -0.0161957 -0.047841866
0.0549167 -0.046592083 -0.028109178 0.024239454 0.07004538 -0.05998128 0.06714537 -0.06710212
0.04629471 -0.020039685 0.02290444 0.019483866 -0.08507123 -0.013187133 0.06805246 -0.03807557
0.04658481 -0.08649843 0.06236549 -0.053663563 0.039910346 0.025932504 0.09242942 -0.10426458
-0.09078114 -0.05175314 -0.015005288 -0.03130025 -0.029660633 0.053962756 -0.07466992 -0.07935336
0.087982155 -0.06637122 0.022347173 0.034551863 0.060724713 -0.08864763 0.06937352 -0.012796609
0.05955063 -0.049612645 0.00060885184 -0.028570265 -0.05841743 -0.0065167863 -0.05390542 0.009783539
0.017289631 0.05447745 0.03794393 -0.025130067 -0.03209251 0.0107850935 0.07090154 -0.0016525154
0.040315766 0.07286856 0.033661816 0.05107866 -0.031987227 -0.008404407 0.029477118 -0.076417215
0.03167797 0.07333943 -0.02563307 -0.04756044 0.02613113 0.07535711 -0.027741361 0.03328763

actor_head2.bias f4 [33]
00000000: 533d b03d eb41 423d 0e94 823d c83f 7d3d
00000010: 0a76 3abd 7d09 07bd 814e f4bb 67f4 9dbd
00000020: 67f5 993d c711 4dbd 52ab 673c 6378 423d
00000030: 6331 fa3b bfc2 c53a 99fd 15bc edf0 ab3c
00000040: 48e1 8b3c 1a8e a63d af80 50bc 1a00 9bbd
00000050: 16b0 97bd bd47 743d 20ff f93c d6af c63c
00000060: fb48 c8bd 7c8f 0d3b ca91 47bd 0646 bc3c
00000070: f4b4 a5bd b21c 86ba 51d6 4cbc 434a 05bd
00000080: 13ee 9d3d
0.08605447 0.047426146 0.063758954 0.061828405 -0.045522727 -0.032968033 -0.0074556475 -0.07712632
0.0751751 -0.050065782 0.014139967 0.04747809 0.007635282 0.0015087946 -0.009154701 0.020988906
0.017075196 0.081325725 -0.012725993 -0.07568379 -0.074066326 0.059638727 0.03051716 0.024253767
-0.09779545 0.0021600416 -0.04872302 0.022982609 -0.08091155 -0.001023194 -0.012502269 -0.032541525
0.07711425

critic_head.weight f4 [1, 128]
00000000: 07bb 3a3e 92bd 593e c824 51be bd43 5dbe
00000010: c7df 37be 9a93 253e b84c 22be 84e1 323e
00000020: 9859 423e adb8 17be f17f 363e f0fd 49be
00000030: 9dd4 32be db6f 48be fa0e 36be 7dd5 4cbe
00000040: 772f 36be 80b5 2d3e ac78 423e 0f07 073e
00000050: 6a7d 16be 47c8 30be b47f 1b3e 4b7f 21be
00000060: de4d 45be 00c4 3bbe b5ba 23be ba0d 4d3e
00000070: 6735 653e b29f 173e 046e 153e 66ed 263e
00000080: 6a13 5dbe 9ec6 5ebe a977 1a3e 276b 243e
00000090: 5d10 333e b489 2f3e 3310 383e 7025 37be
000000a0: 1f8a fbbd 3d53 053e eae1 1dbe d94c 46be
000000b0: 5831 2bbe 9de4 263e 72ef 21be 16c8 2abe
000000c0: 625f 5cbe 2c32 633e 503e 533e 703c 153e
000000d0: 3e52 60be f994 0f3e ac11 14be 1cb2 1dbe
000000e0: af26 123e e0b5 44be 23ac 3d3e 0a04 0bbe
000000f0: 0104 30be ab96 2c3e 1ef9 433e fecc 183e
00000100: 54bd 5e3e 6a38 30be a12f 393e c47b 683e
00000110: 8a3c 3bbe 1f9f 45be 5b7c 3f3e 876b 483e
00000120: b6a1 5f3e f830 37be 828a 01be 7814 463e
00000130: 2ab3 1c3e 6d61 38be 0520 2f3e d624 58be
00000140: ac46 2dbe 16b1 35be 0491 0d3e cd46 50be
00000150: d8ac 223e b89a 353e 4333 413e e4b4 22be
00000160: 6b89 453e cd80 2d3e 7ee4 34be 7044 5bbe
00000170: 7f53 60be ccac 24be 37cb 62be cd75 5ebe
00000180: d4d9 553e 3756 4b3e a0e8 1e3e f1de 41be
00000190: 64f8 503e 5e64 143e 7494 1bbe c0b8 5a3e
000001a0: 52f7 35be 0035 44be 4a7e 50be 2ca4 03be
000001b0: 6e4d 553e 7291 36be 8e8c 3c3e 8321 253e
000001c0: 5e41 543e bd67 193e 1eae 233e 7ab4 3f3e
000001d0: 809a 1cbe 82cc 3c3e 1dd5 4bbe 5b28 3d3e
000001e0: d72a 3a3e 0020 0cbe 6c09 6abe bfc7 19be
000001f0: db0b 1bbe 4fe3 26be 3352 433e aa9c 593e
0.18235408 0.21263722 -0.20424187 -0.21607871 -0.17956458 0.16169587 -0.15849578 0.1746884
0.1897949 -0.14816542 0.17822243 -0.19725776 -0.17463918 -0.1957392 -0.1777915 -0.20003314
-0.17791544 0.16963768 0.18991345 0.13186286 -0.14696279 -0.172639 0.15185434 -0.15771215
-0.19267985 -0.18336487 -0.15989192 0.20024768 0.22383653 0.14807013 0.14592749 0.16301498
-0.21589437 -0.21755454 0.15084709 0.160565 0.17486711 0.17142373 0.1797493 -0.17885375
-0.12282204 0.13020034 -0.1541821 -0.19365253 -0.16718042 0.16298147 -0.15813997 -0.16677889
-0.2152076 0.22187108 0.20629239 0.14573836 -0.21906373 0.14021672 -0.14459866 -0.15399975
0.14272569 -0.19210005 0.18522696 -0.1357576 -0.17189027 0.1685435 0.19138 0.14921948
0.2175191 -0.1720902 0.18084575 0.22703463 -0.18284813 -0.19298981 0.18699782 0.19572268
0.21839032 -0.17889774 -0.12650493 0.19343746 0.1530272 -0.18005915 0.17102058 -0.21107802
-0.1692149 -0.17743334 0.1382485 -0.20339508 0.15886247 0.17734802 0.18867211 -0.15889317
0.19290702 0.16943665 -0.17665288 -0.21412826 -0.21906851 -0.16081542 -0.22147833 -0.21724625
0.20883876 0.19857107 0.15518427 -0.18932702 0.20407254 0.14491412 -0.15193349 0.21359539
-0.17770126 -0.19160843 -0.20360675 -0.12855595 0.20830318 -0.1782892 0.18412992 0.16126065
0.2072806 0.1498098 0.15984389 0.1872119 -0.15293312 0.18437389 -0.19905515 0.18472426
0.18180405 -0.13684082 -0.22855157 -0.15017603 -0.15141241 -0.16297649 0.19074325 0.21251169
